gpl/results/il/ep_040.ckpt (torch, 773626 bytes, 43 tensors)

extractor.0.weight f4 [24, 3, 5, 5]
0	0x3ded8f40	0.115995884
1	0x3b874bcb	0.0041289083
2	0x3d00d097	0.031448927
3	0x3de99e4e	0.11407147
4	0xbd372cc5	-0.04472043
5	0x3d9d978d	0.07694922
6	0xbc9d35c7	-0.019190682
7	0x3d7eaec7	0.0621784
8	0x3d027d39	0.031857703
9	0x3b7f11d7	0.0038920545
10	0x3d61b2d0	0.05510217
11	0x3cdd9a81	0.027051212
12	0x3d73be67	0.059507754
13	0xbccc0d03	-0.024908548
14	0x3bb240ee	0.005439869
15	0x3c94e1c3	0.018174058
16	0x3d68983e	0.056785814
17	0x3d169b99	0.036769483
18	0x3e0ca81c	0.13736004
19	0x3d828df5	0.063747324
20	0xbdc5271c	-0.096266
21	0xbde84dce	-0.11342965
22	0xbd832767	-0.06404
23	0xbdc2ecfd	-0.09517858
24	0xbdabc30c	-0.083868116
25	0x3c15dda8	0.009147085
26	0x3d915e3c	0.07098052
27	0x3d7fecde	0.062481754
28	0xbdd494eb	-0.10379966
29	0x3db8ae44	0.090176135
30	0xbb845db3	-0.00403949
31	0x3d988b3f	0.07448434
32	0x3d32c999	0.04364929
33	0xbdfc485d	-0.1231849
34	0xbdf60709	-0.120130606
35	0xbdaa9efd	-0.08331106
36	0x3d9457b0	0.072432876
37	0xbd2f61c0	-0.04281783
38	0x3cf88f1b	0.030341676
39	0xbd8e7ef7	-0.0695781
40	0x3de26622	0.110546365
41	0xbd2c7fd2	-0.042114086
42	0x3dc764cb	0.097360216
43	0x3c2ffde2	0.010741683
44	0xbd5d278a	-0.053992786
45	0xbc80b3fe	-0.015710827
46	0xbe02765a	-0.1274046
47	0xbcf7328e	-0.030175474
48	0xbdccf51b	-0.10007688
49	0xbda1558e	-0.078776464
50	0xbdc8a30b	-0.09796723
51	0xbd2e49fe	-0.042551033
52	0x3d99b824	0.07505825
53	0xbc1f6ade	-0.009730069
54	0x3e0fd244	0.14045054
55	0x3d79ee83	0.061018478
56	0xbd0ec9d4	-0.034860447
57	0xbdd1310f	-0.10214435
58	0x3d63103a	0.055435397
59	0x3ce884fc	0.028383724
60	0xbdbbfa48	-0.09178597
61	0x3d6bf5a8	0.057607323
62	0x3d584884	0.05280353
63	0x3db28367	0.08716469
64	0xbd9b8c39	-0.07595105
65	0xbc6252c3	-0.013813677
66	0x3c258c41	0.01010424
67	0x3d003f2e	0.031310253
68	0xbd98a34e	-0.07453023
69	0xbd8cde6e	-0.068783626
70	0x3c4fe451	0.012688712
71	0xbd9035b1	-0.07041491
72	0x3c86b34d	0.01644292
73	0xbd126bb9	-0.035747264
74	0xbaa5265f	-0.0012599936
75	0xbb9a8466	-0.00471549
76	0x3a4a8ab6	0.0007726358
77	0x3cde1ed2	0.027114306
78	0xbe095a0c	-0.13413256
79	0x3d47a9d4	0.048745945
80	0xbdff5179	-0.124667116
81	0xbe114ccb	-0.1418945
82	0xbcf239ca	-0.029568572
83	0xbd258231	-0.040407363
84	0x3d898383	0.06714537
85	0xbdc09267	-0.09402924
86	0xbe07cb26	-0.13261089
87	0x3d8d1304	0.068883926
88	0xbc1a1d6a	-0.009406427
89	0x3db9d43b	0.09073683
90	0xbc3effee	-0.011657698
91	0xbe1094d5	-0.14119275
92	0xbc98f576	-0.018671732
93	0xbb8b7ddc	-0.004256947
94	0xbdac31ef	-0.084079616
95	0xbe00a25f	-0.1256194
96	0xbcfe43ff	-0.031038282
97	0xbd220419	-0.03955469
98	0xbddbbcff	-0.107294075
99	0xbd851464	-0.0649803
100	0x3dcabf70	0.09899795
101	0xbd2ab43f	-0.041675802
102	0x3d5d9079	0.054092858
103	0x3d27ed28	0.040997654
104	0xbd87acb9	-0.06624741
105	0xbdee299b	-0.11629029
106	0x3da6f585	0.08152298
107	0xbc87a5bb	-0.016558519
108	0x3d9e7d04	0.077386886
109	0x3d0f6a47	0.035013463
110	0x3c98bc8a	0.01864459
111	0x3d87e241	0.066349514
112	0x3dcaed30	0.09908521
113	0xbd65eee4	-0.056136027
114	0x3d421e4e	0.047392182
115	0x3d9ce258	0.07660359
116	0x3d9bc4f0	0.07605922
117	0x3d75f01a	0.06004343
118	0xbdbbeb04	-0.09175685
119	0xbda48be1	-0.08034492
120	0xbe009899	-0.12558211
121	0xbd20a981	-0.03922415
122	0x3d888aa2	0.06667067
123	0xbdfa27b9	-0.12214608
124	0x3ce0318e	0.02736738
125	0xbdc10a3a	-0.09425779
126	0xbe18ada8	-0.14909995
127	0xbd515f4d	-0.051116277
128	0x3d2b0bb5	0.04175921
129	0x3dce9185	0.100863494
130	0xbde72a16	-0.11287324
131	0xbcdf89f0	-0.027287453
132	0x3d8b8bc1	0.06813765
133	0x3d854725	0.0650771
134	0x3d9c690c	0.076372236
135	0x3d711075	0.058853585
136	0x3d459a8c	0.04824309
137	0x3cb76f32	0.02239189
138	0xbd6ff0c3	-0.058579218
139	0xbd67a8b8	-0.056557387
140	0xbd91eb68	-0.07124978
141	0xbd018d56	-0.03162893
142	0xbdae9063	-0.08523633
143	0x3cf9b86c	0.030483447
144	0x3d3bf955	0.04589208
145	0xbd9029e9	-0.07039244
146	0xb92a1edd	-0.00016223961
147	0x3b765acd	0.0037590743
148	0x3d105998	0.035241693
149	0x3d89bdcd	0.06725655
150	0xbd9966fe	-0.07490347
151	0x3da5e90d	0.081010915
152	0xbd202e29	-0.03910652
153	0xbd1739d9	-0.036920402
154	0xbe124ebd	-0.14287849
155	0xbdbbe6da	-0.09174891
156	0xbdafe079	-0.08587737
157	0xbd897380	-0.06711483
158	0x3d893de8	0.06701261
159	0xbd5a6365	-0.053317446
160	0xbd840d39	-0.064478345
161	0x3d831d69	0.06402094
162	0x3d77e3ef	0.06052011
163	0x3dc8c08f	0.09802353
164	0xbd183b75	-0.037166078
165	0x3d572c0e	0.05253225
166	0xbc6e3125	-0.014538084
167	0x3b5370b4	0.0032263221
168	0xbd84195d	-0.0645015
169	0xbcbadfe6	-0.022811841
170	0x3ccce4bb	0.025011411
171	0x3dd81806	0.10551457
172	0x3d97fc66	0.07421188
173	0x3db70087	0.089356475
174	0x3e386f3e	0.18011186
175	0x3d8005d5	0.06251112
176	0x3d060615	0.032720644
177	0xbd136af8	-0.035990685
178	0xbe030f52	-0.12798813
179	0x3d0bf289	0.034166846
180	0xbd7df4e3	-0.06200112
181	0xbd3911b9	-0.045182917
182	0xbe0d595e	-0.13803622
183	0xbd70a977	-0.058755364
184	0xbdf5d2ae	-0.120030746
185	0x3ddbdae2	0.10735108
186	0xbdccba33	-0.09996452
187	0xbdba344d	-0.09092007
188	0xbb95b6c0	-0.0045689046
189	0xbd936ec6	-0.07198863
190	0x3ce486d3	0.02789632
191	0xbd6e8468	-0.05823174
192	0xbd8ce9de	-0.06880544
193	0xbc222dfd	-0.00989866
194	0x3d81d0a3	0.063386224
195	0xbd91f78f	-0.07127296
196	0x3d74bea7	0.059752133
197	0x3d95494a	0.072893694
198	0x3df62f00	0.12020683
199	0xbd91a013	-0.0711061
200	0xbc729162	-0.01480517
201	0xbe008bb9	-0.125533
202	0x3d872a23	0.06599834
203	0xbdab8686	-0.08375268
204	0x3ccca514	0.02498106
205	0xbcd7d5e0	-0.0263471
206	0xbd27b01e	-0.040939443
207	0xbd0ffb03	-0.035151493
208	0xbc23328d	-0.009960783
209	0x3caf596c	0.021404944
210	0x3c77f61e	0.0151343625
211	0x3cf3c051	0.02975479
212	0xbdd96040	-0.10614061
213	0x3da7e58d	0.0819808
214	0x3dc7b24a	0.09750803
215	0x3da0c811	0.0785066
216	0x3d8b6a6b	0.06807407
217	0xbdc607dc	-0.09669468
218	0xbd66d41f	-0.05635464
219	0x3db6fe64	0.0893524
220	0xbdb09483	-0.08622076
221	0x3dd52738	0.10407871
222	0xbdbead37	-0.09310382
223	0xbd9acf8d	-0.075591184
224	0x3d8cacce	0.068688974
225	0xbc1db1b2	-0.009624885
226	0x3d3aac56	0.04557451
227	0x3e15bfa6	0.1462389
228	0x3e22a46e	0.15883037
229	0x3e34e6e8	0.17666209
230	0x3c332ce7	0.0109359985
231	0xbd7c5206	-0.06160166
232	0x3e0dac0c	0.13835162
233	0x3a3b1009	0.00071358733
234	0xbc966d15	-0.018362561
235	0x3a1f5ead	0.00060794764
236	0xbde666b8	-0.11250061
237	0x3d3a8d52	0.04554493
238	0x3d2080ed	0.039185453
239	0xbdf842b8	-0.121221006
240	0xbdb8d19b	-0.09024354
241	0xbb97c0cf	-0.004631139
242	0x3d67f126	0.05662646
243	0xbacb556c	-0.0015513129
244	0xbd64cbf3	-0.055858564
245	0xbd0346f8	-0.032050103
246	0xbe0a49d3	-0.13504724
247	0xbdd5088d	-0.104020216
248	0xbde2d463	-0.11075666
249	0x3d76e030	0.060272396
250	0x3e1573ff	0.1459503
251	0x3b79b953	0.0038104847
252	0x3d239a54	0.0399421
253	0x3dc29374	0.09500781
254	0x3d82bab6	0.063832685
255	0xbd401486	-0.046894573

extractor.0.bias f4 [24]
0	0x3da7b0a5	0.08187989
1	0x3d192a54	0.037393883
2	0xbd88a757	-0.066725425
3	0x3d9fc5dd	0.07801411
4	0xbda504d7	-0.08057564
5	0x3d672aa2	0.056437142
6	0xbcc15942	-0.023602132
7	0x3d0c8022	0.034301884
8	0xbc4a119e	-0.012333302
9	0x3caebd30	0.021330446
10	0xbd069f89	-0.03286699
11	0x3d443bb2	0.047908492
12	0x3d5b3e6d	0.05352633
13	0xbdd269bc	-0.102740735
14	0x3dd18466	0.10230331
15	0xbdc0815b	-0.093996726
16	0xbd57c677	-0.052679505
17	0x3d3f5732	0.046714015
18	0x3dd4fc6a	0.10399707
19	0x3d208a9b	0.039194684
20	0xbd83a65c	-0.06428215
21	0x3c9e4ec9	0.019324677
22	0xbd893cc2	-0.06701042
23	0x3d57c078	0.052673787

extractor.1.weight f4 [24]
0	0x3f8ac69a	1.0841858
1	0x3f629b5a	0.885183
2	0x3f7b0ca8	0.98066187
3	0x3f86e93c	1.0539927
4	0x3f828615	1.0197169
5	0x3f8405fc	1.0314326
6	0x3f6bec87	0.9215779
7	0x3f7d5fa1	0.98974043
8	0x3f818ff4	1.0122056
9	0x3f7759d3	0.96621436
10	0x3f7ca5b2	0.9869033
11	0x3f76d77e	0.96422565
12	0x3f7ad0ab	0.9797465
13	0x3f77c61a	0.96786654
14	0x3f7ac2be	0.97953403
15	0x3f8714f7	1.0553273
16	0x3f85df89	1.0458843
17	0x3f829163	1.0200619
18	0x3f73e723	0.9527456
19	0x3f67085c	0.9024713
20	0x3f7121c1	0.9419213
21	0x3f8bad20	1.0912209
22	0x3f5cba65	0.86221915
23	0x3f7a0652	0.97665894

extractor.1.bias f4 [24]
0	0xbc5da9f3	-0.013529289
1	0xbe2ff006	-0.17181405
2	0xbda343cb	-0.07971915
3	0xbcf47326	-0.029840063
4	0x3c84ab21	0.016194882
5	0xbbe6ceb1	-0.0070436825
6	0xbdc7da90	-0.09758484
7	0xbca9c057	-0.020721598
8	0x3cac8376	0.02105878
9	0x3d3983fd	0.04529189
10	0x3d13afc7	0.036056306
11	0xbdcb0405	-0.09912876
12	0xbe01ba52	-0.12668732
13	0xbc50c789	-0.012742885
14	0xbd6eca03	-0.058298122
15	0xbd98d4be	-0.07462452
16	0x3ba30cb3	0.004975879
17	0x3ada7af2	0.0016668721
18	0xbdac2cee	-0.08407007
19	0xbdb25cf4	-0.08709136
20	0xbd48d9f4	-0.04903598
21	0x3d7db5bb	0.06194089
22	0xbdafb087	-0.08578592
23	0xbd0edcfa	-0.03487871

extractor.1.running_mean f4 [24]
0	0x3cf3d6ce	0.029765513
1	0xbe4e5bb2	-0.20152166
2	0xbe7d97c7	-0.2476493
3	0x3e261f5d	0.16222902
4	0xbe6768e0	-0.225986
5	0xbe4d0ef0	-0.2002523
6	0x3e0f96ee	0.14022419
7	0xbdffffdb	-0.124999724
8	0x3d6d35c7	0.057912614
9	0x3e908f21	0.282342
10	0xbd6eb638	-0.058279246
11	0xbe589c90	-0.21153474
12	0xbef5ae0c	-0.4798435
13	0x3d4097e7	0.047019865
14	0xbe8e7f47	-0.2783148
15	0xbd9a5e1a	-0.0753748
16	0xbbf0e028	-0.0073509403
17	0x3d896ff8	0.067108095
18	0xbe48289f	-0.19546746
19	0x3e4a31d0	0.19745564
20	0xbef66033	-0.4812027
21	0x3bce7831	0.006300949
22	0x3e85ec74	0.26156962
23	0x3c18adab	0.009318749

extractor.1.running_var f4 [24]
0	0x3c0357f1	0.008016572
1	0x3d314ef0	0.04328817
2	0x3cb6dc90	0.02232197
3	0x3c4689a3	0.012117776
4	0x3d00b5c0	0.03142333
5	0x3cc58340	0.024110436
6	0x3c56ebb1	0.013117717
7	0x3ce9b8cd	0.028530503
8	0x3c898e9c	0.016791634
9	0x3cdfc499	0.027315425
10	0x3c5a6482	0.013329627
11	0x3d2203d2	0.039554425
12	0x3df82daf	0.121180885
13	0x3cbb0931	0.022831531
14	0x3d9408b7	0.07228225
15	0x3c0d05de	0.008607356
16	0x3c39f530	0.011349961
17	0x3bbaf518	0.005705487
18	0x3d37b1e9	0.044847403
19	0x3ce562e0	0.028001249
20	0x3db7d947	0.08976989
21	0x3c1b9c84	0.009497765
22	0x3d880843	0.06642201
23	0x3c1375ae	0.009000225

extractor.3.weight f4 [36, 24, 5, 5]
0	0xbbc41ed1	-0.005985119
1	0xbc9182e7	-0.017762614
2	0xbcb32846	-0.02186979
3	0x3d08f4be	0.03343653
4	0x3da04cc2	0.078271404
5	0xbd07c846	-0.03314998
6	0x3cc3d9eb	0.023907622
7	0x3ba12345	0.0049175345
8	0x3cb41922	0.02198464
9	0x3d977b04	0.0739651
10	0xbcb76a27	-0.022389485
11	0x3c793129	0.015209475
12	0x3cf675ac	0.030085407
13	0x3cdef049	0.027214186
14	0xbad78feb	-0.0016446089
15	0xbce0f574	-0.027460791
16	0xbb3e86e0	-0.002907209
17	0xbd0b3f6c	-0.03399603
18	0x3cbf2bf3	0.023336386
19	0x3b2f99c7	0.002679454
20	0xbd0f6431	-0.03500766
21	0x3cbc84c2	0.023012523
22	0xbd3381cb	-0.043824952
23	0xbca25ebf	-0.01982057
24	0xbce1593c	-0.02750837
25	0x3b49feca	0.0030822032
26	0x3d0e4327	0.03473201
27	0x3b1f7c10	0.0024335422
28	0x3d46ee1c	0.048566923
29	0x3c1eb086	0.009685641
30	0xbd870a52	-0.06593765
31	0x3bebc5c5	0.007195207
32	0x3ccd69fc	0.025074951
33	0xbcbe3262	-0.023217384
34	0x3c5d9115	0.01352336
35	0xbce17b65	-0.02752466
36	0xbc02b776	-0.007978311
37	0x3ca15f43	0.019698745
38	0xbd4c564f	-0.049886998
39	0xbd825491	-0.06363786
40	0xbcd3d3aa	-0.025857765
41	0xbc616ff2	-0.0137596
42	0xbc3034ce	-0.010754777
43	0xbcb0f8ec	-0.02160307
44	0x3d348866	0.044075392
45	0xbd26fc1c	-0.040767774
46	0xbca9dd7d	-0.020735497
47	0xbcd4addd	-0.02596181
48	0xbc8951af	-0.016762583
49	0x3cdafad6	0.026730936
50	0xbb5d952c	-0.0033810837
51	0x3d01f57d	0.031728256
52	0x3d187f8e	0.03723102
53	0x3c5993cc	0.013279866
54	0x3d13047b	0.035892945
55	0x3c8e5330	0.017373651
56	0x3d86c08e	0.06579696
57	0x3d6c4faf	0.05769318
58	0x3bb19bc3	0.0054201796
59	0x3c7df8f1	0.015501247
60	0x3c12e1ca	0.008964965
61	0x3d0bba3d	0.034113158
62	0xbbe8f558	-0.0071093254
63	0xbc38789d	-0.011259225
64	0xbcd1c04c	-0.02560439
65	0xbda230b3	-0.07919445
66	0xbda16cee	-0.07882105
67	0xbdcd8ec5	-0.10036997
68	0xbdc1a95e	-0.09456132
69	0xbd278981	-0.04090262
70	0xbc213c81	-0.009841085
71	0xbb2ef279	-0.0026694818
72	0xbd00aa48	-0.031412393
73	0xbce62177	-0.02809213
74	0xbd4e27ed	-0.050331045
75	0x3b24bfe0	0.002513878
76	0xbd506e61	-0.050886516
77	0xbc28eca0	-0.010310322
78	0x3cdb8188	0.026795164
79	0x3cfd72d4	0.030938543
80	0xbd98d433	-0.07462349
81	0xbcfd2a51	-0.030903967
82	0xbcd7454d	-0.026278162
83	0x3d2cc63d	0.042181242
84	0xbc35b18b	-0.011089693
85	0x3cd4ca3b	0.025975337
86	0xbcd3f498	-0.025873467
87	0x3cc3fd0e	0.023924377
88	0x3cdb4036	0.026764017
89	0x3cc615b7	0.024180276
90	0xbd4f6b07	-0.05063918
91	0x3cfbcb29	0.030736523
92	0xbcbe7286	-0.023247968
93	0xbc814c31	-0.015783401
94	0x3cc3422e	0.023835268
95	0xbd06ded8	-0.032927364
96	0xbd49fa89	-0.049311195
97	0xbd9e155d	-0.077189185
98	0x3bb9426a	0.005653669
99	0xbce39573	-0.027781224
100	0xbc8e0e10	-0.01734069
101	0x3cbf29ff	0.023335455
102	0xbb88decc	-0.00417695
103	0x3d56d9fc	0.05245398
104	0x3c49a06f	0.012306317
105	0xbda6ab75	-0.081381716
106	0xbdc15690	-0.094403386
107	0xbcbd8010	-0.023132354
108	0xbc836cdc	-0.01604312
109	0x3cd106db	0.025515964
110	0xbd0524ab	-0.032505672
111	0x3c538f6f	0.012912615
112	0x3c9102ab	0.017701467
113	0xbb7dcc9b	-0.003872669
114	0xbcc21eda	-0.023696352
115	0xbdb8c2f5	-0.0902156
116	0xbd8a29ef	-0.067462794
117	0xbc97832d	-0.018495167
118	0xbcd93531	-0.026514621
119	0x3c900ebf	0.017585156
120	0xbd4ab98b	-0.049493354
121	0xbd0f1951	-0.034936253
122	0xbca6a503	-0.020342356
123	0xbd2c5824	-0.042076245
124	0x3cf72496	0.030168813
125	0xbd15ede7	-0.036603834
126	0xbcad9694	-0.021189965
127	0x3c9c349f	0.01906806
128	0xbc848265	-0.016175458
129	0x3c860783	0.016361004
130	0xbc7181ad	-0.01474039
131	0x3cae1e0e	0.021254566
132	0x3cde6beb	0.027151069
133	0x3d7f3d92	0.062314577
134	0x3d8fce92	0.07021822
135	0x3c8daf40	0.01729548
136	0xbbc03d25	-0.005866664
137	0x3cdda9d1	0.027058514
138	0xbd0e0f82	-0.03468276
139	0xbccae0ac	-0.024765335
140	0xbd4726cb	-0.04862098
141	0xbd1d7066	-0.03843727
142	0xbcbd58de	-0.023113664
143	0xbc10c74d	-0.0088365795
144	0xbc172cfc	-0.009227034
145	0xbce3e57a	-0.027819384
146	0xbd60f2f0	-0.054919183
147	0xbd2aae81	-0.041670326
148	0xbc898897	-0.016788764
149	0x3b992631	0.004673742
150	0xbcf07651	-0.029353293
151	0xbcafd161	-0.021462144
152	0x3c9fbe78	0.019500002
153	0x3cff3371	0.031152459
154	0xbc0baee4	-0.008525584
155	0xbd721013	-0.05909736
156	0xbd961d58	-0.073298156
157	0xbb40e70e	-0.0029434594
158	0xbc1eb1d3	-0.009685951
159	0xbd34d41a	-0.04414759
160	0xbd62f944	-0.0554135
161	0xbd695476	-0.056965314
162	0x3cbb55d6	0.022868078
163	0x3ce18b61	0.027532281
164	0x3d166bdc	0.036723956
165	0x3d0da2cb	0.03457908
166	0x3c86a1e3	0.016434615
167	0x3d87b61c	0.066265315
168	0x3d92f56f	0.07175719
169	0x3c6f0735	0.014589121
170	0xbd3dd177	-0.04634234
171	0x3d06b2fc	0.032885537
172	0x3b87164a	0.00412253
173	0x3c999f78	0.018752798
174	0xbd14152a	-0.036152996
175	0xbd00e9fb	-0.03147314
176	0xbb93e391	-0.004513212
177	0xbab7d854	-0.0014026263
178	0x3a0afb56	0.0005301734
179	0x3ca627ec	0.020282708
180	0x3d1897c1	0.0372541
181	0x3d979302	0.074010864
182	0x3c969467	0.01838131
183	0x3c96b4a7	0.018396689
184	0xbc53f1f4	-0.012936104
185	0x3cde5229	0.027138786
186	0x3d208431	0.039188568
187	0xbd396cac	-0.045269653
188	0xbc3cc3ea	-0.011521319
189	0xbd28b2f4	-0.041186288
190	0xbd1fd329	-0.039019737
191	0xbd29157d	-0.04128026
192	0xbc90893f	-0.017643569
193	0xbd6516d9	-0.055929992
194	0xbc98c8ff	-0.01865053
195	0xbd6e959c	-0.058248147
196	0xbafa3ff4	-0.0019092546
197	0xbcb2d8a9	-0.021831827
198	0xbd0cdc33	-0.034389686
199	0x3d0261f1	0.031831685
200	0xbcac9c30	-0.02107057
201	0xbd5671a4	-0.05235447
202	0xbd3dd8a2	-0.046349175
203	0xbd19e9fc	-0.03757666
204	0xbd12b287	-0.03581479
205	0xbca36461	-0.019945325
206	0xbcac20e5	-0.02101178
207	0x3c6768bf	0.0141240945
208	0xbc8e9040	-0.017402768
209	0xbd54a31e	-0.051913373
210	0x3c31a601	0.010842801
211	0x3a97143a	0.0011526414
212	0xbd11f054	-0.035629585
213	0x3c19684b	0.009363244
214	0x3bb50e14	0.00552536
215	0xbd9f71e0	-0.07785392
216	0xbd8deb92	-0.06929697
217	0xbd6a8744	-0.057257906
218	0xbd940922	-0.072283044
219	0xbd8973b6	-0.06711523
220	0xbd10867d	-0.035284508
221	0xbdbc1975	-0.09184543
222	0xbdc5e2ef	-0.09662425
223	0xbdb1c139	-0.086794324
224	0xbd6be079	-0.05758712
225	0x3cb649cf	0.022251992
226	0x3c37fb20	0.011229306
227	0x3c2018b3	0.009771514
228	0xbc48b97e	-0.012251256
229	0xbc89bf8f	-0.016814975
230	0x3ccad09e	0.02475768
231	0xbd7c2d6a	-0.061566748
232	0xbd200d6c	-0.0390753
233	0xbca2751e	-0.019831236
234	0xbce6fa3e	-0.028195497
235	0xbd495a5e	-0.049158446
236	0xbdd5f936	-0.10447924
237	0xbda77788	-0.08177096
238	0xbd9e8d92	-0.07741846
239	0x3af60233	0.0018768966
240	0x3ce86830	0.028369993
241	0x3d244818	0.040107816
242	0x3da1f568	0.07908136
243	0x3d807030	0.06271398
244	0xbc4662c9	-0.012108513
245	0x3b19d51e	0.0023472975
246	0x3d436f13	0.04771335
247	0x3d0ea62b	0.03482644
248	0xbc5e1466	-0.013554668
249	0x3d564e4c	0.052320763
250	0xbd1dbb77	-0.03850886
251	0x3d1c3db4	0.038144782
252	0x3d1d01f8	0.038331956
253	0x3d0edbf2	0.034877725
254	0xbbc6f7d7	-0.0060720253
255	0x3cf4752c	0.029841028

extractor.3.bias f4 [36]
0	0xbc84f3cd	-0.016229535
1	0xbd0ed3a1	-0.034869794
2	0x3cbf26ab	0.023333868
3	0xbcb57f54	-0.022155441
4	0xbcd7ea6a	-0.026356895
5	0xbced381d	-0.028957421
6	0xbba87142	-0.0051404545
7	0x3c79f0e8	0.01525519
8	0x3c0c4921	0.008562357
9	0xbca0280e	-0.01955035
10	0xbc9fb359	-0.0194947
11	0x3b2bbacd	0.0026203871
12	0xbb9addea	-0.0047261612
13	0xbcd4a675	-0.02595828
14	0xbd05814b	-0.032594007
15	0xbb656a60	-0.0035006031
16	0xbc471146	-0.012150114
17	0xbd0d3987	-0.03447869
18	0x3cca2913	0.024677789
19	0x3cfc3182	0.030785326
20	0x3ccfa813	0.025348699
21	0x3cc6e6d0	0.024279982
22	0xbd079fb6	-0.033111297
23	0x3c1ac2b9	0.00944584
24	0x3d1964d3	0.03744967
25	0xbd14f17e	-0.036363117
26	0xbcfbf4d3	-0.03075639
27	0x3ca3ca77	0.019994004
28	0x3c9c691a	0.019093085
29	0xbcc48ccb	-0.023992917
30	0x3d26c200	0.040712357
31	0x3d1e3204	0.038621917
32	0xbce18caa	-0.027532894
33	0xbbb299a3	-0.005450444
34	0xbcb5a008	-0.022171035
35	0x3c0cde69	0.008597949

extractor.4.weight f4 [36]
0	0x3f6f6100	0.93507385
1	0x3f82d429	1.0220996
2	0x3f648daf	0.8927869
3	0x3f7be1e3	0.9839155
4	0x3f7bfa15	0.9842847
5	0x3f8250b2	1.0180876
6	0x3f7f560c	0.9974067
7	0x3f6670b5	0.9001573
8	0x3f81393b	1.009559
9	0x3f7d365e	0.9891108
10	0x3f7607ba	0.9610554
11	0x3f67f5e7	0.9060959
12	0x3f87f7e2	1.0622523
13	0x3f77571e	0.96617305
14	0x3f6329c3	0.887356
15	0x3f804148	1.0019922
16	0x3f6f1ed2	0.93406403
17	0x3f7bd80d	0.9837654
18	0x3f91e106	1.1396797
19	0x3f7e0f23	0.99241847
20	0x3f788238	0.970737
21	0x3f709e3f	0.93991464
22	0x3f84c093	1.0371269
23	0x3f792784	0.9732592
24	0x3f84e2cd	1.0381714
25	0x3f7634b3	0.9617416
26	0x3f82a7b8	1.0207434
27	0x3f72f96a	0.94911826
28	0x3f818596	1.0118892
29	0x3f79651b	0.974199
30	0x3f74ddde	0.9565104
31	0x3f761056	0.96118677
32	0x3f7d2edb	0.9889962
33	0x3f7b10d3	0.98072547
34	0x3f7eeeb4	0.9958298
35	0x3f77ee18	0.9684768

extractor.4.bias f4 [36]
0	0xbddcfbbe	-0.107902035
1	0xbc23f34d	-0.010006738
2	0xbde4dc24	-0.11174801
3	0xbccbda01	-0.024884226
4	0xbdf32adc	-0.11873409
5	0x3da390b5	0.07986585
6	0xbdd41406	-0.10355382
7	0xbda788df	-0.08180403
8	0xbdc1a98f	-0.09456169
9	0xb9643b6b	-0.0002176591
10	0xbd8ffc31	-0.070305236
11	0xbda2efad	-0.07955871
12	0xbe287424	-0.16450554
13	0xbcfbf397	-0.030755801
14	0xbde38cd6	-0.11110847
15	0xbd424ba4	-0.047435418
16	0xbddfc375	-0.10925952
17	0xbc8191e5	-0.015816638
18	0xbdc2997e	-0.095019326
19	0xbe03b396	-0.12861475
20	0xbd430165	-0.04760875
21	0xbd98020a	-0.07422264
22	0xbdc8bd44	-0.098017246
23	0xbda5d919	-0.08098049
24	0x3c2553e6	0.010090804
25	0xbce46648	-0.027880803
26	0xbddc0ca2	-0.10744597
27	0xbd877d51	-0.06615699
28	0x3c8343c4	0.016023524
29	0xbdf96eae	-0.121793136
30	0xbd1bc8b7	-0.038033213
31	0xbb8e24da	-0.004337889
32	0xbd8dfba4	-0.06932762
33	0xbc90667f	-0.017626999
34	0xbe04e5a0	-0.1297822
35	0xbd263912	-0.04058177

extractor.4.running_mean f4 [36]
0	0xc005b91f	-2.089424
1	0x3e924bc1	0.2857342
2	0xc01c13e7	-2.4387147
3	0xc05e556f	-3.4739645
4	0xc00f19d5	-2.2359517
5	0xbe94c503	-0.29056558
6	0x3dd3a25b	0.10333701
7	0xbf9f57ed	-1.2448708
8	0x405c2b0a	3.440127
9	0xc072f86c	-3.7964125
10	0xbf664585	-0.8994983
11	0xbf1d1ad6	-0.61369073
12	0xbdef5f4f	-0.116881005
13	0xc006149b	-2.0950077
14	0xbfc94185	-1.572312
15	0xbfcf6bb5	-1.6204745
16	0xbfa8924d	-1.3169647
17	0xbfb88e80	-1.4418488
18	0xbf16c09c	-0.5888765
19	0x4030d9e2	2.7632985
20	0xbf6ae86f	-0.91760916
21	0xbff4eefb	-1.9135431
22	0x3f2e6523	0.6812307
23	0x403a691d	2.9126656
24	0x3f62c6a3	0.88584346
25	0xbfbc6edf	-1.4721335
26	0x3ed00038	0.40625167
27	0xc03dc639	-2.9652236
28	0xbfbc5155	-1.471232
29	0x3e9d8c33	0.30771026
30	0xbff9722b	-1.9487966
31	0xc035b26f	-2.8390157
32	0xbf773179	-0.96559864
33	0xc00785de	-2.1175456
34	0x3f6732fd	0.90312177
35	0xbf82a854	-1.020762

extractor.4.running_var f4 [36]
0	0x408829e6	4.2551146
1	0x405171b7	3.2725656
2	0x41119b72	9.1004505
3	0x404a3477	3.1594522
4	0x415e2129	13.883096
5	0x40cbc334	6.3675785
6	0x400f7e6e	2.2420917
7	0x4008e485	2.1389477
8	0x411f4b5a	9.955896
9	0x40f11a43	7.534456
10	0x3fec1ead	1.8446862
11	0x4043a752	3.0570874
12	0x40f2c0bf	7.5860286
13	0x40093585	2.1438916
14	0x4101c165	8.109715
15	0x4074f292	3.8273053
16	0x3fbf0da5	1.4926039
17	0x401b3f97	2.4257562
18	0x3f324976	0.6964334
19	0x40680bf3	3.6257293
20	0x403dc93e	2.9654078
21	0x406e9b4b	3.7282283
22	0x3fee17c1	1.8600999
23	0x4114fed1	9.312211
24	0x407e3c46	3.9724288
25	0x3ff673bb	1.9254068
26	0x3fa464f5	1.284331
27	0x400bc05d	2.183616
28	0x4002b939	2.042555
29	0x40059600	2.0872803
30	0x40a06954	5.0128574
31	0x40762ac9	3.8463614
32	0x3ff50860	1.9143181
33	0x408c8d59	4.3922544
34	0x40b6fa5a	5.7180605
35	0x40cca09e	6.3946066

extractor.6.weight f4 [48, 36, 3, 3]
0	0xbcee5019	-0.029090928
1	0xbc25d107	-0.010120637
2	0xbd3f530e	-0.046710066
3	0x3ccce948	0.02501358
4	0xbccb2a99	-0.024800586
5	0x3cea757c	0.028620474
6	0xbcc9bafe	-0.024625298
7	0xbd30718c	-0.043077037
8	0x3c72de6a	0.014823535
9	0xbc563de7	-0.013076282
10	0xbce0d01e	-0.027442988
11	0xbdc8199f	-0.09770512
12	0x3d5f9d6f	0.0545935
13	0xbc243a22	-0.010023626
14	0x3ca7519f	0.020424662
15	0xbd12b680	-0.035818577
16	0xbd9d46e9	-0.07679541
17	0xbc37e236	-0.0112233665
18	0x3bfbc12c	0.00768294
19	0x3d719a4a	0.058985032
20	0xbd532737	-0.05155107
21	0xbd7f62d5	-0.062350113
22	0x3d67295d	0.05643593
23	0xbd198848	-0.037483484
24	0x3d51f7d9	0.051261757
25	0xbc4ae8e9	-0.012384632
26	0xbbb6a2b9	-0.0055735973
27	0x3d90f36c	0.07077679
28	0x3dac6314	0.08417335
29	0x3d5c70cf	0.05381852
30	0x3cd9ab3e	0.026570912
31	0x3d1a897f	0.037728783
32	0x3ccaef0b	0.024772188
33	0xbcb8b5ae	-0.02254757
34	0xbcc479c5	-0.023983845
35	0x3d0c95da	0.034322597
36	0x3c30ae2f	0.010783716
37	0x3cfb990e	0.03071263
38	0xbd8009c3	-0.06251862
39	0xbca001ad	-0.01953205
40	0x3d62a148	0.05532959
41	0x3c25006b	0.0100709
42	0xbd5254ad	-0.051350284
43	0xbd1f774e	-0.038932137
44	0xbd900263	-0.07031705
45	0xbd18cf9d	-0.03730737
46	0xbb5e43be	-0.003391489
47	0xbd60fc8a	-0.05492834
48	0x3c3f173b	0.011663253
49	0x3c3dc561	0.011582703
50	0x3cc90fa6	0.024543595
51	0xbcc7e1aa	-0.024399597
52	0x3d2a76f4	0.04161735
53	0x3d8679fe	0.06566237
54	0xbc4648c2	-0.012102308
55	0x3d26cc44	0.040722147
56	0xbd3e869c	-0.046515092
57	0xbc014443	-0.00788981
58	0x3d21fa01	0.039545063
59	0xbc007b28	-0.007841863
60	0x3c7dff34	0.01550274
61	0x3d3d6ed9	0.04624829
62	0x3d96d121	0.07364107
63	0xbc09dfac	-0.008415144
64	0xbcf61fc3	-0.030044442
65	0x3cf628ff	0.030048845
66	0xbd2bca8f	-0.04194122
67	0xbd097833	-0.033561897
68	0xbcd81524	-0.026377268
69	0xbcc39f96	-0.023879807
70	0xbcb8ff8a	-0.022582788
71	0xbc676c3b	-0.014124925
72	0x3d942cea	0.07235129
73	0xbc9fb7d4	-0.019496836
74	0x3d24bdcc	0.040220067
75	0x3b1134cf	0.002215672
76	0x3d33fe04	0.04394342
77	0x3d5511ec	0.052019045
78	0x3c090a5e	0.008364288
79	0x3cf60573	0.030031895
80	0x3c4b66de	0.012414662
81	0x3c73eba0	0.01488772
82	0x3c29bb8d	0.010359657
83	0x3c309eaa	0.010780016
84	0x3cd81dfa	0.026381481
85	0x3b7faa58	0.0039011445
86	0x3d6d49ab	0.057931583
87	0x3d81c5f3	0.06336584
88	0x3d4b3f5d	0.049620975
89	0x3c4a3eec	0.012344103
90	0x3d671e0d	0.056425143
91	0x3d893569	0.0669964
92	0x3d8b5248	0.06802803
93	0x3d84267b	0.06452652
94	0x3c23f9f1	0.010008321
95	0xbcc8e7e8	-0.024524644
96	0xbab61ba2	-0.0013893733
97	0x3d5c0b36	0.05372163
98	0xbc9f08f3	-0.019413447
99	0xbd424905	-0.047432918
100	0x3cb11929	0.021618443
101	0xbd09b35f	-0.033618327
102	0x3c89e579	0.016833054
103	0x3c154a32	0.009111928
104	0xbd405873	-0.04695935
105	0x3bd6b4f9	0.0065523353
106	0x3d0af4b9	0.033924792
107	0x3d4eab00	0.050456047
108	0x3c0c24a0	0.008553654
109	0x3ce080e8	0.027405217
110	0xbd496bae	-0.049174957
111	0xbd76985a	-0.060203888
112	0xbddbf390	-0.10739815
113	0xbdb5f0cb	-0.08883818
114	0x3da55f8b	0.08074864
115	0x3d304ca4	0.04304184
116	0x3cec6405	0.028856287
117	0x3d31befe	0.043395035
118	0x3c909ed1	0.017653855
119	0x3c9f55d3	0.019450104
120	0x3ca608fb	0.020267954
121	0x3da4d80e	0.08049022
122	0x3d77859b	0.06043015
123	0x3cc2074f	0.023685126
124	0x3d30361f	0.043020364
125	0x3d1da598	0.038488
126	0x3b8df370	0.0043319985
127	0x3c859e9a	0.016310979
128	0x3a06efb1	0.0005147411
129	0x3dbb7f69	0.09155161
130	0xbb0d9218	-0.0021601971
131	0x3d9a465c	0.07532951
132	0xbbcb1296	-0.006197284
133	0xbb13bf4e	-0.0022544446
134	0x3d909492	0.070595875
135	0xbc203c20	-0.00977996
136	0xbd05cd17	-0.032666292
137	0xbd2fd8f2	-0.042931505
138	0x3c5094ac	0.012730759
139	0x3d0e0e3d	0.034681547
140	0xbb41ba85	-0.0029560637
141	0x3dc107be	0.09425305
142	0xbc7a1919	-0.015264773
143	0xbd35a076	-0.04434248
144	0x3d1e8f64	0.038710967
145	0xbcd814dc	-0.026377134
146	0x3cb07096	0.02153806
147	0xbd090538	-0.033452243
148	0xbcae1840	-0.021251798
149	0xbd3336c7	-0.04375341
150	0x3d1c8d58	0.038220733
151	0xbce62649	-0.028094428
152	0x3c8290d0	0.015938193
153	0xbd07cb2b	-0.03315274
154	0x3d624847	0.05524471
155	0xbcc7f7e2	-0.024410192
156	0x3bac8d28	0.0052658506
157	0x3d1b827c	0.037966236
158	0x3ccf884f	0.025333552
159	0x3d9efc83	0.077630065
160	0x3d07e92a	0.033181347
161	0xb986c25f	-0.0002570329
162	0x3d35358f	0.04424053
163	0x3cb109ad	0.02161106
164	0x3c7f3779	0.015577191
165	0xbd8965fa	-0.067089036
166	0xbdef46cf	-0.116834275
167	0xbdb267c2	-0.087111965
168	0x3e27e7dd	0.16397043
169	0xbb504bd8	-0.0031783488
170	0x3da0562c	0.07828936
171	0x3d2b9af5	0.041895825
172	0xbc5d7e16	-0.013518831
173	0xbc3edbe4	-0.011649106
174	0xbccb4af1	-0.024816008
175	0xbd8174fb	-0.063211404
176	0xbd18ee20	-0.03733647
177	0x3cd9c5fa	0.02658366
178	0x3d19c542	0.037541635
179	0x3da3c6b3	0.07996883
180	0xbd539638	-0.05165693
181	0xbd54af7c	-0.051925167
182	0xbbc0f784	-0.005888881
183	0x3d43743c	0.04771827
184	0x3d858881	0.06520177
185	0x3cb0ae92	0.021567617
186	0x3d2e9484	0.042622104
187	0xbc841194	-0.016121663
188	0x3ca6e947	0.020374907
189	0xbb85c02d	-0.004081747
190	0xbb292b2c	-0.0025813086
191	0x3c211fa3	0.009834203
192	0xbb4fd878	-0.0031714719
193	0x3c3a6ac3	0.011377993
194	0x3d9eb1ac	0.07748732
195	0xbd610b95	-0.054942686
196	0xbc8341dd	-0.016022617
197	0xbd0354ac	-0.03206317
198	0x3d8a0908	0.06740004
199	0xbad50a54	-0.0016253688
200	0x3c9a242d	0.018816078
201	0xbd671223	-0.05641378
202	0xbd63ba4a	-0.05559758
203	0x3c575eef	0.0131451925
204	0x3d9d43a1	0.07678915
205	0x3bc62a5f	0.0060475315
206	0x3da7d05c	0.08194038
207	0x3cbfb138	0.023399934
208	0xbb559617	-0.0032590681
209	0x3d1c5f1e	0.03817665
210	0xbc60c1da	-0.013718093
211	0x3d5d8a70	0.054087102
212	0x3d6d14d8	0.057881206
213	0x3c7927f6	0.015207281
214	0xbbb6612e	-0.005565784
215	0x3d809a42	0.06279422
216	0x3c036e17	0.008021853
217	0xbc26f8fb	-0.0101911975
218	0xbd7fbd8c	-0.062436625
219	0x3a3004a3	0.0006714558
220	0xbc40082d	-0.011720699
221	0xbc605405	-0.013691907
222	0x3cab70ef	0.020927874
223	0xbcc1ff53	-0.023681318
224	0x3d6bee67	0.057600405
225	0xbd2deb45	-0.0424607
226	0x3d1b7a23	0.037958276
227	0x3c60f9aa	0.0137314
228	0x3cc4a571	0.02400467
229	0xbd1db8b1	-0.038506214
230	0x3d235812	0.039878912
231	0x3ca77daa	0.020445663
232	0xbd06abf7	-0.032878842
233	0xbc868b27	-0.016423775
234	0xbda30db3	-0.07961597
235	0xbd6c8b69	-0.05775014
236	0xbd683960	-0.056695342
237	0x3dc4e3cf	0.096137635
238	0x3db4b90f	0.088243596
239	0x3d914b9b	0.07094499
240	0xbb24cee5	-0.0025147733
241	0xbc567549	-0.013089486
242	0xbd6ec844	-0.058296457
243	0x3b8e86e5	0.004349577
244	0xbbbc59b3	-0.0057479977
245	0x3c93fd47	0.018065108
246	0x3d11f2bc	0.03563188
247	0x3b418ef8	0.002953468
248	0x3d802fe8	0.062591374
249	0xbd01bb1e	-0.03167259
250	0x3ccb6472	0.02482817
251	0xbd529149	-0.051408086
252	0xbcd225d4	-0.025652803
253	0x3cd0d8c8	0.025493994
254	0x3cfb3b12	0.030667815
255	0x3cb08117	0.02154593

extractor.6.bias f4 [48]
0	0x3bd522b0	0.006504379
1	0xbd3fa41e	-0.046787374
2	0xbb5b1478	-0.0033428948
3	0xbd2edc5b	-0.042690616
4	0x3d32a4b7	0.043614116
5	0xbc1fead8	-0.009760581
6	0xbb8459a2	-0.0040390054
7	0x3d632396	0.05545386
8	0x3c1fbad4	0.009749133
9	0x3cd194a1	0.025583567
10	0xbd4279cd	-0.04747944
11	0xbd35399b	-0.04424439
12	0x3cf0acad	0.029379213
13	0x3ce2844b	0.027650973
14	0xbd4f2a77	-0.050577607
15	0x3d2cf7da	0.042228557
16	0xbc6097de	-0.013708083
17	0x3d116e07	0.03550532
18	0x3d5abe0d	0.053403903
19	0xbd2bb2a6	-0.04191842
20	0x3bcf4eb9	0.006326523
21	0xbd54588b	-0.051842254
22	0xbcd31c79	-0.025770413
23	0xbc94f90d	-0.018185163
24	0xbcbc3db5	-0.022978643
25	0x3d0741ad	0.033021618
26	0x3c77513c	0.015095051
27	0x3cdc4705	0.026889334
28	0x3cd1ddcd	0.025618458
29	0x3c7defd7	0.015499077
30	0x3cb78edd	0.02240699
31	0xbcabf8c6	-0.020992648
32	0x3d378689	0.044806037
33	0x3c26ed5f	0.01018843
34	0xbc3ad1ad	-0.01140253
35	0x3a210a0a	0.00061431585
36	0xbc8b18bb	-0.016979566
37	0x3c24d9d7	0.010061703
38	0x3d408c02	0.04700852
39	0xbd35afc6	-0.044357084
40	0xbd392278	-0.045198888
41	0xbcafa3b9	-0.021440374
42	0x3b17abaf	0.0023143103
43	0x3d27efdb	0.04100023
44	0x3d08ad4a	0.033368386
45	0x3d4abf5f	0.049498912
46	0x3cab1d45	0.02088798
47	0xbd25cad1	-0.040476624

extractor.7.weight f4 [48]
0	0x3f76989b	0.9632661
1	0x3f7bb6f0	0.98326015
2	0x3f7a7973	0.97841567
3	0x3f7a6440	0.9780922
4	0x3f7c67fb	0.9859616
5	0x3f7824c1	0.9693108
6	0x3f78feef	0.97264
7	0x3f76f78b	0.9647147
8	0x3f735258	0.9504752
9	0x3f7b1d52	0.98091614
10	0x3f80f94e	1.0076082
11	0x3f73348d	0.9500206
12	0x3f767506	0.96272314
13	0x3f870089	1.0547038
14	0x3f831d2a	1.0243275
15	0x3f84dac0	1.0379257
16	0x3f80360b	1.0016493
17	0x3f7dfc80	0.9921341
18	0x3f80fa4a	1.0076382
19	0x3f7a4657	0.9776358
20	0x3f7b259e	0.98104274
21	0x3f77de0d	0.968232
22	0x3f819dfa	1.0126336
23	0x3f75e7e0	0.9605694
24	0x3f829539	1.0201789
25	0x3f8598c0	1.0437241
26	0x3f810451	1.0079442
27	0x3f80fc31	1.0076963
28	0x3f7ace68	0.979712
29	0x3f7bc912	0.98353684
30	0x3f7672d1	0.96268946
31	0x3f74811b	0.955095
32	0x3f838a06	1.0276496
33	0x3f7ba0a5	0.98292
34	0x3f7cf9e2	0.9881879
35	0x3f81e190	1.0146961
36	0x3f8677b8	1.0505285
37	0x3f7aad4f	0.979207
38	0x3f82a863	1.0207638
39	0x3f74dd6c	0.9565036
40	0x3f7e0511	0.9922648
41	0x3f63872e	0.8887814
42	0x3f824c56	1.0179546
43	0x3f84e9eb	1.0383886
44	0x3f8040de	1.0019796
45	0x3f7bce81	0.98361975
46	0x3f7abdad	0.9794567
47	0x3f787f54	0.9706929

extractor.7.bias f4 [48]
0	0xbe68e2b7	-0.22742735
1	0xbe87670e	-0.26445812
2	0x3c3adefb	0.011405702
3	0xbd30a9ae	-0.04313057
4	0xbbe9a442	-0.0071301768
5	0xbe48097e	-0.19534871
6	0xbd7cedcb	-0.061750215
7	0xbccea01b	-0.025222829
8	0xbd4bbbe4	-0.049739733
9	0xbe806c96	-0.25082844
10	0x3ccdd2d7	0.02512495
11	0xbda3901c	-0.07986471
12	0xbe7e7d99	-0.24852599
13	0xbce6fdc6	-0.02819718
14	0x3d169e3d	0.036772
15	0xbd91a6cc	-0.07111892
16	0x3c8aa479	0.01692413
17	0xbc7de776	-0.015497079
18	0x3c41438b	0.011795889
19	0xbd71a611	-0.058996264
20	0xbcb3f95c	-0.02196949
21	0xbd823b26	-0.06358938
22	0xbe47f59d	-0.19527288
23	0xbd99faf0	-0.07518566
24	0xbd386d99	-0.045026395
25	0x3ce728fc	0.028217785
26	0x3cfa3f44	0.030547746
27	0xbe3d4209	-0.18482222
28	0xbde29ce0	-0.11065078
29	0xbd905c9b	-0.07048913
30	0xbcb6ffdf	-0.022338806
31	0xbdb539c6	-0.0884891
32	0xbd09d51c	-0.033650503
33	0xbd10f598	-0.035390466
34	0xbe841735	-0.25798956
35	0xbe42aca2	-0.19011167
36	0xbd0e6864	-0.034767523
37	0xbe8f1065	-0.27942196
38	0xbc5d8f0a	-0.013522873
39	0xbd7ad581	-0.06123877
40	0xbca113e0	-0.019662797
41	0xbdb0bb3b	-0.086294614
42	0xbd42fa50	-0.047601998
43	0x3d3cb783	0.046073448
44	0xbc7185fb	-0.014741416
45	0xbd9b8d77	-0.07595342
46	0xbe1b5de2	-0.15172532
47	0xbe3b5302	-0.18293384

extractor.7.running_mean f4 [48]
0	0x3f4cef50	0.8005266
1	0x3e0a9fb5	0.13537486
2	0xbd699727	-0.057028916
3	0xbd905248	-0.07046944
4	0xbf6c5984	-0.9232409
5	0xbf9284d8	-1.1446791
6	0x3d665ed4	0.05624278
7	0xbd4485a1	-0.047979
8	0xbe80cce7	-0.25156328
9	0x3f05fbe2	0.5233747
10	0xc007ebb0	-2.1237602
11	0xbeb02281	-0.34401324
12	0xbdc6d4ea	-0.09708579
13	0xbea58f04	-0.32335675
14	0xbe87910d	-0.26477852
15	0xbec2caeb	-0.3804544
16	0xc004a80a	-2.0727563
17	0xbf938cab	-1.1527303
18	0xbf79d2af	-0.975871
19	0x3e732b77	0.2374705
20	0xbf408b7b	-0.7521283
21	0xbf68e23c	-0.90970206
22	0xbe47e01c	-0.19519085
23	0x3f367142	0.7126657
24	0x3fec3fc1	1.8456956
25	0x3ea7de9b	0.32787022
26	0xbf8bb8d2	-1.0915778
27	0xbeab57e9	-0.33465508
28	0xbfea4bc6	-1.8304374
29	0x3f118c23	0.56854457
30	0xbf97425b	-1.1817125
31	0x3f3ba62e	0.73300445
32	0x3f15dbe6	0.58538663
33	0xbe11c470	-0.14235091
34	0xbc5a1261	-0.013310046
35	0xbe80685e	-0.25079626
36	0x3f6569d0	0.8961458
37	0x3f496e92	0.7868434
38	0xbe0a35a4	-0.13497025
39	0xbf3cdfeb	-0.7377917
40	0xbf902cd9	-1.1263686
41	0x3e5d1c01	0.21592714
42	0x3efd2d0e	0.49448436
43	0x3ebc4409	0.36770657
44	0x3f1dfb09	0.61711174
45	0xbfcee9bb	-1.6165079
46	0xbfafbcc9	-1.3729488
47	0x3f5af553	0.85530585

extractor.7.running_var f4 [48]
0	0x3eb0b6af	0.34514377
1	0x3f502816	0.81311166
2	0x3f77f840	0.96863174
3	0x3fd24729	1.6427966
4	0x3f760b88	0.96111345
5	0x3f0d56ee	0.5521077
6	0x3fe841d8	1.8145094
7	0x3f9e2c39	1.2357246
8	0x401c649d	2.443641
9	0x3f545630	0.8294401
10	0x3faf16a7	1.3678788
11	0x3f66868e	0.90049064
12	0x3f6170cc	0.8806274
13	0x3ea07361	0.31338027
14	0x3f381fa9	0.7192331
15	0x3e935d2b	0.2878202
16	0x40106346	2.2560592
17	0x4072ecf3	3.7957122
18	0x3f4060c9	0.7514768
19	0x3f3e3fb7	0.7431597
20	0x3eac8acf	0.33699653
21	0x4009a8aa	2.1509194
22	0x3f806e1f	1.0033606
23	0x3fd15b3a	1.6355965
24	0x3faab841	1.333748
25	0x3fb725c3	1.4308399
26	0x40611755	3.517049
27	0x3f0183b1	0.5059157
28	0x3f02bc6d	0.51068765
29	0x3f15e0ab	0.5854594
30	0x3fdb2e13	1.7123436
31	0x3f30f387	0.69121593
32	0x3f0cbe6b	0.54978055
33	0x3f817585	1.0113989
34	0x3f020be3	0.5079939
35	0x3f40e154	0.75343823
36	0x3f9c401f	1.2207068
37	0x3f184e52	0.5949451
38	0x3f35b53b	0.7097966
39	0x4045395e	3.0816264
40	0x3fbc4e21	1.4711343
41	0x40145a03	2.3179939
42	0x3f8182ed	1.011808
43	0x3f74b3c1	0.9558678
44	0x3fe17605	1.7614142
45	0x3f442247	0.76614803
46	0x3eee2738	0.46514297
47	0x3efc9bb3	0.4933754

extractor.9.weight f4 [64, 48, 3, 3]
0	0x3acffc8a	0.0015868109
1	0x3d0580b2	0.032593437
2	0x3cc097dd	0.023509914
3	0xbb8251e7	-0.0039770487
4	0xbceb4733	-0.028720474
5	0xbcaf15a2	-0.02137262
6	0xbcd8864b	-0.026431223
7	0xbdd7b011	-0.10531629
8	0xbd64c2ba	-0.05584977
9	0x3c1d4d7b	0.009600992
10	0xbce7db42	-0.028302792
11	0xbd2d85a6	-0.042363785
12	0xbb45a2d3	-0.0030156865
13	0x3ba80580	0.005127609
14	0xbbd9bd2e	-0.0066448664
15	0xbcb068b9	-0.02153431
16	0xbdb8a8f2	-0.09016599
17	0xbdb07997	-0.086169414
18	0xbd344dc5	-0.04401948
19	0x3d214f43	0.03938223
20	0xbd35ab31	-0.044352714
21	0xbb7fc3c5	-0.00390266
22	0xbce17de6	-0.027525853
23	0xbcac67c2	-0.02104557
24	0xbd16a931	-0.036782447
25	0xbcf71fdc	-0.030166559
26	0x3cdfea97	0.02733354
27	0x3b4d6d0b	0.0031345512
28	0xbd3a3271	-0.04545826
29	0xbd36bbd2	-0.044612713
30	0x3ca6f423	0.020380085
31	0xba9d0528	-0.0011979686
32	0xbd98805a	-0.07446356
33	0xbda5adbb	-0.08089777
34	0xbd112005	-0.035430927
35	0xbd47828e	-0.04870849
36	0xbb9d8fe9	-0.004808415
37	0xbcaf53a2	-0.021402184
38	0x3ceeab6a	0.029134471
39	0xbcfd4894	-0.030918397
40	0x3ca57d6f	0.020201413
41	0xbd0b8b92	-0.03406865
42	0x3beabbe6	0.0071635125
43	0xbcff9cea	-0.031202752
44	0xbd206eec	-0.039168283
45	0xbde59695	-0.11210362
46	0xbdbf051e	-0.09327148
47	0xbd649f9d	-0.05581628
48	0xbd0b38b3	-0.03398962
49	0xbc007315	-0.007839938
50	0x3c9384b6	0.018007617
51	0xbd867c2b	-0.06566652
52	0xbcf5d2d2	-0.030007754
53	0xbd04be50	-0.03240806
54	0xbd66aa90	-0.056315005
55	0xbd4305e3	-0.047613036
56	0xbd700344	-0.058596864
57	0xbd767270	-0.06016773
58	0x3c8d59d7	0.017254753
59	0xbda82ad5	-0.082112946
60	0xbda15f45	-0.07879499
61	0xbc884649	-0.016635077
62	0xbdcf480b	-0.10121163
63	0x3c52ada3	0.012858781
64	0xbc2857ad	-0.01027481
65	0x3a994eaf	0.0011696423
66	0x3ce308fc	0.027714245
67	0x3d116c9e	0.035503976
68	0x3d62a6cf	0.055334862
69	0xbc8cfa3c	-0.017209165
70	0x3d866df0	0.06563938
71	0x3cdeada1	0.027182402
72	0x3b3046d9	0.0026897697
73	0x3d4da1b6	0.050203048
74	0x3c9577dd	0.018245632
75	0x3d191a63	0.03737868
76	0x3c8403e7	0.016115142
77	0xbb8759d4	-0.0041305814
78	0xbb8a1363	-0.004213737
79	0x3bc73dad	0.0060803504
80	0xbd8ad475	-0.06778804
81	0xbd2dea57	-0.042459812
82	0xbc6d5873	-0.01448642
83	0xbc9118d1	-0.017712029
84	0xbc1241cc	-0.00892682
85	0xbc50cb18	-0.012743734
86	0xbd220d86	-0.03956368
87	0xbb7ccbf8	-0.0038573723
88	0x3c840ae6	0.016118478
89	0xbaf440b6	-0.0018635008
90	0xbc3e1627	-0.011601961
91	0xbd7417e8	-0.05959311
92	0xbc4b9170	-0.012424812
93	0xbc76d054	-0.015064318
94	0xbc76b4c6	-0.015057748
95	0x3d0b78d3	0.034050774
96	0xba066124	-0.00051261694
97	0x3d021c1e	0.031765096
98	0xbcb9a464	-0.022661395
99	0x3c8dbcce	0.017301943
100	0xbd56e384	-0.05246307
101	0xbc2a4442	-0.0103922505
102	0x3caeee24	0.021353789
103	0xbbc9f906	-0.006163719
104	0xbd000f50	-0.031264603
105	0xbc452395	-0.012032409
106	0xbd1a10c1	-0.037613634
107	0x3d61d36f	0.05513328
108	0xbcfd6edb	-0.03093665
109	0xbb413e7b	-0.0029486704
110	0xbd4497f1	-0.047996465
111	0xbd80332d	-0.06259761
112	0xbd572c45	-0.052532453
113	0xbcef6569	-0.02922316
114	0x3af63551	0.00187842
115	0xbd1d7a7b	-0.038446885
116	0xbd525e65	-0.051359553
117	0xbd9fed3b	-0.0780892
118	0xbcf6611a	-0.030075599
119	0xbd46aadb	-0.048502784
120	0x3dbc3dce	0.09191476
121	0x3d193e15	0.03741272
122	0xbc64095d	-0.013918248
123	0x3d9f85c6	0.07789187
124	0x3d65b000	0.05607605
125	0x3d160f7f	0.036635872
126	0xbd92aca8	-0.07161838
127	0xbdb547de	-0.08851598
128	0xbbde5e8d	-0.0067861737
129	0xbd5b9b8e	-0.053615145
130	0xbc9b02dc	-0.018922262
131	0x3d619268	0.055071265
132	0xbd4c4afe	-0.049876206
133	0xbcf3b9d5	-0.029751698
134	0x3cc5ee40	0.024161458
135	0xbce0e0aa	-0.027450878
136	0xbd4419d7	-0.047876205
137	0x3d275816	0.04085549
138	0x3d729037	0.059219565
139	0x3d529b7a	0.051417805
140	0xbb62a498	-0.0034582969
141	0x3d5cf2b8	0.053942412
142	0x3de4a793	0.11164775
143	0x3dd9d141	0.10635615
144	0x3cdf64fa	0.027269829
145	0xbce15e29	-0.02751072
146	0x3d28f4d8	0.041249126
147	0x3a8a86d3	0.0010568745
148	0x3d0e2645	0.034704465
149	0x3c9b6072	0.018966887
150	0xbd5d4766	-0.05402317
151	0x3ce869c4	0.028370745
152	0xbd254cb4	-0.040356353
153	0xbd6b9b5a	-0.0575212
154	0xbd863346	-0.065527484
155	0xbdda9153	-0.1067225
156	0x3c73e350	0.0148857385
157	0xbd808f74	-0.062773615
158	0xbd913d06	-0.070917174
159	0x3c4f5786	0.012655145
160	0xbd539862	-0.051658995
161	0xbd76e324	-0.060275212
162	0xbcb8a4bc	-0.022539489
163	0x3d2ccd7e	0.04218816
164	0xbc86bbff	-0.016447065
165	0xbd5b10c5	-0.05348279
166	0xbd3a3a87	-0.045465972
167	0xbc7d3cc1	-0.015456379
168	0xbd66faba	-0.056391455
169	0xbd09f5a6	-0.033681534
170	0xbca8ebe6	-0.020620298
171	0xbd0c01af	-0.034181293
172	0xbc4aa310	-0.012367979
173	0x3ca3338d	0.019922042
174	0x3d222bdd	0.039592613
175	0xbd896e63	-0.06710508
176	0xbc87a779	-0.01655935
177	0x3d9c4ec5	0.076322116
178	0x3cbb9a97	0.022900863
179	0x3aabfbb6	0.001312128
180	0x3baef5e3	0.0053393706
181	0xbc28c7db	-0.0103015555
182	0x3c92938c	0.017892621
183	0x3cc70d41	0.024298312
184	0x3d41a40f	0.0472756
185	0xbb8b55be	-0.0042521646
186	0x3d308bf5	0.043102223
187	0xbd357963	-0.044305217
188	0x3d3a08f6	0.045418702
189	0x3b956768	0.004559446
190	0xbd73ce79	-0.05952308
191	0xbc6ab16e	-0.014324529
192	0xba620c4e	-0.00086230494
193	0x3cf5190a	0.029919166
194	0xbd6d5a95	-0.057947714
195	0xbb81504c	-0.0039463397
196	0x3c303d51	0.0107568065
197	0xbd1ef8b4	-0.0388114
198	0xbdc786d7	-0.097425155
199	0xbd7b6251	-0.06137306
200	0xbcc09e92	-0.023513112
201	0x3b85d4d6	0.00408421
202	0x3c9ea6de	0.019366678
203	0xbc921e88	-0.017836824
204	0xbcc75880	-0.024334192
205	0xbdae2d3d	-0.08504722
206	0xbd342c04	-0.04398729
207	0xbc91c07a	-0.017791975
208	0xbd8e9ff7	-0.069641046
209	0xbccf3651	-0.025294455
210	0xbc96e9c0	-0.018422008
211	0xbd0c17f2	-0.034202524
212	0xbd3b8f6a	-0.045791067
213	0x3d952072	0.07281579
214	0x3b932601	0.0044906144
215	0x3d5a9393	0.053363394
216	0x3d627eb0	0.0552966
217	0xbc5e3448	-0.0135622695
218	0xbccdc8b9	-0.025120126
219	0xbd05060f	-0.03247648
220	0xbd155302	-0.036456116
221	0xbd44b62f	-0.048025306
222	0xbd91818a	-0.07104786
223	0xbda87f0a	-0.08227356
224	0x3bc774b1	0.0060869087
225	0x3c769c82	0.015051963
226	0x3dacd74a	0.08439501
227	0x3cfc7b63	0.030820554
228	0xba739ccb	-0.00092930783
229	0xbbab0a16	-0.005219708
230	0xbd2e36a4	-0.042532578
231	0xbc5a9e13	-0.013343352
232	0x3c180e11	0.009280697
233	0x3cb0c296	0.02157716
234	0xbcb5441c	-0.022127204
235	0x3d28d96f	0.041222986
236	0xbd1ba98d	-0.038003493
237	0x3c50d23b	0.012745435
238	0x3cc38971	0.023869248
239	0xbd010059	-0.031494472
240	0xbcae57b7	-0.02128206
241	0xb9d14e38	-0.00039921864
242	0xbcc3a673	-0.02388308
243	0xbd2a7f71	-0.041625444
244	0xbd1f6a0a	-0.038919486
245	0xbd2e71c6	-0.04258897
246	0xbd01268a	-0.031530894
247	0xbb827911	-0.0039817174
248	0x3c32eacd	0.010920239
249	0x3bc89ef9	0.0061224666
250	0xbcae9a17	-0.02131371
251	0xbd40ee39	-0.047102187
252	0xbdd5bc83	-0.104363464
253	0xbd3585ed	-0.044317175
254	0x3b45e4d6	0.0030196211
255	0x3ba409e5	0.0050060623

extractor.9.bias f4 [64]
0	0xbbc2960e	-0.005938298
1	0xbc8543aa	-0.016267616
2	0xbc08f7f1	-0.008359895
3	0xbc14b4aa	-0.009076277
4	0x3d164fce	0.0366972
5	0xbc4d2757	-0.012521586
6	0x3cc0be68	0.023528293
7	0x3c81c09f	0.01583892
8	0xbce38ce4	-0.027777143
9	0xbd052cd4	-0.032513455
10	0xbca7b507	-0.020472063
11	0xbce43357	-0.027856512
12	0x3cc54615	0.02408127
13	0x3d030adf	0.03199279
14	0x3d252079	0.04031417
15	0xbcb2d030	-0.021827787
16	0x3d3379c0	0.04381728
17	0xbc999f48	-0.018752709
18	0x3b9cfe77	0.0047910768
19	0x3d3c5464	0.04597892
20	0x3ca70467	0.020387841
21	0xbc4ffa10	-0.012693897
22	0xbd11967d	-0.035543907
23	0xbd167b78	-0.036738843
24	0xbbae86ea	-0.0053261416
25	0x3d3c3ff6	0.045959435
26	0x3cc102f1	0.023560973
27	0x3d1d7dc7	0.03845003
28	0xbc3923de	-0.011300055
29	0x3d05dd45	0.032681722
30	0x3cb52a4d	0.022114897
31	0x3c8851d0	0.016640574
32	0x3c8466f6	0.016162377
33	0x3bd0f814	0.0063772295
34	0xbcbaf7bd	-0.022823209
35	0x3c91b852	0.017788086
36	0xbc37a5c4	-0.011208955
37	0x3ce08746	0.027408253
38	0x3cefea2b	0.029286465
39	0xbd131e18	-0.03591737
40	0xbd381448	-0.044941217
41	0xbcf4778a	-0.029842157
42	0x3d097e93	0.033567976
43	0xbcd823d1	-0.026384266
44	0x3d1e4c98	0.038647264
45	0xbcfede39	-0.031111823
46	0xbd372ef0	-0.044722497
47	0x3cd9b260	0.026574314
48	0xbd1b03fd	-0.0378456
49	0x3ce50a23	0.027958935
50	0xbc6e7f4a	-0.014556715
51	0x3d38977d	0.045066345
52	0x3ce336a1	0.02773601
53	0x3c6b8658	0.014375292
54	0x3cf2ab75	0.029622773
55	0xbd397460	-0.045277
56	0x3d350f4e	0.04420405
57	0xbd1c9ce6	-0.038235568
58	0xbd2d76f0	-0.042349756
59	0xbbbef5fb	-0.005827663
60	0x3cbbb982	0.022915605
61	0xbd0cdf70	-0.034392774
62	0xbc44f61f	-0.0120215705
63	0xbd13524a	-0.03596715

extractor.10.weight f4 [64]
0	0x3f8600a5	1.0468947
1	0x3f829386	1.020127
2	0x3f80f0ed	1.0073525
3	0x3f84aa04	1.0364385
4	0x3f7a87a5	0.9786323
5	0x3f767527	0.9627251
6	0x3f7ce71a	0.98790133
7	0x3f7e1d5f	0.99263567
8	0x3f7c0b59	0.98454815
9	0x3f6df962	0.9295865
10	0x3f8147c5	1.0100027
11	0x3f85b87f	1.0446929
12	0x3f8643b0	1.0489407
13	0x3f872f04	1.0561223
14	0x3f73d367	0.9524445
15	0x3f7d2a6b	0.9889285
16	0x3f7d8190	0.9902582
17	0x3f72ddd4	0.9486973
18	0x3f818ab3	1.0120453
19	0x3f775791	0.9661799
20	0x3f80e4e4	1.0069852
21	0x3f89b751	1.0759069
22	0x3f759fcf	0.95946974
23	0x3f73c46c	0.9522159
24	0x3f76fc9c	0.964792
25	0x3f828de3	1.019955
26	0x3f812c08	1.0091562
27	0x3f7f3343	0.99687594
28	0x3f7e28ee	0.99281204
29	0x3f7dacdf	0.99091905
30	0x3f7ee2ae	0.99564636
31	0x3f70167d	0.93784314
32	0x3f6f2823	0.9342062
33	0x3f84c54f	1.0372714
34	0x3f73ce0f	0.95236295
35	0x3f81f725	1.0153548
36	0x3f7d9572	0.9905616
37	0x3f812b84	1.0091405
38	0x3f791e24	0.97311616
39	0x3f7b4357	0.9814963
40	0x3f6fc65b	0.9366204
41	0x3f7dca96	0.99137247
42	0x3f773c34	0.9657624
43	0x3f7bcef5	0.98362666
44	0x3f75369d	0.9578646
45	0x3f798362	0.974661
46	0x3f81aed9	1.0131484
47	0x3f7a88ed	0.9786518
48	0x3f891ca8	1.071187
49	0x3f88e24c	1.069406
50	0x3f832606	1.0245979
51	0x3f76cfb7	0.964107
52	0x3f81125e	1.008373
53	0x3f7209a5	0.94545966
54	0x3f83d1c9	1.0298396
55	0x3f8276ce	1.0192506
56	0x3f71d940	0.9447212
57	0x3f7472ff	0.9548797
58	0x3f739b6f	0.9515905
59	0x3f84d49c	1.0377383
60	0x3f7cfa4e	0.98819435
61	0x3f826386	1.0186622
62	0x3f6e713a	0.9314152
63	0x3f725695	0.94663364

extractor.10.bias f4 [64]
0	0x3c9eb7ec	0.01937481
1	0xbc89624d	-0.016770506
2	0xbe454749	-0.19265474
3	0xbd8550b7	-0.06509536
4	0xbd1ecd83	-0.03877021
5	0x3c19f527	0.009396828
6	0x3c88e510	0.016710788
7	0xbc0b60ff	-0.008507012
8	0xbe56c022	-0.2097173
9	0xbd9aec70	-0.07564628
10	0xbe74b705	-0.23897941
11	0xbcf597a7	-0.02997954
12	0xbc2ed8f9	-0.0106718475
13	0xbd8f709a	-0.07003899
14	0xbd898070	-0.06713951
15	0xbea1ca5e	-0.31599706
16	0xbd9d16b3	-0.07670345
17	0xbe4d0f68	-0.20025408
18	0xbd33ea50	-0.04392463
19	0xbc850b17	-0.01624064
20	0xbe9a02bf	-0.3008022
21	0xbcd93bd1	-0.02651778
22	0xbe14af21	-0.14519931
23	0xbea8ca66	-0.32966918
24	0xbd0aaedd	-0.03385817
25	0x3d1190d6	0.035538517
26	0xbd00acd8	-0.031414837
27	0xbd13c1cf	-0.036073502
28	0xbd5ab576	-0.05339571
29	0xbd0c2861	-0.034218196
30	0xbd23ee6d	-0.040022302
31	0xbdc40abb	-0.09572359
32	0xbd9a5fb9	-0.07537789
33	0xbe80a8ad	-0.2512869
34	0xbc6da64b	-0.014504979
35	0xbe842f27	-0.25817224
36	0xbea80bef	-0.32821605
37	0xbd04bad4	-0.032404736
38	0xbe8299c6	-0.25507945
39	0xbcdfdca9	-0.027326899
40	0xbdbb330d	-0.091405965
41	0xbc642e80	-0.013927102
42	0xbd0d6b92	-0.034526415
43	0xbbbac459	-0.005699676
44	0xbd1a5dd8	-0.037687153
45	0xbe562f4b	-0.20916478
46	0xbd92b5b8	-0.07163566
47	0xbde3b5a1	-0.11118627
48	0x391d9229	0.00015027136
49	0x3d347c5e	0.04406392
50	0xbd848aad	-0.06471763
51	0xbd4d58df	-0.050133582
52	0xbc3932e0	-0.011303633
53	0xbe64c5b7	-0.22341047
54	0x3d1c80cd	0.03820877
55	0xbdc2ceb3	-0.09512081
56	0xbd541b50	-0.05178386
57	0xbd86b29d	-0.065770365
58	0xbe95a352	-0.29226166
59	0x3d3c514f	0.04597598
60	0xbe36f03a	-0.17865077
61	0xbd3e54b4	-0.046467498
62	0xbd54db83	-0.051967155
63	0xbd5e2d44	-0.054242387

extractor.10.running_mean f4 [64]
0	0xbfa0e36f	-1.2569407
1	0xbdfac3d1	-0.1224438
2	0x3eda90c4	0.42688572
3	0x3eb55130	0.35413504
4	0xbfc66a62	-1.5501215
5	0xbfd8194b	-1.6882719
6	0xbfff3645	-1.9938437
7	0xbfe59978	-1.793746
8	0xbd99a783	-0.075026534
9	0xc00992e4	-2.1495905
10	0x3ed233c1	0.4105511
11	0xbfdafe4a	-1.7108853
12	0x3d0ece94	0.034864977
13	0xbfae9653	-1.3639625
14	0xc03160f6	-2.771543
15	0xbea92c6d	-0.33041707
16	0xbfc252be	-1.5181501
17	0x3f09c5b6	0.5381731
18	0xc01274dd	-2.2883828
19	0x3eef9bec	0.46798646
20	0x3ee5c425	0.4487621
21	0x3ea0df4f	0.3142037
22	0xbfa84791	-1.314684
23	0x3e916f46	0.28405207
24	0xbfe0a21e	-1.7549474
25	0xbfe6dcfa	-1.8036187
26	0xbfd06de7	-1.628354
27	0xc002315a	-2.0342622
28	0xbf878016	-1.0585964
29	0xbfd862b6	-1.6905124
30	0xc008c236	-2.1368537
31	0x3e5901fb	0.21192162
32	0xbf7f281c	-0.9967058
33	0x3ee6a4c4	0.4504758
34	0xbfb36e62	-1.4018061
35	0x3ee8aafa	0.45442945
36	0x3e89c529	0.26908234
37	0xc0210516	-2.5159354
38	0x3deb4581	0.11487866
39	0xbf86ab5c	-1.0521045
40	0x3f74e454	0.956609
41	0xbfdbf00a	-1.7182629
42	0xc005fd08	-2.0935688
43	0xbf87805a	-1.0586045
44	0xc020389e	-2.5034556
45	0x3d9ae7a5	0.07563714
46	0x3dc48f5b	0.095976554
47	0xbebbacae	-0.36655182
48	0xbeea0b01	-0.4571152
49	0xbfbd3b7d	-1.4783779
50	0xbf94cd1f	-1.1625098
51	0xbf72a28e	-0.9477929
52	0xc0261a15	-2.595342
53	0xbe3b9cf6	-0.18321595
54	0xbfa97e52	-1.3241675
55	0xbfc169a6	-1.5110366
56	0xbfd1b681	-1.6383821
57	0xbfe3e364	-1.7803769
58	0xbe5b9fa8	-0.21447623
59	0xbff721a0	-1.9307137
60	0xbed69b2a	-0.41915256
61	0xbf4b16d7	-0.79331726
62	0x3f501151	0.8127642
63	0xc0218ca9	-2.5242102

extractor.10.running_var f4 [64]
0	0x40057fcb	2.0859249
1	0x40058367	2.0861452
2	0x3fa5897e	1.2932584
3	0x3fa46f57	1.2846478
4	0x404bb730	3.1830559
5	0x407336de	3.8002238
6	0x40822dec	4.0681057
7	0x40113145	2.2686322
8	0x3faf6903	1.3703922
9	0x4006bd06	2.105287
10	0x3f72b7c6	0.94811666
11	0x3fff9aab	1.9969076
12	0x3ffe57d6	1.9870555
13	0x3fab2bbe	1.3372724
14	0x406718bd	3.610885
15	0x3f821035	1.0161196
16	0x4005a801	2.0883791
17	0x3fb81b59	1.4383346
18	0x3fec62f0	1.8467693
19	0x4035760d	2.8353302
20	0x3fa2777b	1.2692713
21	0x40211db0	2.517437
22	0x402c650c	2.6936674
23	0x3f718b0a	0.9435278
24	0x404855f6	3.1302466
25	0x404f9348	3.2433643
26	0x40170e8c	2.3602629
27	0x40030537	2.0471933
28	0x3fab428f	1.3379687
29	0x3fc790f1	1.5591108
30	0x4046ba22	3.1051106
31	0x3fe18fa2	1.7621958
32	0x3fee43f5	1.8614489
33	0x3faf6260	1.3701897
34	0x40337dd0	2.804554
35	0x3fda96bc	1.707725
36	0x3f6203f0	0.8828726
37	0x3fd08eb3	1.6293548
38	0x3f643387	0.89141124
39	0x3f931c0f	1.1492938
40	0x4006a119	2.1035826
41	0x40f99148	7.7989845
42	0x400f13d9	2.2355864
43	0x40899f6e	4.3007116
44	0x40488c14	3.1335497
45	0x3fcac605	1.5841681
46	0x3fb6df57	1.4286908
47	0x3f203aa5	0.62589484
48	0x3fe96ce8	1.823636
49	0x3ff2e711	1.8976766
50	0x3fb973f6	1.4488513
51	0x40152560	2.3304062
52	0x401c0c1c	2.438239
53	0x3fbe364f	1.4860324
54	0x4008f0aa	2.139689
55	0x3fda1ab4	1.7039399
56	0x40334bea	2.8015084
57	0x40994cfe	4.7906485
58	0x3f37e2f4	0.7183068
59	0x3fd6516f	1.6743602
60	0x3fb892af	1.4419764
61	0x3fdaab40	1.7083511
62	0x3fecd9e9	1.8504001
63	0x4037b314	2.870305
