gpl/results/il/ep_020.ckpt (torch, 773626 bytes, 43 tensors)

extractor.0.weight f4 [24, 3, 5, 5]
000000 68 d6 9b 3d 18 97 05 bd 26 d8 29 bb 5c a6 9b 3d
       0.07609254 -0.032614797 -0.0025916188 0.0760009
000010 7a f7 ac bd d7 a8 8b 3d 6d 7e bd bc 6f 79 7b 3d
       -0.0844564 0.06819313 -0.023131574 0.061395105
000020 93 ce da 3c f3 99 0d bb 46 23 62 3d 36 f2 0c 3d
       0.02670983 -0.0021606653 0.05520942 0.034410678
000030 fd ae 8b 3d bd f8 8a bc f2 b1 35 3c 3d 9e 0a bc
       0.06820486 -0.01696431 0.011089789 -0.0084605785
000040 4f 90 ef 3c 2f c0 15 3c c7 2d e5 3d b0 9c 27 3d
       0.029243616 0.009140058 0.11190372 0.040920913
000050 ef 8d 99 bd b1 fc c8 bd 60 0c 3f bd 7b b6 9a bd
       -0.07497775 -0.09813822 -0.04664266 -0.07554337
000060 83 3d 7b bd 55 a6 34 bc fb de 59 3d 45 9d 40 3d
       -0.06133796 -0.011025985 0.053191166 0.047024984
000070 99 86 fb bd ca fa 8d 3d e6 14 13 3c c8 33 be 3d
       -0.12281532 0.069326 0.008977151 0.0928722
000080 6a 2e 80 3d ad b0 dc bd 0d f3 db bd 8c 1c 67 bd
       0.06258853 -0.10775886 -0.10739718 -0.05642371
000090 58 59 db 3d be 7e 47 bc 18 de 74 3d 29 1b 39 bd
       0.107104 -0.012176214 0.059782118 -0.045191918
0000a0 5c ba cc 3d fc 2c 5a bd 88 85 a9 3d c1 38 a7 ba
       0.09996483 -0.053265557 0.08277422 -0.0012758003
0000b0 ee 4c 82 bd f5 83 91 3c 3d ae cc bd 25 44 69 b8
       -0.063623294 0.017763117 -0.09994171 -5.5614993e-05
0000c0 a7 28 88 bd 78 27 2b bd eb 01 e7 bd 82 d9 61 bd
       -0.06648379 -0.041785687 -0.11279663 -0.055139072
0000d0 15 09 82 3d 2b 3f c4 bc eb 5f fe 3d 35 59 a6 3d
       0.063493885 -0.023955902 0.12420639 0.08122484
0000e0 99 6d 2e bc 64 4d 9f bd cd ac 9d 3d cf db 3d 3d
       -0.010646247 -0.07778433 0.07698975 0.046352204
0000f0 00 d3 76 bd 61 4c c3 3d f9 a6 b2 3d 3f b7 f6 3d
       -0.06025982 0.095360525 0.08723254 0.1204667
000100 ab f7 45 bd ad 36 c2 bc 49 4f b5 b9 0c 1a 95 3c
       -0.048331898 -0.023707712 -0.00034582082 0.018200897
000110 61 bc af bd 91 76 a0 bd d6 44 0f 3d e8 8c 58 bd
       -0.08580852 -0.07835115 0.034977756 -0.052868754
000120 4a b7 0e 3d 37 f7 72 bc 55 24 b6 3c 6e e0 6b 3c
       0.034842767 -0.014829448 0.022234121 0.01439677
000130 b6 cf ce 3c 5f ea 23 3d d1 29 f0 bd 60 05 59 3d
       0.025245529 0.040018436 -0.11726726 0.05298364
000140 d3 63 b1 bd d3 a1 bf bd 88 dd 41 3b 8d c3 45 bc
       -0.08661618 -0.093570374 0.0029581506 -0.012070549
000150 f0 eb a2 3d a9 62 44 bd 91 4b a8 bd ba d8 d4 3d
       0.07955158 -0.047945652 -0.08217538 0.103929
000160 d1 90 51 3c e0 16 cb 3d 36 e0 55 3d 15 12 8c bd
       0.012790875 0.099164724 0.052215777 -0.068393864
000170 a7 d6 10 3d 98 b3 32 3d 6c b5 6f bd 34 50 97 bd
       0.03536096 0.043628305 -0.058522627 -0.073883444
000180 9a 78 c5 3c 7f c4 f6 3b e1 43 6f bd b2 29 2b bd
       0.024105359 0.0075307484 -0.058414344 -0.04178781
000190 59 31 ae 3d 03 da 47 bd c2 8f 15 3d 6a 36 f0 3c
       0.08505506 -0.048791897 0.03651405 0.029322822
0001a0 68 cb b0 bd 13 2b e7 bd 72 25 be 3d ea 54 49 bc
       -0.08632547 -0.11287513 0.09284486 -0.0122883115
0001b0 3e da a9 3d 35 00 11 3d 05 a6 53 3d 61 f5 d6 3d
       0.082935795 0.035400588 0.051672 0.10496021
0001c0 24 98 02 3e 34 3d 18 bd 55 d3 7c 3d eb e2 ca 3d
       0.1275335 -0.037167743 0.06172498 0.099065624
0001d0 bd 0d d0 3d 37 65 a8 3d 83 9b 8b bd b6 bc 7e bd
       0.1015887 0.0822243 -0.06816771 -0.062191688
0001e0 8d 6d d8 bd 39 4e 88 bc 8d be b3 3d 57 95 c4 bd
       -0.1056777 -0.016638862 0.08776579 -0.09598797
0001f0 ce ff 36 3d 7f 01 ac bd 87 d6 08 be df b2 49 bd
       0.044677548 -0.08398723 -0.13363086 -0.04924285
000200 1f 2f 47 3d 7c fd c6 3d 20 e8 b3 bd 3f 94 eb 3b
       0.048628923 0.09716317 -0.08784509 0.007189303
000210 f1 17 b2 3d 23 64 a9 3d b9 b2 b0 3d f6 8d d5 3d
       0.08695973 0.08271053 0.08627839 0.104274675
000220 10 60 cd 3d 1e e8 7a 3d 25 d4 fc bc 40 0b 1b bd
       0.10028088 0.06125652 -0.030862877 -0.037852526
000230 1d 98 1f bd 6c ab 9f 3b 49 3a 69 bd 95 8e 6f 3d
       -0.038963426 0.00487273 -0.05694035 0.058485586
000240 2b f8 7c 3d be 46 55 bd b8 6b a6 3c dd cd 9d 3c
       0.06176011 -0.052069418 0.020315036 0.019263202
000250 54 2c 61 3d 37 75 97 3d e5 94 30 bd bd d0 df 3d
       0.054973915 0.07395404 -0.043110747 0.109284855
000260 53 b8 20 bc c7 80 4a ba f2 1b dc bd 73 5c 9d bd
       -0.009809571 -0.0007724878 -0.10747518 -0.07683649
000270 43 07 91 bd f5 14 4a bd 90 a9 a9 3d 43 c9 21 bd
       -0.07081463 -0.049336392 0.082842946 -0.03949858
000280 fc 8d b5 bd 1c 18 23 3d be b5 08 3d ee 25 91 3d
       -0.08864972 0.039817914 0.033376448 0.07087313
000290 82 30 7d bd a6 87 ba 3c f9 d8 30 bd 3f 30 dd bc
       -0.06181384 0.02276976 -0.04317567 -0.027000545
0002a0 92 a1 bf bd 74 2b 54 bd 27 42 6a bc 31 fc 8f 3d
       -0.09356989 -0.051799253 -0.0142979985 0.070305236
0002b0 d7 27 22 3d 3b ab 52 3d 92 dd 0f 3e 80 95 bc 3d
       0.039588775 0.05143283 0.14049366 0.09208202
0002c0 21 5a 70 3d 12 05 f7 bb af f2 ba bd 72 ba 9a 3d
       0.058679704 -0.007538446 -0.091283195 0.07555093
0002d0 93 6d 31 bd 59 b0 cd bc 66 40 e4 bd 2e b1 0e bd
       -0.04331739 -0.025108503 -0.111450955 -0.03483694
0002e0 dc ea bb bd 51 7f be 3d 48 c4 eb bd 34 00 d9 bd
       -0.09175655 0.093016274 -0.11512047 -0.10595742
0002f0 e7 59 a5 bc c7 7f a0 bd 8f a9 cb 3c ae cd 74 bd
       -0.02018447 -0.078368716 0.024861125 -0.059766464
000300 40 50 94 bd b5 68 40 bc cb 51 87 3d 92 15 9b bd
       -0.07241869 -0.011743714 0.06607398 -0.075724736
000310 43 52 74 3d 27 c3 96 3d 62 99 f0 3d 94 50 96 bd
       0.059648763 0.07361441 0.117480054 -0.07339588
000320 3b 0b e3 3b ab 0f da bd b9 a0 b5 3d f6 ae 5f bd
       0.006928829 -0.1064752 0.08868546 -0.054610215
000330 12 1f 68 3d 40 31 5c bc 4f 99 dd bc 84 f5 8a bc
       0.056670256 -0.0134394765 -0.027050642 -0.016962774
000340 f0 25 cb 3b f2 26 1b 3d 63 8a d4 3a 13 15 7d 3c
       0.006199591 0.037878938 0.0016215559 0.015446919
000350 d3 32 fc bd f1 72 84 3d f6 7f ac 3d a5 55 a0 3d
       -0.123143815 0.06467236 0.08422844 0.078288354
000360 f5 c9 8d 3d 0d 57 cf bd 05 f9 73 bd 96 24 b2 3d
       0.06923286 -0.101240255 -0.059563655 0.086983845
000370 97 8f a3 bd 6e ad e8 3d 04 d6 b2 bd 48 fa 93 bd
       -0.07986372 0.11361204 -0.087322265 -0.07225472
000380 b0 f1 8f 3d 72 70 8c bd 17 d3 18 bc 81 90 c9 3d
       0.0702852 -0.06857385 -0.0093276715 0.09842015
000390 62 c6 da 3d 51 d0 fd 3d ed e5 61 bc 6c 84 a1 bd
       0.1068237 0.12393249 -0.013787729 -0.078865856
0003a0 2a e1 f7 3d a1 80 93 bc 5c 67 2e bd 1d 8d b9 3c
       0.121034935 -0.018005671 -0.04257904 0.022650296
0003b0 a8 a9 ac bd bc 5d 93 3d 72 a0 86 3d 64 be c9 bd
       -0.08430797 0.07195613 0.06573571 -0.09850767
0003c0 dd c0 cb bd 83 10 51 bc 5b 27 38 3d 42 ba 32 bc
       -0.09948895 -0.012760284 0.044959407 -0.010908665
0003d0 01 7c 88 bd 41 82 03 bc 7a f4 f1 bd 5a 27 bc bd
       -0.06664277 -0.00802666 -0.11814208 -0.09187193
0003e0 7f 3b bc bd 36 48 9f 3d 0a 0d 00 3e ce 1e 67 bc
       -0.091910355 0.07777445 0.12504974 -0.0141064655
0003f0 dd ae e2 3c 39 60 99 3d af 6b 18 3d 1b e5 39 bd
       0.027671272 0.07489056 0.03721207 -0.045384508

extractor.0.bias f4 [24]
000000 93 1c a8 3d e2 16 19 3d 45 e5 87 bd b1 f3 9e 3d
       0.08208575 0.03737534 -0.066355266 0.07761324
000010 30 07 a5 bd 4f 76 67 3d e9 51 c1 bc 68 ac 0c 3d
       -0.080580115 0.056509312 -0.023598628 0.034344107
000020 60 17 4e bc 7f 13 b0 3c e1 d8 06 bd 86 14 43 3d
       -0.012578815 0.021493671 -0.032921676 0.047626995
000030 16 a0 5a 3d d8 b5 d2 bd 57 48 d1 3d d8 9e bf bd
       0.053375326 -0.1028859 0.10218876 -0.09356469
000040 7f a5 56 bd 0c 54 3f 3d 4c 01 d5 3d d9 a0 20 3d
       -0.052403923 0.046711013 0.10400638 0.039215896
000050 f7 a0 83 bd 3a db 9c 3c 28 23 89 bd a3 ef 57 3d
       -0.06427186 0.019147504 -0.06696159 0.05271877

extractor.1.weight f4 [24]
000000 b7 84 85 3f f5 b0 7b 3f 8d 02 6e 3f e7 aa 7c 3f
       1.0431126 0.9831689 0.9297264 0.98698276
000010 61 b3 7a 3f 44 57 84 3f 50 68 7a 3f c4 88 81 3f
       0.9792996 1.0339131 0.9781542 1.0119863
000020 a1 43 7d 3f ac 65 7c 3f 5b 03 81 3f c0 ad 82 3f
       0.9893132 0.9859264 1.0079149 1.0209274
000030 0e 98 76 3f 00 a2 77 3f eb 65 80 3f 35 37 83 3f
       0.9632577 0.9673157 1.0031103 1.0251223
000040 ae c7 86 3f 21 b4 7e 3f 6a 4b 72 3f 51 da 77 3f
       1.0529687 0.99493605 0.9464632 0.968175
000050 58 48 7e 3f eb ec 86 3f 2b e7 74 3f 9e c0 82 3f
       0.9932914 1.0541052 0.95665234 1.0215032

extractor.1.bias f4 [24]
000000 35 6a 0c bd 0d 51 48 bd 44 90 6a bd 92 4a 1f bc
       -0.034280974 -0.04890542 -0.05726649 -0.009722369
000010 ae 4b 55 bc cd a2 81 bc f1 dd 3c 3b ab 39 7d 3b
       -0.013018532 -0.0158247 0.002881881 0.003863911
000020 40 f2 08 bd 0a 88 03 3d 23 7f bc 3c 9a 6d 0d bd
       -0.033434153 0.03211216 0.023009842 -0.034528352
000030 2d da a9 bd 60 62 0a bd ed 5f b9 bc f3 da 20 bd
       -0.08293567 -0.033785224 -0.022628749 -0.039271306
000040 af 61 1e bc c8 a9 92 bc 32 f0 b6 bc df 96 b1 bc
       -0.009666844 -0.017903224 -0.02233133 -0.021678386
000050 b3 ac f5 bc 72 2e 3e bc 20 a8 25 3c 7a 5e 0a bc
       -0.029989576 -0.011607753 0.010110885 -0.0084453765

extractor.1.running_mean f4 [24]
000000 3a 77 0e 3e f2 b5 8e 3e d2 62 3d be f6 63 17 3e
       0.13912669 0.27873188 -0.18494728 0.14784226
000010 98 86 6c be ef 10 51 3e 27 47 85 be 37 a0 36 be
       -0.23098218 0.20416616 -0.26030847 -0.17834555
000020 bd fa 20 3e 1a 17 c0 3d a3 34 b8 be 9e 5a 43 3e
       0.15720649 0.09379406 -0.3597766 0.19077536
000030 73 0d 1b 3e 68 55 6a be f7 d7 14 3e 2b 1d a5 bd
       0.15141849 -0.22884142 0.14535509 -0.08062204
000040 35 b8 08 3d 78 d1 ee bd 0a c5 5c bd 06 f2 87 3e
       0.0333788 -0.11661047 -0.05389885 0.26551837
000050 f2 11 8d be a1 a0 0f 3e b5 3c 10 3e a4 47 43 3e
       -0.27552754 0.14026119 0.14085658 0.19070297

extractor.1.running_var f4 [24]
000000 ac 72 94 3b f8 19 5d 3c 82 7c 9a 3b 61 d4 96 3b
       0.0045302715 0.013494961 0.0047145495 0.0046029543
000010 ed 7b 73 3c a3 97 8c 3c 31 d0 b1 3c b1 b9 52 3c
       0.014861089 0.01716215 0.021705719 0.012861655
000020 5c 93 9a 3c 83 a3 0b 3b 71 98 d5 3c ce 86 0e 3c
       0.018869095 0.0021307177 0.026073666 0.008699132
000030 1b 70 ee 3b 7f de 17 3c e2 a2 13 3c b4 b8 70 3b
       0.0072765476 0.009269356 0.009011002 0.0036731185
000040 69 d3 16 3c 43 73 57 3c 36 b7 03 3c ea e8 a0 3c
       0.009205678 0.013150039 0.008039286 0.019642312
000050 0f de 6c 3c 13 32 8c 3c 15 27 67 3c c4 11 fe 3b
       0.01445724 0.017113721 0.014108439 0.0077535827

extractor.3.weight f4 [36, 24, 5, 5]
000000 d8 20 19 bb eb b3 26 3b 28 9b cb bc 66 1d ea 3c
       -0.0023365524 0.002543683 -0.024854258 0.028578471
000010 b5 43 36 3d c4 82 d4 bc 96 3d b5 3c 8b c2 bb bb
       0.044498164 -0.02594126 0.022124093 -0.0057299784
000020 42 77 31 bc 6d a9 12 3d 0e e2 3a bc 1a 08 c5 3c
       -0.010831656 0.03580611 -0.011406435 0.024051715
000030 c6 a1 30 3d ae 5d 27 3d 77 0e 49 3c ee ca b8 bc
       0.04312303 0.040860824 0.012271515 -0.022557702
000040 0e 13 1b 3b ae 5e 12 bd 57 94 ad 3b 84 06 b1 bc
       0.002366248 -0.035734825 0.0052972245 -0.021609552
000050 83 35 b8 bc 1b 36 ac 3c ca 7f 50 bd f6 15 05 bd
       -0.022486454 0.021021893 -0.05090312 -0.032491647
000060 8f 2a 33 bd 42 2a d9 3c f4 7c 1d 3d 35 8f 9d bc
       -0.04374176 0.026509408 0.038449243 -0.019233325
000070 0e ce d9 3c 2b ae f4 3c 25 af c0 bc 13 7b d9 3c
       0.026587512 0.029868206 -0.023521015 0.026547944
000080 cd 03 cf 3c 9c 98 d9 bb 69 85 05 3d f6 99 46 bb
       0.025270367 -0.006640507 0.032597933 -0.003030417
000090 b4 77 05 bb 77 52 b7 3c 3b f8 31 bd 3a a5 3a bd
       -0.0020365538 0.02237819 -0.04344962 -0.04556773
0000a0 23 06 92 bb 8c 69 a8 bb 0d 11 ae bb 9d 46 06 bd
       -0.004456298 -0.0051395353 -0.005312091 -0.032782186
0000b0 4f 01 e0 3c 45 4d dc bc cc ac a8 bc 9c 5f 11 bd
       0.027344374 -0.026892314 -0.020590208 -0.03549157
0000c0 e3 96 2e bd 04 e7 85 3b 5f 71 b2 ba c9 e7 1a 3d
       -0.042624366 0.004086377 -0.001361411 0.037818704
0000d0 f9 02 50 3d 96 84 b8 3c 3e 6b 2f 3d fd 44 5e bc
       0.050784085 0.02252416 0.042826883 -0.013566253
0000e0 17 e4 00 3d 6a 1f e7 3c 55 22 17 bc d9 32 7e 3b
       0.031467523 0.028213222 -0.009224494 0.0038787632
0000f0 a6 ab 06 bd ff ad 1b bb b3 ac 3e bd 2f 03 0a bd
       -0.03287854 -0.0023754833 -0.046551418 -0.033694442
000100 6f 0a 3b bd 85 05 7d bc 38 25 26 bb c3 1f 30 bd
       -0.045664247 -0.0154432105 -0.0025351774 -0.04299904
000110 5e f1 cc bc 3e 97 46 3c 01 87 2d 3b 86 42 f3 3b
       -0.025017437 0.01212102 0.0026478174 0.0074237017
000120 1f 89 72 bc 9c de 5d bc 45 dd 1f bd 62 b3 bd 3c
       -0.0148032 -0.013541844 -0.03902938 0.023156825
000130 c8 30 a4 bc 52 2d bf 3b 36 e9 86 3c ee b9 ff 3c
       -0.020042792 0.00583426 0.016468626 0.031216588
000140 1b 52 2c bd 65 69 50 bc a8 a8 33 bd 38 a6 be ba
       -0.04207049 -0.0127204405 -0.043862015 -0.0014545387
000150 5e a8 e0 bc 57 36 12 3d 5e d5 71 bc 82 0b 1c 3d
       -0.027424034 0.035696354 -0.014760343 0.038096912
000160 f6 d4 06 3d fd f3 3a 3d 7a bc 54 bd 26 e5 29 3c
       0.03291794 0.04564284 -0.051937558 0.010369575
000170 2c de 43 bd ac af 75 bd 0a 4a dd 3a c0 8f fa bb
       -0.0478193 -0.059981987 0.0016883027 -0.007646531
000180 92 0d fa bc d1 1e 4c bd 2a 8e d7 ba 8f 48 df bc
       -0.030524049 -0.049834076 -0.0016445566 -0.027256278
000190 73 b6 cd bc 46 00 7e b7 82 5e b6 bc 41 8a 00 3d
       -0.025111413 -1.5139643e-05 -0.022261862 0.03138185
0001a0 14 91 63 bc 7b 9a 43 bc 19 47 fc bc 42 2d 7c 3b
       -0.01388957 -0.0119386865 -0.03079562 0.0038479124
0001b0 bf bf b9 bb 9b dc 0a 3d 78 bd be 3a a7 ad 37 3d
       -0.00566861 0.033901792 0.0014552316 0.044843342
0001c0 a2 7e 63 3d d7 f7 0b 3d 90 cc 43 3c d5 e8 34 bd
       0.05554069 0.034171905 0.011950627 -0.04416736
0001d0 f4 bd 0e bd a5 21 50 bc 46 bd eb bc 98 98 89 3c
       -0.034849122 -0.012703334 -0.028776776 0.016796395
0001e0 aa 4f 59 bc c5 78 8e bb 94 f8 80 3b 86 5d 06 bd
       -0.013263622 -0.004347893 0.003935883 -0.032804035
0001f0 e9 c5 12 3d da ff 88 bc 63 f9 f4 bc 82 73 94 3b
       0.035833273 -0.016723562 -0.029904073 0.004530371
000200 b3 10 21 bd 8e af b9 3b 08 3b 83 bc 59 2b c1 3a
       -0.039322566 0.0056666797 -0.01601936 0.001473765
000210 9d 53 0f bc c2 8c fd 3c 2f 91 2a 3d 2d 29 12 3d
       -0.008747962 0.030950908 0.041642364 0.0356838
000220 a0 51 94 39 b9 21 b0 3c 7a 5f 2e bd 71 41 08 bd
       0.00028289575 0.021500455 -0.042571522 -0.033265535
000230 9e 1e 6d 3b d3 2d 25 bb 9e da 41 bb 08 82 a6 3b
       0.003618158 -0.0025204315 -0.002957977 0.005081419
000240 2b 1b 30 3c 7d 74 6a 3c 75 3b cc bc 49 b2 b6 bc
       0.010748665 0.0143099995 -0.024930695 -0.02230181
000250 92 05 18 bb 4b ff b7 3c c8 73 b2 bb ac 17 35 bc
       -0.002319668 0.0224606 -0.005445931 -0.011053007
000260 a8 31 f6 3c dd 58 0e 3d 01 39 02 3c 91 f5 82 bc
       0.030052975 0.034752715 0.007948161 -0.015986236
000270 a2 58 35 bd 10 42 18 3c 02 f9 3d 3c 97 4e a8 bc
       -0.04427398 0.009293094 0.011595013 -0.020545287
000280 af 4c b7 bc 4c 7c 17 bd b6 eb 18 3d b7 9a 3a 3d
       -0.022375433 -0.036983773 0.037334166 0.045557704
000290 0f 83 77 3d 1f ef e1 3c 4c c3 33 bc 65 b8 61 3c
       0.06042772 0.027579842 -0.010971855 0.013776873
0002a0 7a 5b 98 3c b6 d6 75 bc 11 a8 ec bc d3 1b f3 3c
       0.018598307 -0.015004804 -0.028888734 0.029676354
0002b0 76 e0 b0 bb 1e 9d 58 3c 98 64 ab bc 99 82 bd bc
       -0.0053978516 0.013221053 -0.02092199 -0.023133563
0002c0 46 49 94 bb dc e6 1d 3b 69 52 02 3d 04 71 f0 3c
       -0.0045253364 0.0024093902 0.031816874 0.029350765
0002d0 37 5d 2a 3c 2f 26 67 3d 5b e8 e3 b9 95 67 5c 3c
       0.010398201 0.0564329 -0.00043469932 0.01345243
0002e0 18 fa ee bc eb 31 78 3c e3 16 22 3d 8f 80 11 bd
       -0.029171988 0.01514862 0.039572608 -0.035522994
0002f0 ac 4f 30 3c e6 a8 24 bd 6c 5d 9d bc f5 0e a7 bc
       0.010761183 -0.040200137 -0.019209586 -0.020392874
000300 60 cc 8a 3b d6 40 01 bd 8c b0 61 3c 2f 92 31 bd
       0.004235789 -0.031555973 0.013775002 -0.043352302
000310 b5 3b b5 3b 2a 33 01 bc e1 c0 3b bc c0 c8 3a 3d
       0.0055307993 -0.007885734 -0.01145956 0.045601606
000320 91 28 d1 3b f2 fb bb bc 62 f4 87 bc 79 a6 4a bc
       0.0063830097 -0.022947285 -0.016596023 -0.012368792
000330 7f 7f 5c bc c8 cf 15 3b a4 43 6c 39 15 92 11 3d
       -0.013458132 0.0022859443 0.00022531912 0.035539705
000340 4b 78 07 3b 79 0c b7 bc 8e 24 f1 3c 20 02 8f 3b
       0.0020671065 -0.022344815 0.029436376 0.004364267
000350 e8 c3 8b bc fe dc 9a 3c 45 45 c0 3c 93 74 42 bd
       -0.017061189 0.018904205 0.02347053 -0.047474455
000360 97 ab 35 bd 75 ff 0a bd 18 5b 36 bd d6 c2 be bc
       -0.044353094 -0.03393503 -0.044520468 -0.023286264
000370 31 14 b3 3a 51 b8 4b bd d1 77 4c bd 5b f3 40 bd
       0.0013662634 -0.049736325 -0.049918953 -0.04710708
000380 64 e3 0c bd 9c 89 cf 3c 5d 57 14 3d 9c 33 22 3d
       -0.034396544 0.025334172 0.03621613 0.0396
000390 25 58 29 3c 29 db fc bc b3 81 17 3d 28 99 c3 bc
       0.010335957 -0.030866222 0.036988925 -0.023876742
0003a0 67 77 19 3c 41 eb fd 3b 10 e0 15 3b 5e 7c 40 3c
       0.009366847 0.0077489917 0.0022869147 0.011748401
0003b0 6d 21 04 bd 4a cf db b9 b1 ab cc bc af 40 e5 3c
       -0.03225844 -0.00041925377 -0.024984213 0.027984945
0003c0 e1 a9 2f bc 9b 71 0c bb 2a 75 24 3d 49 ba 0c 3d
       -0.010721655 -0.0021430019 0.0401508 0.034357343
0003d0 d1 4a fc bc e9 b9 dc bc 10 1e eb 3c c3 8a 1e 3c
       -0.030797394 -0.026944118 0.028700858 0.009676638
0003e0 c3 dd d5 bc f7 15 1d 3d 05 d2 d5 bc 3c d9 28 3d
       -0.02610672 0.038351025 -0.026101122 0.041222796
0003f0 39 1b 2b 3d 41 6c 31 3d c8 a0 09 39 69 dd 2d 3c
       0.04177401 0.04331613 0.00013125234 0.01061187

extractor.3.bias f4 [36]
000000 2a f2 84 bc 15 d6 0e bd 9d 24 bf 3c 70 81 b5 bc
       -0.016228754 -0.034872133 0.023332888 -0.022156447
000010 44 e7 d7 bc 7b 38 ed bc b5 49 a8 bb 69 df 79 3c
       -0.026355393 -0.028957596 -0.0051357397 0.015251019
000020 f3 53 0c 3c 89 26 a0 bc 96 af 9f bc 8d a9 2b 3b
       0.008564937 -0.019549625 -0.019492906 0.002619359
000030 35 fa 9a bb 89 a7 d4 bc eb 80 05 bd 77 91 65 bb
       -0.004729534 -0.025958793 -0.03259365 -0.003502933
000040 10 13 47 bc 1c 3b 0d bd 02 40 ca 3c 72 37 fc 3c
       -0.012150541 -0.0344802 0.024688724 0.030788157
000050 70 a5 cf 3c 50 e7 c6 3c 2c 9e 07 bd 82 c1 1a 3c
       0.025347441 0.02428022 -0.03310983 0.00944555
000060 49 64 19 3d db f1 14 bd da 08 fc bc 8e c7 a3 3c
       0.037449155 -0.036363464 -0.03076594 0.019992616
000070 b8 6b 9c 3c 43 90 c4 bc fa bb 26 3d 95 30 1e 3d
       0.019094333 -0.02399457 0.040706612 0.03862055
000080 7c 8d e1 bc 3f a7 b2 bb b3 97 b5 bc 20 dd 0c 3c
       -0.027533285 -0.005452066 -0.022167062 0.008597642

extractor.4.weight f4 [36]
000000 1f 5d 7a 3f 23 71 80 3f 59 82 78 3f 1c 94 7f 3f
       0.9779834 1.0034527 0.97073895 0.9983537
000010 3e 31 86 3f c2 a1 81 3f 85 d9 7a 3f 42 5c 7e 3f
       1.0483778 1.012749 0.9798816 0.99359524
000020 19 98 82 3f d5 de 80 3f b5 05 7c 3f b1 c6 76 3f
       1.0202667 1.0068003 0.9844621 0.9639693
000030 8a 0d 85 3f 43 4c 7c 3f 88 0f 77 3f 2e e9 82 3f
       1.0394757 0.98553866 0.96508074 1.0227411
000040 9d 35 77 3f f2 81 7c 3f 5f 4e 83 3f 13 4f 7e 3f
       0.9656618 0.9863578 1.0258292 0.9933941
000050 11 23 7d 3f d5 9f 7d 3f 85 b9 84 3f 2d 33 80 3f
       0.9888163 0.9907201 1.0369116 1.0015618
000060 5b cf 7b 3f d2 52 78 3f b4 aa 7e 3f db 0e 7a 3f
       0.98363274 0.97001374 0.9947922 0.9767892
000070 4c 95 82 3f 1e 4c 7b 3f 2c 92 7d 3f 81 a5 7e 3f
       1.0201812 0.9816302 0.99051166 0.9947129
000080 f1 f4 7b 3f 4b 78 80 3f cf 38 82 3f ab d7 7c 3f
       0.98420626 1.003671 1.0173587 0.98766583

extractor.4.bias f4 [36]
000000 75 31 1a bd b6 e1 a9 3c 54 ce 0c bd 75 4e 62 3c
       -0.037644822 0.02073751 -0.034376457 0.013812651
000010 ff f0 93 bc 87 f7 27 3d 99 8c 7a bd 7f 55 50 bc
       -0.018059252 0.041007545 -0.06116924 -0.012715696
000020 0c 8c 4a bd 97 8c bd 3c 48 17 e6 bc bb 5f b0 bc
       -0.049449965 0.023138328 -0.028087273 -0.021530023
000030 b3 53 9a bd 63 d0 0b 3b 74 5a 1c bd 35 43 c1 bc
       -0.075354956 0.0021333925 -0.0381722 -0.023591617
000040 4a 60 c2 bc 95 5f 6f 3c de 27 4a bd 9b 87 81 bd
       -0.023727555 0.014610191 -0.049354427 -0.06324693
000050 9c cc b5 bb a4 11 24 bc 72 53 c6 bc 1d a5 04 bd
       -0.005548073 -0.0100139715 -0.024209712 -0.032384027
000060 d8 20 be bc 9b 16 93 bc 78 62 1c bd 14 a9 e5 3a
       -0.02320902 -0.017955115 -0.038179845 0.0017521703
000070 bf f9 01 3d e2 c4 3f bd 1f 4f 12 bc d6 84 57 3c
       0.031732317 -0.04681862 -0.008929997 0.013154229
000080 59 3f a7 bc eb 72 35 3c 2e a3 87 bd b7 53 cf 3a
       -0.020415949 0.011074762 -0.06622921 0.0015817796

extractor.4.running_mean f4 [36]
000000 f1 a7 a8 be de de 82 bf 4a 10 ef bf 05 92 d6 bf
       -0.3294063 -1.0224264 -1.8676846 -1.6763312
000010 22 e4 88 3e ed 22 c6 be 8c 71 c2 3f 15 ef ba be
       0.26736552 -0.3869852 1.5190902 -0.3651053
000020 e5 3c 0d 40 d4 80 f2 bf 88 fe 66 bf 39 33 c1 bf
       2.2068417 -1.8945565 -0.90232134 -1.5093757
000030 1d c3 77 3f cb 76 6a bf 3a 25 d0 be aa dd b4 bf
       0.96782094 -0.91587514 -0.40653402 -1.4130147
000040 22 a5 bf bf 46 31 98 bf 65 03 15 3e e1 59 10 40
       -1.497227 -1.1890037 0.14552076 2.2554858
000050 27 33 c2 bf 9f 86 d6 bf 9f 32 d2 3f 58 da 0d 40
       -1.517186 -1.6759833 1.6421698 2.2164516
000060 31 83 8d 3f 13 89 43 bf 4f cb c7 3f c5 ae 8a bf
       1.1055661 -0.76381034 1.560892 -1.0834585
000070 3a af 92 bf 1d 8c f5 3f 93 21 b4 bf c1 7e db bf
       -1.1459725 1.9183384 -1.4072746 -1.7148057
000080 6b cd 1f 3f 3e 6e d0 bf 27 a3 a7 3f 0a 4e 9b bf
       0.6242282 -1.6283643 1.3096665 -1.2133191

extractor.4.running_var f4 [36]
000000 2f 86 dd 3f c4 ce e5 3f 13 0c 22 40 30 c7 8e 3f
       1.7306575 1.7953725 2.531987 1.1154537
000010 e8 58 b0 3e 93 32 2d 40 95 69 20 40 d1 a6 74 40
       0.3444283 2.7062118 2.5064442 3.8226817
000020 c6 05 9c 40 9c 45 66 40 8a 2a 10 40 56 77 7c 3f
       4.875705 3.5979986 2.2525964 0.9861959
000030 34 c2 8e 3f 12 86 78 3f 44 52 ef 3f 40 0a 24 3f
       1.1153016 0.97079575 1.869698 0.6407814
000040 c7 93 72 3f 7b 45 f6 3f cb d2 f9 3e 0e 97 28 40
       0.9475674 1.9239954 0.48793635 2.6342196
000050 e4 05 c4 3f 8d 35 80 3f 89 86 17 40 23 7c 83 40
       1.5314298 1.0016342 2.3675864 4.1089034
000060 f3 72 09 40 60 db 23 3f af d4 48 40 34 1f c1 3f
       2.147641 0.64006615 3.1379812 1.5087647
000070 35 d0 0b 40 0f f8 4e 40 d1 00 31 3f 45 be ee 3f
       2.184583 3.2338903 0.6914187 1.8651816
000080 cf f3 d6 3f 13 7a a6 3f 95 43 31 40 ea fa fc 3f
       1.6793154 1.3006004 2.7697499 1.9764073

extractor.6.weight f4 [48, 36, 3, 3]
000000 82 0a 3a bd 87 d4 df bc 10 d2 29 bd 31 cc b4 3c
       -0.045420177 -0.02732302 -0.041460097 0.022070022
000010 b7 9e d7 bc 95 7f 12 3d 54 ed 5f bc 8d a0 35 bd
       -0.026320798 0.035766203 -0.013667423 -0.044342566
000020 db cc ca 3c 7b 41 ed 3b 98 2d 71 bb af c5 a3 bd
       0.024755886 0.007240472 -0.0036800858 -0.079966895
000030 96 4f 27 3d 82 5b dd bc 4d f9 85 3b 97 b5 3c bb
       0.040847383 -0.027021173 0.004088557 -0.002879476
000040 8b 9a 31 bd 52 77 be 3c 4b 08 71 3c 6b 17 73 3d
       -0.043360274 0.023250256 0.01471145 0.059348505
000050 fc d9 0d bd 92 3d 6f bd 52 0a 5e 3d b9 40 c9 bc
       -0.034631714 -0.058408327 0.05420906 -0.024566995
000060 d3 ef 32 3d d6 4e f5 bc c2 d4 18 bc f1 57 73 3d
       0.043685745 -0.029944818 -0.009328069 0.05941004
000070 5a 67 84 3d 52 3a 4d 3d 0f 66 df 3b 59 02 99 3c
       0.06465025 0.050104447 0.0068175863 0.018677877
000080 ec 98 b5 3c 72 ee 0c bc 67 65 90 bc a8 62 55 3d
       0.022167645 -0.008601772 -0.017626477 0.05209604
000090 d9 1f b8 3c 88 57 2e 3d 91 23 13 bd 16 07 de ba
       0.022476124 0.042563945 -0.03592259 -0.0016939368
0000a0 47 65 bf 3d 37 47 4a 3d 0c 5c 42 bd f2 36 1a bd
       0.09345489 0.049384322 -0.047451064 -0.037650056
0000b0 75 69 76 bd 1a cd 29 bd 90 b8 00 bc 3f d3 2f bd
       -0.060159165 -0.041455366 -0.007856503 -0.04292607
0000c0 4e 28 fc 3b 64 ab 9d b8 2b 61 cb 3c 7f 01 01 bd
       0.0076952344 -7.5182674e-05 0.024826607 -0.031495567
0000d0 8f 9f e9 3c a7 a0 75 3d 6a 92 90 bc 42 98 83 3d
       0.028518466 0.059967663 -0.01764794 0.06425525
0000e0 5a 8b e2 bc 0a e3 88 3c c7 16 26 3d 9f 32 3a bc
       -0.027654339 0.016709823 0.040549066 -0.011364608
0000f0 e4 8f 16 bd 65 4e 93 3c 2c 37 0a 3d 7d 78 0d bb
       -0.03675832 0.017981717 0.033744022 -0.002158671
000100 da 79 b8 bc 75 28 16 3d b7 2a 0a bd 0d 4f b7 bc
       -0.02251904 0.036659677 -0.033732142 -0.022376562
000110 fc b1 a0 bc 64 0d a4 ba 40 3c d4 bb 7f 9d 01 3b
       -0.01961612 -0.0012516198 -0.006476909 0.0019777713
000120 fd 3d 93 3d c8 95 77 bc 4e 36 0f 3d b7 1d 18 3c
       0.07189558 -0.015111394 0.0349639 0.009284428
000130 cb bd 29 3d 2e 0d 30 3d c1 4f 0c 3c bf 46 f5 3c
       0.041440766 0.04298132 0.008563937 0.02994096
000140 0e 9b 5b bb 1b 76 32 3c 5e 46 25 bb 0c 24 b8 3c
       -0.0033509168 0.010892416 -0.0025218944 0.022478126
000150 19 94 61 3c 13 45 54 bc 6e e9 63 3d f7 2e 7e 3d
       0.013768219 -0.012955922 0.055642538 0.062056508
000160 32 bf 08 3d 34 fd cd 3b 1a c6 2c 3d fb 29 18 3d
       0.033385463 0.0062862877 0.042181112 0.03714941
000170 de c0 1e 3d 96 12 73 3d 7a 72 0f 3b c3 80 c6 bc
       0.03875815 0.059343897 0.0021888302 -0.02423132
000180 5e 1f ef bb 96 aa fb 3c 79 fc 08 bd 62 8c 39 bd
       -0.0072974404 0.03072099 -0.0334439 -0.045299895
000190 cd ad 89 3c 61 ef c2 bc f0 70 68 3c fe 1d ed 3b
       0.016806507 -0.023795785 0.014187083 0.0072362414
0001a0 57 fa 19 bd ba 6d 1e 3c c0 f0 05 3d 7a fb 73 3d
       -0.03759226 0.009669716 0.0327003 0.059566
0001b0 ea 04 92 3c 86 3c 79 3d 5a 3a be bc 15 2b c8 bb
       0.017824609 0.060848735 -0.023221184 -0.0061086514
0001c0 73 dc 97 bd 30 98 55 bd e5 4e da 3c 4d 69 9f 3c
       -0.07415094 -0.05214709 0.026648948 0.019459391
0001d0 96 2f b3 bb 2b 23 2f 3c 9e f4 9b bc 40 a2 dd bc
       -0.005468319 0.010689537 -0.019037541 -0.027054906
0001e0 02 a8 82 3a 19 51 8c 3d 87 aa 82 3d c0 ec 93 bc
       0.0009968283 0.06851406 0.06380182 -0.018057227
0001f0 78 5c 89 3b 6c 19 46 3c 97 33 55 bc 56 8e fc ba
       0.0041919313 0.012091022 -0.013012788 -0.0019268494
000200 aa 69 c3 b9 9e b3 87 3d f6 d4 0a bd cc 54 71 3d
       -0.00037272024 0.06626056 -0.0338945 0.05891876
000210 80 ab 06 bd 85 24 22 bd d2 62 29 3d 4f b9 f6 3b
       -0.0328784 -0.03958561 0.041354008 0.0075294147
000220 4f 68 8a bc 08 b4 9c bc df 87 ae 3c f4 af 0a 3d
       -0.016895441 -0.019128814 0.021305023 0.03385921
000230 5f 6e 45 3c 19 9d 9b 3d 30 b6 ef bc 0f 4b 16 bd
       0.01205024 0.075983234 -0.029261678 -0.036692675
000240 5d 33 3b 3d 43 ed f2 bc e0 cf 2d 3d 42 a4 f5 bc
       0.04570328 -0.02965415 0.042434573 -0.02998555
000250 18 11 8b bc 98 13 24 bd 35 eb 28 3d 8e 18 e4 bc
       -0.016975924 -0.04005775 0.041239936 -0.02784374
000260 3a ac d1 3c a7 0f f9 bc 10 71 6e 3d 9c bc a0 bb
       0.02559482 -0.030402971 0.058213294 -0.0049052965
000270 bd 26 8e ba a4 f9 a4 3c 05 71 a8 3c a3 45 7e 3d
       -0.0010845285 0.02013857 0.020561704 0.06207813
000280 25 f5 47 3c 13 7b 00 bc 2f ee 8b 3c 89 75 24 3d
       0.012204443 -0.007841843 0.017081348 0.040151153
000290 b4 35 11 3d 7c 48 f8 3b 82 c9 97 bd 1c 57 31 bd
       0.035451606 0.007577 -0.074114814 -0.043295965
0002a0 aa 86 ad 3d 2e 96 e2 bc 33 49 5b 3d 9e d6 3e 3d
       0.08472951 -0.027659502 0.053536605 0.046591394
0002b0 8a 05 61 3c 7b 02 5a bb 3b 90 5c 3a af 79 4e bd
       0.013734231 -0.0033265639 0.0008413826 -0.050409015
0002c0 b8 18 06 bd 44 87 c2 bc 5d 13 9f 3b 86 cb 11 3d
       -0.032738417 -0.02374614 0.004854603 0.035594486
0002d0 a0 e5 1f bd 63 0c 27 bd a7 de 30 3c e4 48 36 3d
       -0.039037347 -0.040783297 0.010795272 0.044503108
0002e0 8e 2b 7a 3d 81 89 e8 3c 2b 91 38 3d 73 fd 87 bc
       0.061076693 0.02838588 0.045060318 -0.016600346
0002f0 7b 79 cd 3c b0 88 1c 3c 29 85 0b 3c ae 7e 0a 3d
       0.02508234 0.009554073 0.008515635 0.033812217
000300 e2 1a 06 bd 43 58 92 bc e1 2b 5c 3d 50 3e 1a bd
       -0.03274048 -0.017864352 0.053752784 -0.037657082
000310 16 a0 66 3b 37 8a ad ba 9c 91 9b 3d be 49 ec 3c
       0.0035190633 -0.0013240044 0.07596132 0.028843757
000320 f6 4c 09 3d ef c6 b7 bc 68 73 1f bd 90 10 f2 3c
       0.03352066 -0.022433726 -0.03892842 0.029548913
000330 5c 01 64 3d 0e c3 6d bb 95 3c 77 3d 50 0d e8 3c
       0.05566536 -0.0036279592 0.06036051 0.02832666
000340 b3 11 97 39 8b 3a 0b 3d 96 a5 ce bb f9 1f 57 3d
       0.0002881415 0.033991378 -0.0063063605 0.052520726
000350 7e 7a 46 3d 25 af a0 3c 81 28 0e bc ce fb 3f 3d
       0.04845666 0.019614765 -0.008676649 0.046871
000360 b8 1c 94 3c 53 0a 29 bb 3a ad 15 bd cf a8 ea 3b
       0.0180801 -0.0025793507 -0.036542155 0.007161237
000370 f5 a2 26 bb 2f c0 c5 3a a2 74 7a 3c 38 20 15 bd
       -0.002542672 0.0015087182 0.0152865965 -0.03640768
000380 7a bd 48 3d 42 eb a1 bc b5 4a 0b 3d d0 75 83 3c
       0.049008824 -0.0197655 0.034006793 0.016047388
000390 ea f9 53 3c 44 c7 4f bd 29 84 13 3d c8 ac db 3b
       0.012938002 -0.050727144 0.03601471 0.0067039467
0003a0 84 49 3d bd 2c 67 33 bc ae 5b c6 bc ea 0e 43 bc
       -0.046212688 -0.010949891 -0.024213638 -0.011905411
0003b0 db 53 96 bc 62 2a 87 3d 38 d2 a2 3d 7d b3 48 3d
       -0.018350532 0.06599881 0.07950252 0.0489993
0003c0 d2 70 61 3d f0 a1 e3 3c 98 25 e3 bc f1 b2 88 3b
       0.055039234 0.027787179 -0.027727887 0.004171722
0003d0 55 68 47 bc 2f 6f 11 3d 2a 89 58 3c c1 19 b3 bc
       -0.012170871 0.035506424 0.013216296 -0.021862866
0003e0 18 ad 17 3d 51 82 ca bc e2 49 d3 3c 08 ba 3b bd
       0.03703031 -0.024720343 0.025792066 -0.04583171
0003f0 4d f3 25 bd 45 91 12 3b ba f6 ef 3c 40 5d 30 3c
       -0.040515233 0.002236442 0.029292453 0.01076442

extractor.6.bias f4 [48]
000000 80 cb d4 3b 9e ac 3f bd e6 3f 5b bb b9 dc 2e bd
       0.0064939857 -0.04679548 -0.0033454834 -0.042690966
000010 9a a0 32 3d 5e dc 1f bc 23 55 84 bb 36 22 63 3d
       0.043610193 -0.0097571295 -0.0040384694 0.055452548
000020 d4 b7 1f 3c 75 98 d1 3c bd 6e 42 bd 3e 39 35 bd
       0.009748418 0.025585392 -0.04746889 -0.044244044
000030 ab a3 f0 3c 5f 8e e2 3c a3 28 4f bd a7 0a 2d 3d
       0.029374918 0.027655778 -0.050575864 0.042246487
000040 12 96 60 bc 73 6d 11 3d 82 bb 5a 3d d1 b3 2b bd
       -0.013707655 0.03550477 0.053401478 -0.041919533
000050 06 8d cf 3b 3e 59 54 bd b0 36 d3 bc ca f8 94 bc
       0.00633395 -0.05184292 -0.025782913 -0.018185038
000060 46 38 bc bc b6 41 07 3d ea 56 77 3c 1e 2c dc 3c
       -0.022976052 0.03302165 0.0150964055 0.026876505
000070 8a c6 d1 3c f3 f2 7d 3c 73 8e b7 3c 64 f7 ab bc
       0.025607366 0.015499818 0.022406792 -0.020991988
000080 40 84 37 3d c9 d5 26 3c 79 db 3a bc ed 7c 1e 3a
       0.044803858 0.010182806 -0.011404865 0.0006045837
000090 9b 16 8b bc 35 d1 24 3c f2 8c 40 3d 6d b0 35 bd
       -0.016978553 0.0100596445 0.047009416 -0.044357706
0000a0 5a 1f 39 bd 2b a2 af bc 83 97 17 3b 1b f0 27 3d
       -0.045195915 -0.021439632 0.002313108 0.041000467
0000b0 a2 ad 08 3d 9b c1 4a 3d f5 2b ab 3c 46 cb 25 bd
       0.033368714 0.049501043 0.020894984 -0.04047706

extractor.7.weight f4 [48]
000000 79 76 7b 3f a6 b9 80 3f ff 8a 81 3f bc 93 7e 3f
       0.9822765 1.0056655 1.0120543 0.99444175
000010 d3 25 7e 3f 5a 57 7b 3f 9f b3 7e 3f 64 78 80 3f
       0.99276465 0.9818016 0.9949283 1.003674
000020 4e 81 7b 3f 51 3d 81 3f 10 f9 83 3f 92 09 7a 3f
       0.9824418 1.0096837 1.0310383 0.97670853
000030 39 a1 80 3f b9 94 82 3f e3 88 83 3f 84 20 80 3f
       1.0049201 1.0201637 1.027615 1.0009923
000040 aa 2c 83 3f a3 ff 80 3f e3 c9 7f 3f b8 4c 77 3f
       1.0248005 1.0078014 0.9991743 0.9660144
000050 1a 98 7e 3f fe 15 80 3f d1 75 82 3f b1 ce 79 3f
       0.9945084 1.0006711 1.0192205 0.9758101
000060 49 ea 7e 3f c1 67 81 3f 7c b7 80 3f 20 05 83 3f
       0.9957624 1.0109788 1.0055995 1.0235939
000070 c3 9f 78 3f 3b 79 74 3f 73 95 7d 3f 31 ff 76 3f
       0.9711878 0.95497483 0.99056166 0.9648314
000080 3c f3 7c 3f d8 fd 79 3f ab 38 80 3f db 9d 83 3f
       0.98808646 0.9765296 1.0017294 1.0282549
000090 2d 8a 81 3f 1f 5b 81 3f 1b d7 80 3f 44 51 7e 3f
       1.0120293 1.0105933 1.0065645 0.9934275
0000a0 32 d6 7a 3f 36 9b 70 3f 21 9e 7f 3f c6 b1 7e 3f
       0.97983086 0.93986833 0.9985066 0.9949001
0000b0 2b 8b 7d 3f 4c f7 7d 3f a7 f8 76 3f e7 b8 81 3f
       0.9904048 0.9920547 0.96473163 1.0134553

extractor.7.bias f4 [48]
000000 a1 da dd bd 1c dd 06 be a1 2a ed 3c ac 64 a2 bc
       -0.10832716 -0.13170284 0.028950991 -0.019823395
000010 1a b3 88 3b 5e 5f 76 bd 83 9c 9e bc 2d 1b 88 3b
       0.004171741 -0.060149543 -0.01936174 0.00415363
000020 61 c6 2f 3a c9 18 f9 bd ba e6 10 3d fe 3a ec bc
       0.0006705281 -0.121629305 0.035376288 -0.028836723
000030 8f c0 c7 bd 27 61 da 3c 9a c5 b5 3c 29 fb bd bc
       -0.097535245 0.026657654 0.02218895 -0.023191052
000040 c1 2e df 3c 09 db 50 3b 22 b8 b3 3c 96 99 bb bc
       0.027243974 0.0031868836 0.021938387 -0.022900384
000050 b9 79 35 3c a4 f9 8f bc 58 b9 ad bd a1 db 48 bd
       0.011076384 -0.017575093 -0.08482617 -0.04903758
000060 40 f2 64 bc 84 36 9f 3c ef 0b eb 3c ce 1a b6 bd
       -0.0139737725 0.019435175 0.028692214 -0.08891831
000070 20 df 08 bd 5d bd 16 bd 39 95 a4 3b 02 9c 2d bd
       -0.033415914 -0.036801685 0.0050226715 -0.04238511
000080 65 f4 0d bc 46 4f 9a bc 6b d4 f1 bd 10 cf b5 bd
       -0.008664225 -0.018836629 -0.11808094 -0.08877385
000090 cb 94 54 bc 61 67 06 be 06 96 c2 3c 0f c7 9e bc
       -0.012974928 -0.13125373 0.023753177 -0.019382028
0000a0 35 a5 b3 bc 9c 86 55 bd b3 d7 42 bc b5 06 23 3d
       -0.021929363 -0.052130327 -0.011892247 0.03980132
0000b0 6a 37 ef 3b 29 df 0f bc cf e9 8c bd 62 d7 c2 bd
       0.007300307 -0.008781233 -0.06880533 -0.09513737

extractor.7.running_mean f4 [48]
000000 c3 11 83 3f ec 38 57 3f 6a 20 29 bf 2e 30 b6 be
       1.0239795 0.8407123 -0.66065085 -0.35583633
000010 2a 04 72 bf ff 38 9f bb d3 14 69 3d 06 8a 0f be
       -0.94537604 -0.0048590894 0.056904625 -0.14017496
000020 d2 d0 5f be e6 f6 a6 3f b1 f5 b1 bf 17 be 0f bf
       -0.21857002 1.3044097 -1.3903104 -0.5614943
000030 05 b9 6c 3f 3f 8e 5f bf a2 ab e2 be d9 52 d6 be
       0.9246982 -0.87326425 -0.4427157 -0.41860083
000040 21 4c ac bf 11 7f 03 bf 79 13 96 bf e2 36 4e 3e
       -1.3460733 -0.5136576 -1.1724693 0.20138124
000050 29 89 88 bf 5a 6a b7 be a7 fa 0b 3f 61 a9 c2 3d
       -1.0666858 -0.35823327 0.5467934 0.09504963
000060 88 cf 1b 3f 87 69 57 be 0d 14 25 bf 27 5b 02 3f
       0.6086354 -0.21036349 -0.6448372 0.5092034
000070 4a fe 42 bf 58 80 88 3d 83 f7 6c bf 8b e8 9c 3e
       -0.76169264 0.06665105 -0.9256517 0.30646166
000080 5f 37 67 3c 5a 6f ee be 57 9e 5c 3f 59 bd 82 3e
       0.014112323 -0.4656933 0.8617911 0.25535086
000090 1d bf b6 3e 4e f5 9b 3f 24 8a 19 bf 4e cf 23 3d
       0.35692683 1.2184236 -0.5997641 0.039992623
0000a0 9c 25 78 bf 8c 30 5a 3e af bd 05 bf 7c 1d d0 be
       -0.9693239 0.21307582 -0.5224256 -0.40647495
0000b0 68 31 c9 3c 10 e2 bf be fb 84 71 be a2 78 78 3f
       0.024559692 -0.3747716 -0.23585884 0.9705907

extractor.7.running_var f4 [48]
000000 fe 8e ba 3e 90 fa 37 3f 82 f8 d5 3e 2a c9 74 3f
       0.3643722 0.71866703 0.4179116 0.9561945
000010 2c 8b 90 3f cf 7e e8 3e ad a7 17 3f af 39 98 3f
       1.1292472 0.45409247 0.5924023 1.1892604
000020 ec 11 f4 3f c8 17 16 3f 87 20 28 3f ec 97 0f 3f
       1.9067969 0.5863004 0.6567463 0.5609119
000030 0d a1 ed 3e 7c 5c 06 3f 0a ac d6 3e a4 af 3a 3f
       0.46411934 0.5248487 0.4192813 0.72924256
000040 5a a1 c8 3e 9d d2 b3 3f 2d 02 99 3f ab 6c 32 3f
       0.391856 1.4048649 1.1953789 0.69697064
000050 3b 10 1c 3f 5d 9d 66 3f 40 0e 38 3f 9d 42 0f 3f
       0.60962266 0.9008387 0.71896744 0.5596102
000060 fe d8 7a 3f f6 d5 cc 3f 6a 68 ae 3f 7e 65 16 3f
       0.97987354 1.6002796 1.3625615 0.58748615
000070 18 02 95 3e fa 82 8f 3e e3 1b 82 3f 7f b8 5e 3f
       0.2910316 0.28029615 1.016476 0.8700027
000080 0c 2b 55 3f 71 7e 48 3f c0 ba f7 3e 13 bb 5d 3f
       0.8326881 0.78317934 0.48384666 0.8661358
000090 47 53 6e 3f 00 f8 1a 3f 6e 8c 70 3f b0 5a ad 3f
       0.9309582 0.6053467 0.9396428 1.3543301
0000a0 97 6f 0e 3f 71 9d e3 3e 5a f0 dc 3e 9f 49 ed 3f
       0.5563902 0.44456056 0.43152124 1.8538092
0000b0 30 6a ed 3f f4 6a fd 3e a4 e1 eb 3d 39 ab f0 3e
       1.8548031 0.4949566 0.11517647 0.47005633

extractor.9.weight f4 [64, 48, 3, 3]
000000 5b 44 4c 3d 58 28 fe 3c 18 4a 06 3d 17 3f cc 3c
       0.049869876 0.031025097 0.032785505 0.024932427
000010 f8 1f 90 bc 59 8a 42 3b cc dc 8d bc a1 e9 98 bd
       -0.017593369 0.0029684512 -0.017317198 -0.07466436
000020 2e c1 c3 bc 4e ec 96 3c 92 a3 f6 bc 56 86 c4 bc
       -0.023895826 0.018423226 -0.030107293 -0.023989838
000030 56 c5 88 bb ca e5 23 3c be 78 55 3c 08 bb 9a bb
       -0.004173915 0.010003516 0.013029275 -0.004722003
000040 9a 38 85 bd 84 f0 80 bd dc 36 11 bd 0e 90 05 3d
       -0.065049365 -0.06295875 -0.03545271 0.032608084
000050 c3 3d b9 bc de 7b 35 3c b1 e2 aa bc fb cc b7 bb
       -0.022612458 0.0110768955 -0.020860048 -0.0056091524
000060 3a 96 06 bd 47 63 da bc ee 7f 07 3d db 02 5e 3c
       -0.03285811 -0.026658667 0.033080988 0.0135504855
000070 5d b8 18 bd 2a a7 e6 bc 3e f2 ca 3c c0 f3 53 3c
       -0.037285198 -0.028155882 0.024773713 0.0129365325
000080 9b 8a 08 bd 28 63 79 bd a7 e4 a7 bc 11 bb fd bc
       -0.03333531 -0.06088558 -0.020494772 -0.03097299
000090 a8 47 3f bc 67 0e aa bc 49 60 ae 3b da 9a 0e bd
       -0.011674799 -0.02075882 0.0053215367 -0.034815647
0000a0 b4 60 57 3c b6 f7 70 bd ee 2b be 3c 90 f9 d5 bc
       0.013145614 -0.058829986 0.023214307 -0.026119977
0000b0 9b 4e 2c bd 95 a0 92 bd 01 85 98 bd e6 5a 34 bd
       -0.04206715 -0.07159535 -0.074472435 -0.044032
0000c0 bf 49 96 bc 62 29 4d 3c 7f 43 32 3d 62 40 04 bd
       -0.018345712 0.012522073 0.0435214 -0.032287963
0000d0 86 9e 43 bb e6 79 a9 bb 03 57 b0 bc af 2e 01 bd
       -0.0029849126 -0.005172002 -0.021525865 -0.03153866
0000e0 cf b9 54 bd 27 10 74 bd 77 bd 84 3c 61 f6 82 bd
       -0.051935013 -0.059585717 0.016203625 -0.06394649
0000f0 bd cd 73 bd d1 b7 93 3b 6e 71 a7 bd 8b 32 b2 bc
       -0.05952238 0.0045079966 -0.08175932 -0.021752616
000100 e1 a2 2c bd 6f 30 5e bd 9d ba ab 3c 5b 9a d8 3c
       -0.04214752 -0.05424541 0.020963008 0.02644079
000110 40 f4 0c 3d 1e 2c 9e bb 3d 67 9c 3d d0 40 e4 3c
       0.034412622 -0.0048270365 0.07636879 0.027862936
000120 78 69 6b bb 64 eb 3c 3d a5 c2 b5 3b 19 75 88 3c
       -0.0035921019 0.046122923 0.005546885 0.016657399
000130 bc 2d 82 bb 61 39 db bc 10 c4 50 3c 11 30 99 3c
       -0.003972737 -0.026760759 0.012742057 0.018699678
000140 be 94 9b bd 9f 78 4b bd c7 60 06 bd a1 0e 8e bb
       -0.0759673 -0.04967558 -0.032807138 -0.00433524
000150 de a0 d9 bb fb f2 41 bc b5 b3 d5 bc 96 cf e9 ba
       -0.0066414913 -0.011837716 -0.026086668 -0.0017838355
000160 00 47 bb 3c f9 46 0c 3c 12 81 4d bc 89 80 37 bd
       0.022861004 0.008561843 -0.01254298 -0.044800315
000170 35 2b 23 3c a8 b5 e7 bc 54 c9 9d bc 51 07 0d 3d
       0.009959032 -0.028284863 -0.01926104 0.034430806
000180 2a 18 45 3a 7c 62 fe 3c dc b3 89 bc 79 76 2e 3c
       0.00075185543 0.03105282 -0.016809396 0.010648363
000190 2f b5 6d bd 31 56 fe bb 7a c4 80 3c 4b 0a 05 bd
       -0.05803412 -0.0077617397 0.015718687 -0.03248052
0001a0 62 6e 56 bd 61 68 f0 ba b6 3e 11 bd 5b 20 3e 3d
       -0.052351363 -0.0018341654 -0.035460196 0.046417575
0001b0 b5 07 24 bc dd e7 be 3a 08 c3 23 bd eb 69 4c bd
       -0.010011603 0.001456495 -0.03998092 -0.0499057
0001c0 1a 47 1f bd c3 e0 f2 ba a7 ac 76 3c 4a 90 80 bc
       -0.038886167 -0.0018530119 0.015055812 -0.015693802
0001d0 a6 4c c8 bc 78 d1 a9 bd 34 a1 2a bc e0 c8 23 bd
       -0.024450611 -0.08291906 -0.01041441 -0.03998649
0001e0 c8 31 17 3d 47 0f 74 3c 4f dd d7 bc a8 d9 45 3d
       0.03691271 0.0148962205 -0.026350645 0.048303276
0001f0 12 6e b6 3c dd ac 1f 3c 55 50 35 bd 7f 57 89 bd
       0.022269282 0.009745804 -0.044266064 -0.06706142
000200 46 1c 82 bb 88 b8 90 bd a0 5a 3f bd c3 e0 01 3c
       -0.0039706556 -0.070664465 -0.046717286 0.0079271225
000210 ae 29 44 bd ce dc 37 bd 0f 9e 72 bb a4 64 08 bd
       -0.04789131 -0.04488831 -0.003702048 -0.033299103
000220 77 c7 0f bd ae 2e 47 3d 6e 95 1c 3c 73 ce 1e 3d
       -0.035102334 0.0486285 0.009557111 0.038771104
000230 07 86 ed bb 35 d0 ab 3c 5a 8e 96 3d 55 68 9d 3d
       -0.0072486433 0.020973304 0.0735137 0.076859154
000240 11 49 2f 3d 9b 97 92 bc bd 3c 2b 3d 62 9e dd 3c
       0.04279429 -0.017894557 0.04180597 0.027053062
000250 2f 25 1c 3d d4 e0 b3 3c 19 a7 45 bd fd fe 93 3b
       0.0381214 0.021957792 -0.04825506 0.004516481
000260 f6 a9 3c bd a1 a9 2a bd 26 b6 78 bd c3 06 b5 bd
       -0.046060525 -0.041665677 -0.060720585 -0.0883918
000270 66 57 d7 3c c1 fc 55 bd c4 cb 26 bd bb 9a 88 3c
       0.026286792 -0.052242998 -0.04072167 0.016675344
000280 51 58 53 bd 09 61 5e bd cd 54 bb bc b3 84 cc 3c
       -0.051597897 -0.05429176 -0.022867585 0.02496562
000290 97 e7 5b bd 77 59 3c bd 8a 4a 59 bd e8 db 13 bd
       -0.05368766 -0.045983758 -0.0530496 -0.03609839
0002a0 9a de 1c bd 92 a9 3b bd dc d2 0f bd a1 0f c8 bc
       -0.038298227 -0.04581601 -0.0351132 -0.024421515
0002b0 d8 72 d7 3c 3e a4 32 3d 82 fb dc 3c bd 29 40 bd
       0.026299879 0.043613665 0.026975397 -0.046914805
0002c0 44 2e 24 3b c2 1c 67 3d bb 2f 04 3c f2 46 29 bc
       0.002505199 0.05642391 0.00806802 -0.010331856
0002d0 09 fc 8d bc ac 17 ef bc 35 6c a0 3c 25 1b 0b 3c
       -0.017332094 -0.029186092 0.019582847 0.0084903585
0002e0 ec 30 18 3d 87 51 65 bc 21 1e 22 3d 88 89 41 bd
       0.03715603 -0.013996488 0.039579514 -0.0472503
0002f0 3f b3 1e 3d 53 18 3b 3c 7c f8 72 bd 66 ec a6 bb
       0.03874516 0.011419374 -0.059319004 -0.005094099
000300 0e ab b1 bb da 3e 89 3c e9 50 8f bd a1 db c4 3a
       -0.0054220026 0.016753603 -0.06997854 0.0015019068
000310 0c c0 cb 3b 89 bd 1a bd ae 81 92 bd 5a a0 57 bd
       0.006217962 -0.03777841 -0.07153641 -0.052643158
000320 06 57 63 bb 40 a3 70 3c 17 b6 12 3d e1 00 9c 3b
       -0.0034689321 0.014687359 0.035818186 0.004760847
000330 bc 69 ef 3b e3 79 64 bd 8f c2 96 bc ea 4b b2 3c
       0.0073063057 -0.055780303 -0.01840332 0.021764714
000340 e0 cb c8 bc dc 33 5a 3b a6 17 c4 bc 81 44 15 bd
       -0.024511278 0.003329507 -0.023937058 -0.036442284
000350 84 04 2a bd 16 ce 20 3d 98 f3 d2 bc fa 56 bd 3c
       -0.041508213 0.03925904 -0.02575092 0.023112763
000360 60 28 6e 3d 2d 01 e3 bb 13 2e d6 bc 18 b3 a7 bc
       0.058143973 -0.0069276304 -0.026145017 -0.02047114
000370 06 1c 46 bc 98 bd 4e bd 6d 1e 43 bd 31 8f 3c bd
       -0.012091642 -0.05047378 -0.04763644 -0.046034995
000380 7c 4d 77 3c 6e 18 88 3b c5 46 8b 3d 08 23 9f 3c
       0.015094157 0.004153303 0.068006076 0.019425884
000390 ae b7 e8 3b 7e 22 cd 3a 18 28 1d bd c0 46 23 3a
       0.0071019745 0.0015650538 -0.038368315 0.0006228499
0003a0 53 3e b0 3c ea 8e f3 3c 61 74 4f bc d4 25 35 3d
       0.021514094 0.029731233 -0.012662024 0.04422553
0003b0 23 98 f0 bc e0 14 86 3c 61 c1 17 3d 5f 0c cd 3a
       -0.02936942 0.016367376 0.037049655 0.0015643946
0003c0 5d b0 3c bc 71 d7 f2 3b 9b e1 fe bb 89 bc f9 bc
       -0.011516658 0.0074109365 -0.007778359 -0.030485408
0003d0 a2 e2 0d bd b4 92 a8 bc 52 2f f7 bc 01 73 d7 3b
       -0.034639962 -0.020577766 -0.030173931 0.006574989
0003e0 c8 ea 17 3d 6e 8b 11 3b 52 8f 02 bc 4d f8 cb bc
       0.03708914 0.002220835 -0.007968741 -0.024898672
0003f0 56 bc 5f bd 7b 8e 53 bc 90 2f 54 3c 4b 59 9a 3c
       -0.05462297 -0.012912388 0.012950793 0.018841406

extractor.9.bias f4 [64]
000000 ba 98 c2 bb bf 43 85 bc 79 09 09 bc 69 b9 14 bc
       -0.0059386166 -0.016267655 -0.008364075 -0.009077408
000010 86 50 16 3d 8b 29 4d bc 45 be c0 3c 13 bf 81 3c
       0.036697887 -0.012522112 0.023528228 0.015838182
000020 6f 8f e3 bc fd 2c 05 bd af b0 a7 bc ec 2d e4 bc
       -0.027778355 -0.032513607 -0.020469991 -0.027853929
000030 01 46 c5 3c 32 0f 03 3d a2 23 25 3d 34 d2 b2 bc
       0.024081232 0.031996913 0.040317185 -0.021828748
000040 d8 79 33 3d fb 9e 99 bc 5b 0d 9d 3b de 54 3c 3d
       0.04381737 -0.018752566 0.004792852 0.045979373
000050 3c f2 a6 3c f8 f7 4f bc 00 97 11 bd d2 7d 16 bd
       0.020379178 -0.012693398 -0.035544395 -0.036741085
000060 2e 87 ae bb 2c 3e 3c 3d 52 00 c1 3c 3b 7e 1d 3d
       -0.0053261733 0.04595773 0.023559723 0.03845046
000070 c3 17 39 bc fc dc 05 3d cd 2d b5 3c dc 51 88 3c
       -0.011297169 0.03268145 0.022116566 0.016640596
000080 9e 63 84 3c b3 e6 d0 3b e8 f8 ba bc 80 b1 91 3c
       0.016160782 0.0063751577 -0.022823766 0.017784834
000090 55 b6 37 bc 69 88 e0 3c a6 df ef 3c b9 20 13 bd
       -0.011212905 0.027408795 0.029281449 -0.03591988
0000a0 97 14 38 bd 33 78 f4 bc e5 7d 09 3d 6b 24 d8 bc
       -0.04494151 -0.029842472 0.033567328 -0.026384553
0000b0 85 4d 1e 3d 31 e2 fe bc ac 30 37 bd 5c ae d9 3c
       0.038648147 -0.031113716 -0.04472415 0.026572399
0000c0 cf 03 1b bd 85 08 e5 3c ba 82 6e bc 65 96 38 3d
       -0.03784543 0.027958164 -0.014557535 0.045065302
0000d0 1f 35 e3 3c bb 80 6b 3c 4b ab f2 3c 19 75 39 bd
       0.027735291 0.014373953 0.029622694 -0.04527769
0000e0 62 0f 35 3d 65 9c 1c bd 08 80 2d bd 63 27 bf bb
       0.044204123 -0.038235087 -0.04235843 -0.0058335527
0000f0 66 ba bb 3c 96 de 0c bd 20 f7 44 bc d9 51 13 bd
       0.02291603 -0.034391962 -0.01202181 -0.035966728

extractor.10.weight f4 [64]
000000 24 24 83 3f 51 55 81 3f 1d ea 82 3f 91 99 7f 3f
       1.0245404 1.0104162 1.0227696 0.998437
000010 59 60 7f 3f cd 3e 7b 3f d2 c7 7f 3f d2 57 7f 3f
       0.9975639 0.981427 0.99914277 0.9974338
000020 83 26 82 3f 71 61 74 3f 78 aa 82 3f 4d c1 85 3f
       1.0168003 0.95461184 1.0208273 1.0449616
000030 ad e1 7f 3f b3 b1 85 3f 87 92 78 3f ad c8 81 3f
       0.9995373 1.0444854 0.97098583 1.0139366
000040 21 21 79 3f 8d 51 77 3f 45 52 79 3f 10 3a 75 3f
       0.97316176 0.9660881 0.9739116 0.9579172
000050 a1 9b 82 3f a4 b2 85 3f f6 86 7c 3f 11 56 7b 3f
       1.0203744 1.0445142 0.98643434 0.981782
000060 18 41 7d 3f 81 6c 82 3f a7 de 81 3f c3 54 7a 3f
       0.9892745 1.0189363 1.0146073 0.97785586
000070 cb 64 7a 3f b6 9c 7d 3f 43 02 7f 3f 4a 63 74 3f
       0.9781005 0.99067247 0.99612826 0.95464003
000080 aa b7 76 3f 76 8c 85 3f 16 d3 78 3f 57 ef 83 3f
       0.96374 1.043349 0.9719709 1.0307416
000090 04 63 80 3f b8 33 81 3f 37 45 7f 3f 56 0b 79 3f
       1.0030217 1.0093908 0.9971499 0.9728292
0000a0 0d 74 7b 3f 4b ad 81 3f 33 d1 75 3f 38 f2 7e 3f
       0.98223954 1.013101 0.9602234 0.99588346
0000b0 7f b6 7b 3f 83 e9 7e 3f eb 89 81 3f f4 83 80 3f
       0.9832534 0.9957506 1.0120214 1.0040269
0000c0 54 6c 80 3f 75 09 85 3f 9f c7 82 3f 68 d5 79 3f
       1.0033059 1.0393511 1.021717 0.9759126
0000d0 b1 33 7d 3f b1 03 7a 3f a6 11 82 3f 6a 2e 7e 3f
       0.98907 0.9766188 1.0161636 0.9928957
0000e0 96 06 79 3f 8e 62 7b 3f 75 00 79 3f 75 0a 86 3f
       0.97275674 0.9819726 0.9726632 1.0471941
0000f0 e5 ee 7a 3f ba cd 7a 3f ff 84 7a 3f 66 6e 73 3f
       0.98020774 0.97970164 0.97859186 0.9509033

extractor.10.bias f4 [64]
000000 2c 70 27 3d 84 1c 66 3b 2d 45 ba bd b8 ca 14 bc
       0.04087846 0.0035112211 -0.090952255 -0.009081535
000010 13 69 6f bc 70 ae 71 3c 1c 2f 8a 3b 26 d8 43 b9
       -0.014612454 0.014751062 0.0042170417 -0.00018677171
000020 db de e7 bd 3b e6 b4 bc aa 4b cd bd f4 65 27 3c
       -0.11321803 -0.022082439 -0.100241974 0.010217179
000030 7d 2d c9 3b d9 83 1b bc f9 72 ba bc b4 d9 04 be
       0.006139456 -0.009491884 -0.022759901 -0.12973672
000040 48 65 13 bd 0c bd d8 bd ea 15 54 bc 0f 87 a9 bb
       -0.03598526 -0.10582933 -0.012944678 -0.005173571
000050 58 2d 15 be b7 8b df 3b 41 f9 87 bd c0 42 26 be
       -0.14568079 0.006822075 -0.06639338 -0.162364
000060 8c fa 13 3b 77 35 26 3d 63 5b c3 3b ae 2e 07 bd
       0.0022579757 0.04057833 0.005961822 -0.0330035
000070 33 f8 78 bc d1 7e 2d 3a f5 5e 9c bc ea 5f 74 bc
       -0.015195894 0.00066183234 -0.019088248 -0.014915446
000080 02 c4 d3 bc 24 0c fb bd c7 02 50 bb 8f 40 e8 bd
       -0.0258503 -0.12258175 -0.0031739937 -0.113404386
000090 85 e6 21 be fd d4 81 3c 13 c7 bd bd 2f 52 81 bc
       -0.15810592 0.015848631 -0.09266486 -0.015786259
0000a0 a7 3c cc bc db c2 ba bb 2a b4 98 bc d4 a0 ce 35
       -0.024931265 -0.005699498 -0.018640596 1.5395003e-06
0000b0 29 d5 0d bc 28 f5 c9 bd 63 b2 b6 bc 64 53 53 bd
       -0.008656778 -0.09861213 -0.022301858 -0.0515932
0000c0 d2 9f 67 3c 9a 7b 5e 3d 22 c4 82 b9 ce b2 f0 bb
       0.014137225 0.054317094 -0.00024941663 -0.007345534
0000d0 e6 bf 12 bb 50 87 e4 bd 97 b0 38 3d a5 a4 84 bc
       -0.0022392212 -0.11158621 0.045090284 -0.01619179
0000e0 f9 a4 13 bc c4 dc 47 bd 89 29 f0 bd fd e0 5d 3d
       -0.0090115005 -0.048794523 -0.11726672 0.054169644
0000f0 76 4c b1 bd bb 80 12 bc 3d ab 75 bc bd 49 11 bd
       -0.08657162 -0.008941825 -0.01499444 -0.035470713

extractor.10.running_mean f4 [64]
000000 6c 8d 6f bf 5e e9 b2 be 4c 08 39 3f a6 ad e5 3e
       -0.9357517 -0.3494367 0.72278285 0.44859046
000010 09 73 28 bf 75 c0 6c bf f5 4d 79 bf 62 eb 96 bf
       -0.6580053 -0.92481166 -0.9738458 -1.1790583
000020 f9 38 b8 3e dd 69 87 bf af f0 f7 3e 43 76 a5 bf
       0.35980967 -1.0579182 0.48425815 -1.2926716
000030 fd ef e8 be 49 e5 84 bf 61 cb a2 bf 6d 79 5a 3e
       -0.45495597 -1.0382472 -1.2718316 0.21335383
000040 25 b4 0f bf cd 8b 83 3f 79 c4 a0 bf ab fa 67 be
       -0.56134254 1.0277039 -1.2559959 -0.22654216
000050 b1 a9 39 3f 89 2b b5 be 2f f4 ae bd f7 3a 10 3f
       0.72524554 -0.35384777 -0.08542668 0.56339973
000060 5e ce 3c bf 3a fc 89 bf c9 b0 6d bf da db 6f bf
       -0.7375239 -1.0780098 -0.9284788 -0.9369484
000070 66 e1 68 bf d7 18 95 bf 42 a1 a9 bf f8 3a 10 3e
       -0.9096893 -1.1648206 -1.3252337 0.14084995
000080 04 b1 35 bf d9 da 57 3f 86 36 6b bf 0b 52 68 3f
       -0.7097323 0.8431831 -0.9188007 0.9075019
000090 83 64 17 3f 11 73 c9 bf 8a 47 20 3f 88 5e 34 bf
       0.59137744 -1.573824 0.6260916 -0.70456743
0000a0 5c 61 12 3f 40 60 38 bf 0b ab 8d bf d5 73 1d bf
       0.5717981 -0.72021866 -1.1067823 -0.6150487
0000b0 0a 2d 94 bf 30 da 02 3f b2 8a 00 3e 0e d4 72 be
       -1.1576245 0.5111418 0.12552908 -0.23713705
0000c0 c1 07 ed be 70 90 3b bf 22 b0 82 bf bc 6c 76 bf
       -0.46294978 -0.7326727 -1.0210001 -0.96259665
0000d0 c5 11 ad bf 85 77 3e 3f 9c b2 8a bf 9b e2 67 bf
       -1.3521048 0.7440112 -1.0835757 -0.9058015
0000e0 d5 29 67 bf 70 b9 0a bf 59 60 fd 3e b9 0a 95 bf
       -0.90298206 -0.54189205 0.4948757 -1.1643897
0000f0 cb 1c d6 3e b5 3a 10 bf 86 ad 88 3e 8e 3b 85 bf
       0.41818842 -0.5633958 0.26694888 -1.04088
