gpl/results/il/ep_070.ckpt (torch, 773626 bytes, 43 tensors)

extractor.0.weight f4 [24, 3, 5, 5]
0.119491585 0.0064241267 0.03278145 0.11515529 -0.04656373 0.040350206 -0.049762614 0.03003712
0.0034084127 -0.032920554 0.030806618 0.0017736176 0.037132934 -0.04611003 -0.016159933 0.013579571
0.045366384 0.031210054 0.12592672 0.061385978 -0.11066953 -0.12928584 -0.07958349 -0.116597034
-0.107157156 -0.0018125073 0.06025506 0.052400175 -0.11520817 0.07743305 -0.057551257 0.028368
0.001300557 -0.16305159 -0.16710886 -0.12521833 0.0301581 -0.07856742 -0.0062373388 -0.10609329
0.10010623 -0.062314525 0.0906435 -0.006376376 -0.059398063 -0.03190747 -0.14785847 -0.04077621
-0.12058179 -0.09662968 -0.09911511 -0.044054896 0.071557224 -0.014109285 0.1325437 0.02250396
-0.068112165 -0.1352038 0.025087573 -0.008208298 -0.12348657 0.025592498 0.026384676 0.06077021
-0.101026334 -0.012552715 0.004789713 0.035891533 -0.07713049 -0.060017213 0.007930129 -0.07731175
0.011706196 -0.04742955 -0.013577356 -0.0411445 -0.03626325 -4.3017168e-05 -0.16338639 0.026684778
-0.18685749 -0.19964948 -0.07314989 -0.08463458 0.029763008 -0.13750038 -0.17997585 0.037569955
-0.04293196 0.073545285 -0.042529516 -0.1648661 -0.032769687 -0.018328143 -0.09143507 -0.11249635
-0.013871156 -0.036843598 -0.10728043 -0.06427983 0.119420536 -0.019626109 0.07871609 0.06266639
-0.047092747 -0.10058839 0.09781922 0.0022886852 0.09356217 0.04287949 0.039888553 0.08249788
0.117622875 -0.039620064 0.05997381 0.09404182 0.0951746 0.08166659 -0.06986228 -0.058029164
-0.11613782 -0.02794799 0.08135093 -0.10810001 0.04884457 -0.10814894 -0.16421992 -0.055628132
0.03606136 0.0913856 -0.12913 -0.04236476 0.061924294 0.057715815 0.06519808 0.056835584
0.04202281 0.025088176 -0.057392213 -0.05334758 -0.05910575 -0.017920546 -0.06710964 0.04817937
0.06434813 -0.035161242 0.036309246 0.03891974 0.06858326 0.1018376 -0.08398047 0.06403117
-0.058465526 -0.059412472 -0.16671757 -0.12823138 -0.12691629 -0.10868465 0.023495674 -0.09179093
-0.07794705 0.0510712 0.04802459 0.08824795 -0.04577555 0.068184026 0.006479186 0.025714364
-0.03993847 0.0050241197 0.02836301 0.11116633 0.084335156 0.09905575 0.19334477 0.09984692
0.06054299 -0.011465604 -0.10765115 0.052870423 -0.069745675 -0.060702804 -0.15713054 -0.080583476
-0.13763994 0.109651096 -0.09828322 -0.090297684 -0.0010518024 -0.0635811 0.041000415 -0.039433964
-0.046910726 0.0147009725 0.09346573 -0.058306888 0.07525776 0.090388685 0.13715217 -0.05413351
0.01295355 -0.10606447 0.07982468 -0.073334135 0.038037833 -0.04189643 -0.062314183 -0.06055257
-0.037385523 0.00423609 0.012268379 0.026871227 -0.10624888 0.08443375 0.10608447 0.090330064
0.08444947 -0.07377396 -0.031192562 0.12132831 -0.08870709 0.10379207 -0.08750771 -0.07029183
0.077565156 -0.040237397 0.019358505 0.13266888 0.14818007 0.16942142 -0.058928408 -0.13314553
0.08391555 -0.05697085 -0.06249667 -0.069007754 -0.18404764 -0.007828978 -0.010866236 -0.16394371
-0.13443488 -0.056255847 0.020645937 -0.040081855 -0.088416666 -0.04023023 -0.15501615 -0.1170686
-0.13076317 0.041723713 0.11685068 -0.020085825 0.022374177 0.08067561 0.05443202 -0.10993659
00000000: 01b8 f43d 7b81 d23b d745 063d 89d6 eb3d
00000010: 9cb9 3ebd 4246 253d e2d3 4bbd 6810 f63c
00000020: ad5f 5f3b b4d7 06bd 295e fc3c bb78 e83a
00000030: b418 183d dfdd 3cbd d661 84bc d97c 5e3c
00000040: 1ad2 393d 3aac ff3c eff2 003e dd6f 7b3d
00000050: b5a6 e2bd 8263 04be abfc a2bd 6dca eebd
00000060: 3675 dbbd a791 edba 03ce 763d 91a1 563d
00000070: 43f2 ebbd 3895 9e3d deba 6bbd 0264 e83c
00000080: 7477 aa3a fff6 26be 961e 2bbe 3c39 00be
00000090: 1f0e f73c f5e7 a0bd 9762 ccbb 7047 d9bd
000000a0: 7f04 cd3d 843d 7fbd 4da3 b93d ebf0 d0bb
000000b0: 624b 73bd 68b1 02bd 3668 17be f504 27bd
000000c0: 96f3 f6bd c8e5 c5bd ddfc cabd e872 34bd
000000d0: 988c 923d a12a 67bc 89b9 073e 3a5a b83c
000000e0: 647e 8bbd dd72 0abe 7484 cd3c 197c 06bc
000000f0: 87e6 fcbd 5ca7 d13c ad24 d83c 2fea 783d
00000100: e5e6 cebd e7a9 4dbc 06f3 9c3b 0003 133d
00000110: 97f6 9dbd 9cd4 75bd 5fed 013c 9f55 9ebd
00000120: 58cb 3f3c 7d45 42bd 8f73 5ebc 2387 28bd
00000130: c688 14bd 556d 34b8 c34e 27be 099a da3c
00000140: 9257 3fbe ea70 4cbe 9ccf 95bd e554 adbd
00000150: 8dd1 f33c e6cc 0cbe 974b 38be f4e2 193d
00000160: 6cd9 2fbd e99e 963d 6e33 2ebd a9d2 28be
00000170: 8239 06bd e724 96bc 4f42 bbbd 7d64 e6bd
00000180: d843 63bc 50e9 16bd d8b5 dbbd 25a5 83bd
00000190: c192 f43d efc6 a0bc e735 a13d 3c57 803d
000001a0: 53e4 40bd 4901 cebd 7155 c83d c4fd 153b
000001b0: 869d bf3d 67a2 2f3d 2e62 233d a6f4 a83d
000001c0: 43e4 f03d a648 22bd 19a7 753d ff98 c03d
000001d0: e7ea c23d d040 a73d f413 8fbd fdaf 6dbd
000001e0: aad9 edbd 2ff3 e4bc 519b a63d 8a63 ddbd
000001f0: 3e11 483d 317d ddbd 4429 28be 53da 63bd
00000200: 14b5 133d 6028 bb3d a83a 04be ac86 2dbd
00000210: 54a4 7d3d 6b67 6c3d 9286 853d 6ecc 683d
00000220: 1c20 2c3d b885 cd3c 1914 6bbd fe82 5abd
00000230: df18 72bd 1cce 92bc c770 89bd bb57 453d
00000240: f4c8 833d 3c05 10bd 01b9 143d 4e6a 1f3d
00000250: 6175 8c3d 3b90 d03d f4fd abbd c622 833d
00000260: 8c79 6fbd 7e5a 73bd 03b8 2abe 164f 03be
00000270: 58f6 01be 0f96 debd 007a c03c e2fc bbbd
00000280: b4a2 9fbd 0930 513d 6fb5 443d 57bb b43d
00000290: 257f 3bbd 11a4 8b3d 5a4f d43b eea6 d23c
000002a0: 8596 23bd 5fa1 a43b 8b59 e83c 2cab e33d
000002b0: e9b7 ac3d bedd ca3d 2cfc 453e 8b7c cc3d
000002c0: edfb 773d 3bda 3bbc 3578 dcbd a88e 583d
000002d0: d2d6 8ebd 81a3 78bd d4e6 20be f308 a5bd
000002e0: 7cf1 0cbe c190 e03d b648 c9bd feed b8bd
000002f0: a2dc 89ba cf36 82bd 0df0 273d 8285 21bd
00000300: 7625 40bd 59dc 703c f66a bf3d 34d3 6ebd
00000310: be20 9a3d b41d b93d 9e71 0c3e 19bb 5dbd
00000320: 203b 543c 5438 d9bd 1f7b a33d 3530 96bd
00000330: 8fcd 1b3d 979b 2bbd 283d 7fbd f905 78bd
00000340: 9021 19bd e6ce 8a3b 5001 493c 0c21 dc3c
00000350: 0399 d9bd 9aeb ac3d d142 d93d f8fe b83d
00000360: d8f3 ac3d cd16 97bd 8b87 ffbc fa7a f83d
00000370: 10ac b5bd f090 d43d 3e37 b3bd 2af5 8fbd
00000380: 7bda 9e3d f8cf 24bd ba95 9e3c 5ada 073e
00000390: 84bc 173e cf7c 2d3e ea5e 71bd 4d57 08be
000003a0: eadb ab3d 445a 69bd 82fc 7fbd f053 8dbd
000003b0: fc76 3cbe 1d45 00bc 4c08 32bc dce0 27be
000003c0: 4ca9 09be 886c 66bd ab21 a93c df2c 24bd
000003d0: cc13 b5bd 74c8 24bd 8ebc 1ebe aac1 efbd
000003e0: c8e6 05be 7ce6 2a3d 694f ef3d 078b a4bc
000003f0: 0d4a b73c 4139 a53d 1cf4 5e3d 6f26 e1bd

extractor.0.bias f4 [24]
0.081778005 0.03739319 -0.06674623 0.07803514 -0.080543496 0.056327507 -0.023557274 0.034314185
-0.012324757 0.02158081 -0.03289418 0.047924735 0.05352325 -0.102724105 0.10230875 -0.09382332
-0.052413948 0.046711363 0.103924066 0.039101813 -0.064274706 0.019528814 -0.066996716 0.052700005
00000000: 3a7b a73d 9a29 193d 3fb2 88bd e3d0 9f3d
00000010: fdf3 a4bd acb7 663d 2ffb c0bc 088d 0c3d
00000020: c7ed 49bc 3dca b03c 0cbc 06bd ba4c 443d
00000030: 323b 5b3d 0461 d2bd 4087 d13d 7126 c0bd
00000040: 02b0 56bd 6a54 3f3d 24d6 d43d 3929 203d
00000050: 75a2 83bd e4fa 9f3c 9335 89bd f6db 573d

extractor.1.weight f4 [24]
1.0458857 0.86231387 0.9326856 0.9188697 1.0592201 1.0463743 0.9209951 0.97890013
0.9910665 0.9776114 0.9813344 0.88323724 0.91915303 0.97177327 0.9216581 1.1332155
1.0603552 1.0044638 0.95296973 0.88920003 0.8981765 1.1886669 0.78486305 0.91156346
00000000: 95df 853f 9ac0 5c3f 7cc4 6e3f 0b3b 6b3f
00000010: 8694 873f 98ef 853f 56c6 6b3f 3399 7a3f
00000020: 89b6 7d3f be44 7a3f bb38 7b3f d61b 623f
00000030: 9d4d 6b3f 22c6 783f c9f1 6b3f 350d 913f
00000040: b8b9 873f 4592 803f d3f5 733f 9da2 633f
00000050: e5ee 653f 3d26 983f c9ec 483f 395c 693f

extractor.1.bias f4 [24]
-0.058320787 -0.21380082 -0.17057338 -0.15548949 -0.008108084 -0.008949261 -0.1370167 -0.07058611
0.06779961 0.0030896121 0.020292846 -0.21101218 -0.20375933 -0.038638595 -0.12166895 -0.105029434
0.045679186 -0.025988618 -0.11321093 -0.13605209 -0.05937019 0.121250436 -0.19635196 -0.13251929
00000000: c7e1 6ebd 9aee 5abe caaa 2ebe a338 1fbe
00000010: c5d7 04bc ec9f 12bc 1b4e 0cbe 738f 90bd
00000020: 86da 8a3d 177b 4a3b 2f3d a63c 9413 58be
00000030: 49a6 50be 8143 1ebd 922d f9bd ac19 d7bd
00000040: 191a 3b3d 15e6 d4bc 22db e7bd 3d51 0bbe
00000050: 282e 73bd 2652 f83d 7d10 49be 23b3 07be

extractor.1.running_mean f4 [24]
-0.36516845 -0.14037427 -0.17886183 -0.27717808 -0.102865614 -0.14738421 0.20302208 -0.12472075
0.12934479 0.33881703 -0.24845137 -0.15665732 -0.58429897 0.013769566 0.14268288 -0.33887783
0.026815623 0.048401356 -0.1520832 0.10453227 -0.46645927 0.03903066 -0.30748817 -0.11576984
00000000: 5cf7 babe 46be 0fbe 8e27 37be 49ea 8dbe
00000010: 35ab d2bd e3eb 16be 05e5 4f3e 986d ffbd
00000020: f672 043e 6d79 ad3e 096a 7ebe c76a 20be
00000030: 9e94 15bf bf99 613c 761b 123e 6581 adbe
00000040: 70ac db3c 8040 463d b3bb 1bbe 0415 d63d
00000050: c0d3 eebe 9dde 1f3d 176f 9dbe bd18 edbd

extractor.1.running_var f4 [24]
0.058449008 0.037949085 0.019308627 0.055504993 0.024504883 0.010845874 0.01778522 0.038542602
0.04126642 0.026196644 0.019054538 0.023590922 0.109054394 0.022677895 0.006263814 0.022158133
0.021615261 0.006963387 0.031157851 0.014713396 0.062475212 0.016799774 0.02688539 0.021432495
00000000: 3a68 6f3d 8070 1b3d 202d 9e3c 3459 633d
00000010: 77be c83c e5b2 313c 4fb2 913c d9de 1d3d
00000020: fa06 293d 589a d63c 4318 9c3c c041 c13c
00000030: e957 df3d fec6 b93c ae40 cd3b f984 b53c
00000040: 7d12 b13c 202d e43b c03e ff3c 7510 713c
00000050: 02e6 7f3d ae9f 893c c03e dc3c 3393 af3c

extractor.3.weight f4 [36, 24, 5, 5]
-0.013796939 -0.028622212 -0.033503592 0.028216794 0.082163684 -0.05289804 0.0045902655 -0.012833807
0.013535789 0.08384715 -0.041698143 0.0075423107 0.03593412 0.029045092 -0.0005685974 0.0018042977
0.0271496 -0.010352897 0.028189968 0.011151893 0.002357104 0.055506278 -0.021613918 -0.008850177
-0.014386609 0.008116623 0.04013008 -0.005097666 0.064151146 0.013770154 -0.09558107 -0.0056923665
-0.0028050411 -0.035254095 0.0019659586 -0.03593151 -0.021115746 -0.006300894 -0.06260337 -0.08268171
-0.014636729 -0.00023118353 -0.005198183 -0.009524931 0.06283511 -0.020101385 -0.0063160104 -0.01615197
0.012840479 0.057154574 -0.051187057 0.013182845 0.03582443 0.017732942 0.035247374 0.07018631
0.12071305 0.11965591 0.04516824 0.06860363 0.04671179 0.065041125 0.0026674445 -0.0084601585
-0.04926684 -0.12041843 -0.11591949 -0.120332755 -0.111439 -0.029609522 -0.011736194 0.0019132615
-0.024095615 -0.01720355 -0.016696623 0.021317668 -0.025612952 0.0066495594 0.046905946 0.05705789
-0.07858213 -0.020342942 -0.018460952 0.073212266 0.023429563 -0.004026126 -0.043844406 -0.011457375
0.009567958 0.011675853 -0.04820525 0.030521957 -0.02569618 -0.013088564 0.04476659 -0.015769323
-0.027106622 -0.07350737 0.01350488 -0.02391295 -0.045205474 0.015210188 -0.019579578 0.0716156
0.014018018 -0.12051633 -0.1154818 -0.044576768 -0.006979751 0.065649375 -0.03599067 0.025547365
0.022403242 0.013062726 0.0034530833 -0.11156431 -0.075025894 -0.01768096 -0.018843075 0.03985737
0.0030992485 0.031934503 0.033214826 0.017510163 0.047023356 -0.081810206 -0.048101194 0.003904746
-0.02616715 0.022263944 -0.023129264 0.050910793 0.056750864 0.1000867 0.113560446 -0.022466237
-0.031024506 0.019902872 -0.030358478 -0.0083432505 -0.08238004 -0.0558378 -0.035831787 -0.011397387
-0.00013012523 -0.07389602 -0.10277041 -0.083720624 -0.05645759 -0.020914653 -0.023126565 -0.00038147395
0.009019437 0.062699154 0.0191159 -0.1069601 -0.0966836 -0.01784405 0.0033887343 -0.027738882
-0.058224242 -0.0432883 0.032135166 0.039235573 0.051966995 0.04514193 0.039017424 0.07344565
0.093965694 0.03754058 -0.06347004 0.026108583 -0.01426011 0.026607849 -0.019698037 -0.019406842
0.01950196 0.043067727 0.039647568 0.07914358 0.09896759 0.10736377 0.055665087 0.016673675
0.0056343926 0.03027892 0.028515283 -0.09367848 -0.0804559 -0.12595068 -0.048257243 -0.05786439
-0.039981622 -0.06376819 -0.023366714 -0.040014375 0.02831722 0.021644657 0.0020888408 0.08983789
-0.018768646 -0.053559013 -0.056375623 -0.0610878 -0.053962316 -0.01203907 -0.006157188 0.018338526
-0.025972169 -0.07011413 0.022615738 0.031465318 -0.009790996 0.022961881 0.006298164 -0.08174375
-0.06577702 -0.04677896 -0.06694443 -0.05728712 -0.057325922 -0.12936413 -0.14609005 -0.13030802
-0.06907585 0.056762837 0.036063295 0.038519807 -0.009363962 0.012167841 0.041609716 -0.042767078
-0.010886088 0.0129161 0.015569312 -0.08270245 -0.15709016 -0.1331672 -0.12581429 -0.012134427
0.014551033 0.038992435 0.095929936 0.078842364 -0.013000188 0.01930662 0.05608037 0.052147962
-0.00852687 0.051707372 -0.06473919 0.042784177 0.061853644 0.054427497 0.032354325 0.04801849
00000000: 8e0c 62bc 2179 eabc 103b 09bd e826 e73c
00000010: 6f45 a83d 9dab 58bd f069 963b e344 52bc
00000020: 37c5 5d3c 0eb8 ab3d accb 2abd 7d25 f73b
00000030: a82f 133d f9ef ed3c ed0d 15ba 2f7e ec3a
00000040: d768 de3c 339f 29bc a6ee e63c 6eb6 363c
00000050: a579 1a3b 8d5a 633d ac0f b1bc 5500 11bc
00000060: d0b5 6bbc 96fb 043c 705f 243d 520a a7bb
00000070: ad61 833d 369c 613c 02c0 c3bd 0887 babb
00000080: c8d4 37bb 9966 10bd 50d7 003b eb2c 13bd
00000090: eefa acbc bb77 cebb 3236 80bd 0755 a9bd
000000a0: e4ce 6fbc db69 72b9 8555 aabb 750e 1cbc
000000b0: b2af 803d a9ab a4bc 89f6 cebb 2351 84bc
000000c0: df60 523c ea1a 6a3d 85a9 51bd dcfc 573c
000000d0: a3bc 123d ad44 913c 8d5f 103d d7bd 8f3d
000000e0: 6738 f73d 280e f53d 5502 393d 0f80 8c3d
000000f0: dd54 3f3d 4834 853d 4bd0 2e3b 7a9c 0abc
00000100: 07cc 49bd f09d f6bd 3367 edbd 0571 f6bd
00000110: 213a e4bd ab8f f2bc 2a49 40bc 67c6 fa3a
00000120: 2b64 c5bc 76ee 8cbc 5bc7 88bc 64a2 ae3c
00000130: 41d2 d1bc 8ce4 d93b 7320 403d 89b5 693d
00000140: abef a0bd 3ea6 a6bc 6c3b 97bc 50f0 953d
00000150: 5bef bf3c 98ed 83bb 3196 33bd b7b7 3bbc
00000160: edc2 1c3c 144c 3f3c de72 45bd 2f09 fa3c
00000170: cc80 d2bc 6b71 56bc 2c5d 373d ab2e 81bc
00000180: b50e debc 088b 96bd 9243 5d3c 17e5 c3bc
00000190: 6029 39bd 2734 793c 5a65 a0bc 33ab 923d
000001a0: d4ab 653c 44d1 f6bd b981 ecbd 2196 36bd
000001b0: 65b6 e4bb 2e73 863d f46a 13bd b548 d13c
000001c0: 0187 b73c 0b05 563c 204d 623b d47b e4bd
000001d0: 2da7 99bd a9d7 90bc cb5c 9abc 7b41 233d
000001e0: c31c 4b3b c1cd 023d 450c 083d 7971 8f3c
000001f0: 909b 403d 1c8c a7bd c205 45bd c4e6 7f3b
00000200: 7e5c d6bc e062 b63c 9579 bdbc d687 503d
00000210: 9873 683d 41fa cc3d 6192 e83d 1d0b b8bc
00000220: 1b27 febc 590b a33c 58b2 f8bc 21b2 08bc
00000230: deb6 a8bd 2db6 64bd 5ac4 12bd 1bbc 3abc
00000240: 3a72 08b9 cc56 97bd 4b79 d2bd b875 abbd
00000250: 1340 67bd 3555 abbc ec73 bdbc 9100 c8b9
00000260: 43c6 133c 6a68 803d f398 9c3c e60d dbbd
00000270: 0d02 c6bd af2d 92bc 8715 5e3b a73c e3bc
00000280: 8b7c 6ebd 134f 31bd 2aa0 033d 7bb5 203d
00000290: 58db 543d bfe6 383d bcd0 1f3d ac6a 963d
000002a0: 1671 c03d 27c4 193d 95fc 81bd abe1 d53c
000002b0: 3da3 69bc b4f8 d93c c75d a1bc 19fb 9ebc
000002c0: 93c2 9f3c c967 303d 7d65 223d 0716 a23d
000002d0: 85af ca3d 89e1 db3d 1301 643d 3b97 883c
000002e0: b6a0 b83b 7f0b f83c e298 e93c 81da bfbd
000002f0: 10c6 a4bd 37f9 00be 63a9 45bd 3603 6dbd
00000300: c5c3 23bd e698 82bd 8d6b bfbc 1de6 23bd
00000310: 84f9 e73c 2350 b13c efe4 083b edfc b73d
00000320: b4c0 99bc b260 5bbd 20ea 66bd 3337 7abd
00000330: 9707 5dbd 853f 45bc 3dc2 c9bb ad3a 963c
00000340: 96c3 d4bc ff97 8fbd a444 b93c c7e1 003d
00000350: 6a6a 20bc 8e1a bc3c d460 ce3b 4469 a7bd
00000360: 1ab6 86bd 4b9b 3fbd 291a 89bd e6a5 6abd
00000370: 96ce 6abd 0878 04be a198 15be 776f 05be
00000380: a477 8dbd 2680 683d 1bb7 133d f2c6 1d3d
00000390: 4e6b 19bc a05b 473c f36e 2a3d 882c 2fbd
000003a0: 905b 32bc 0d9e 533c 6d16 7f3c e75f a9bd
000003b0: 3edc 20be fc5c 08be 76d5 00be 7acf 46bc
000003c0: 7567 6e3c 88b6 1f3d ea76 c43d 1b78 a13d
000003d0: befe 54bc eb28 9e3c 88b4 653d 1a99 553d
000003e0: 49b4 0bbc 1ccb 533d fb95 84bd 763e 2f3d
000003f0: 3f5a 7d3d 5eef 5e3d f885 043d 09af 443d

extractor.3.bias f4 [36]
-0.016230365 -0.034868952 0.023333972 -0.02215309 -0.026355937 -0.028957978 -0.005144876 0.015255212
0.008562692 -0.019549957 -0.019493926 0.0026206963 -0.0047260514 -0.025957523 -0.03259427 -0.0034995961
-0.012146429 -0.03447813 0.024652125 0.03078505 0.025350139 0.02428141 -0.033115234 0.009447717
0.03744865 -0.036361866 -0.030750139 0.019991782 0.019092092 -0.023985155 0.040710986 0.03862168
-0.027529074 -0.00545124 -0.022168268 0.008597521
00000000: 8bf5 84bc bfd2 0ebd e326 bf3c 667a b5bc
00000010: 68e8 d7bc 4839 edbc 5996 a8bb fff0 793c
00000020: 894a 0c3c 3b27 a0bc bab1 9fbc fdbf 2b3b
00000030: fedc 9abb dfa4 d4bc 9281 05bd 7b59 65bb
00000040: d101 47bc f138 0dbd 41f3 c93c ee30 fc3c
00000050: 18ab cf3c cfe9 c63c d7a3 07bd 99ca 1a3c
00000060: c163 193d 2ef0 14bd b7e7 fbbc cec5 a33c
00000070: 0567 9c3c 847c c4bc 90c0 263d c431 1e3d
00000080: a784 e1bc 51a0 b2bb 3a9a b5bc 9edc 0c3c

extractor.4.weight f4 [36]
0.9727868 1.0178881 0.8405359 0.97271055 0.95018876 1.0196409 0.95288354 0.83470684
0.9984095 0.95434695 0.9773319 0.8445219 0.97156775 0.91371274 0.8363419 0.97890854
0.94318926 1.008233 1.2447757 0.9833414 0.9362244 0.9206431 1.0681382 0.9475653
1.0379283 0.9492581 0.9845324 0.92680264 1.0066628 0.8763731 0.93398535 0.97070086
1.0368094 0.9491712 0.9683336 0.94207245
00000000: 8e08 793f 284a 823f 5c2d 573f 8f03 793f
00000010: 923f 733f 9883 823f 2df0 733f 59af 553f
00000020: c497 7f3f 1550 743f 6c32 7a3f 9632 583f
00000030: aab8 783f 14e9 693f 811a 563f c099 7a3f
00000040: da74 713f c70d 813f cf54 9f3f 43bc 7b3f
00000050: 67ac 6f3f 44af 6b3f c1b8 883f a493 723f
00000060: d6da 843f 9402 733f 510a 7c3f f042 6d3f
00000070: 54da 803f fd59 603f aa19 6f3f da7f 783f
00000080: 2cb6 843f e2fc 723f b6e4 773f a92b 713f

extractor.4.bias f4 [36]
-0.121086724 -0.050972633 -0.18535559 -0.14621888 -0.15873963 0.063775524 -0.13317183 -0.12724979
-0.13772456 -0.0614771 -0.07205423 -0.1346672 -0.25786382 -0.075309 -0.18498412 -0.079583324
-0.18263075 -0.037088912 -0.117949665 -0.17004833 -0.11283641 -0.1285266 -0.13874815 -0.13156834
0.0054578464 -0.095759474 -0.18105082 -0.12374591 -0.030190285 -0.2559892 -0.083195776 -0.061552666
-0.14084381 -0.07549956 -0.21053512 -0.087817825
00000000: 51fc f7bd aec8 50bd dbcd 3dbe 67ba 15be
00000010: a48c 22be be9c 823d 325e 08be c54d 02be
00000020: ab07 0dbe 69cf 7bbd 2b91 93bd 33e6 09be
00000030: ba06 84be 9b3b 9abd 7a6c 3dbe 95fc a2bd
00000040: 8e03 3bbe 8bea 17bd 988f f1bd 2621 2ebe
00000050: c716 e7bd 7a9c 03be ff13 0ebe dab9 06be
00000060: bcd7 b23b 8b1d c4bd 6365 39be 7f6e fdbd
00000070: 9e51 f7bc 0411 83be 8c62 aabd a61e 7cbd
00000080: 5c39 10be 839f 9abd 8596 57be d5d9 b3bd

extractor.4.running_mean f4 [36]
-1.1608475 -0.7130498 -2.2032614 -2.45794 -0.6735831 -1.167972 0.14371155 -1.3037057
3.6859105 -4.4527516 -0.32031426 0.4660506 -1.0779412 -2.3570538 -2.349429 -1.3876946
-1.3813149 -2.4189355 -0.42119285 2.2676082 -0.33954355 -1.141443 -0.09865134 2.6603963
0.59577036 -0.55291396 1.2225593 -4.8107924 -1.9986503 -0.9242909 -3.3868377 -2.8695686
-1.6529427 -2.9960458 -0.51162386 -0.8665035
00000000: a796 94bf 6f8a 36bf 3c02 0dc0 e44e 1dc0
00000010: f16f 2cbf 1b80 95bf 1f29 133e d4df a6bf
00000020: f5e5 6b40 f17c 8ec0 3b00 a4be 2f9e ee3e
00000030: faf9 89bf f8d9 16c0 0b5d 16c0 fa9f b1bf
00000040: edce b0bf d7cf 1ac0 97a6 d7be 7e20 1140
00000050: a7d8 adbe ce1a 92bf b709 cabd ef43 2a40
00000060: 6884 183f c58b 0dbf d37c 9c3f 03f2 99c0
00000070: c6d3 ffbf 549e 6cbf f3c1 58c0 03a7 37c0
00000080: a093 d3bf 37bf 3fc0 c8f9 02bf 2cd3 5dbf

extractor.4.running_var f4 [36]
3.1955976 4.189256 10.363319 1.9040464 3.1814823 6.158026 1.7833731 4.549519
19.406166 15.021441 2.0920784 3.821631 13.711468 4.277205 4.811459 6.1817336
2.0679743 3.1155944 0.6956945 4.2563014 2.34261 4.120364 1.3164204 19.128347
8.476397 2.5384836 1.9662534 9.1487665 3.6748462 8.965205 6.15436 4.6215477
2.583144 5.982445 5.271134 5.254623
00000000: ac84 4c40 630e 8640 28d0 2541 cbb7 f33f
00000010: 689d 4b40 8d0e c540 9245 e43f a995 9140
00000020: d43f 9b41 d357 7041 9de4 0540 9a95 7440
00000030: 2c62 5b41 ddde 8840 79f7 9940 c3d0 c540
00000040: b159 0440 e665 4740 0919 323f 9f33 8840
00000050: 52ed 1540 06da 8340 7780 a83f db06 9941
00000060: 529f 0741 8476 2240 31ae fb3f 5961 1241
00000070: ae30 6b40 7b71 0f41 84f0 c440 b8e3 9340
00000080: 3b52 2540 3070 bf40 21ad a840 df25 a840

extractor.6.weight f4 [48, 36, 3, 3]
-0.03555859 -0.008362478 -0.05063668 -0.025407108 -0.06448686 -0.021888772 0.009311688 -0.0013969403
0.04235968 0.018936273 -0.004304901 -0.096151404 0.06545447 -0.00245106 0.031934064 -0.03399441
-0.063864514 0.020867307 -0.00867137 0.06145496 -0.023930922 -0.07109087 0.062400956 -0.033160053
0.057032276 -0.0026398825 -0.004165708 0.046042293 0.0885217 0.041084796 0.016634095 0.043371066
0.038781118 -0.03389268 -0.025987677 0.044349145 0.015420996 0.045881473 -0.042203367 -0.0059949458
0.058483735 0.011596906 -0.05603612 -0.03867137 -0.07356535 -0.041750785 -0.0123325735 -0.08263078
-0.00063713925 -0.0012247413 0.02541601 0.0068833693 0.06490353 0.07320224 0.020412734 0.048498206
-0.082132116 -0.042439755 0.017614009 -0.044559762 0.054671343 0.047889434 0.047871243 -0.028131258
-0.023942862 0.029830977 0.0050254143 -0.019426271 -0.04288482 -0.013137545 -0.017844303 -0.021603962
0.08760891 -0.0017415182 0.06909364 0.010272944 0.060739316 0.07288032 0.018019361 0.040555473
0.029550303 -0.012278809 0.032178707 0.021850467 -0.007257104 -0.012663209 0.05437034 0.06435422
0.07135989 0.030545658 0.06949444 0.07667411 0.07655674 0.061395187 0.006620794 -0.04596503
-0.0109175835 0.054092675 0.009050885 -0.042341825 0.021599375 -0.03976189 0.04219688 0.027436098
-0.040532153 0.01882861 0.051695555 0.04029379 0.01713003 0.03542454 -0.03601645 -0.02418026
-0.0848734 -0.07189428 0.09386801 0.050483827 0.016917659 0.025688699 -0.012068263 0.025388455
0.024702523 0.08115863 0.04796765 -0.018551463 0.022634078 0.05481102 0.01676757 0.027916418
0.023822287 0.09834911 -0.00229333 0.06529913 -0.013788915 0.003070373 0.08459751 -0.04207738
-0.06724735 -0.06917081 0.027434899 0.045007613 -0.00036719764 0.05304687 -0.06930849 -0.101857476
0.011089754 -0.06509197 0.004137637 -0.057148997 -0.071458265 -0.10192955 0.030270264 -0.052059427
-0.008977092 -0.086390674 0.033435397 -0.02657051 0.028550984 0.055013016 0.048176166 0.083349615
0.0471834 -0.0038643281 0.074138604 -0.014620624 -0.018131044 -0.13208477 -0.15542476 -0.13409698
0.22893597 -0.023231404 0.090152554 0.02625626 -0.033367515 -0.018725589 -0.06677575 -0.087415256
-0.065400094 0.04418261 0.031952616 0.07391269 -0.0716606 -0.054742787 -0.0021751504 0.02084223
0.059757344 0.03728088 0.034023438 -0.009402713 0.03516574 -0.008056087 0.023787912 0.024178768
-0.0004258662 0.028347347 0.100672714 -0.06264889 -0.014274944 -0.034639228 0.06860964 -0.03510362
0.0074317567 -0.06414551 -0.06580291 -0.014598025 0.15800945 0.038584664 0.110766694 0.04343336
0.022058453 0.06983744 -0.00058545615 0.073939316 0.08035046 0.021998521 0.003831806 0.07855378
0.017428793 -0.011835949 -0.08749455 -0.004371087 -0.021261286 -0.024481472 0.07047735 0.013811184
0.07523984 -0.07050098 0.025724342 -0.035042726 0.04193476 -0.027452787 0.057332214 0.0015068814
-0.064781144 -0.057128523 -0.104403906 -0.08333001 -0.09197372 0.114508025 0.115098864 0.09108887
-0.028597964 -0.04103873 -0.0877576 -0.008477824 -0.0079922145 0.0077075437 0.027987938 -0.014758033
0.065840915 -0.038352102 0.02770112 -0.058172904 -0.069188766 -0.010951173 0.0033085044 0.030721083
00000000: e2a5 11bd c602 09bc 6868 4fbd 9122 d0bc
00000010: b011 84bd 1550 b3bc 0d90 183c 8a19 b7ba
00000020: 5881 2d3d 3e20 9b3c 2110 8dbb 07eb c4bd
00000030: fe0c 863d f7a1 20bb 4bcd 023d b93d 0bbd
00000040: 66cb 82bd eaf1 aa3c 5d12 0ebc 32b8 7b3d
00000050: c80a c4bc 1798 91bd 2598 7f3d d6d2 07bd
00000060: ad9a 693d e101 2dbb 7e80 88bb d896 3c3d
00000070: dd4a b53d 8848 283d 3a44 883c dca5 313d
00000080: f3d8 1e3d 0dd3 0abd 1ce4 d4bc 73a7 353d
00000090: 58a8 7c3c 36ee 3b3d 70dd 2cbd 4071 c4bb
000000a0: a48c 6f3d f300 3e3c 2186 65bd df65 1ebd
000000b0: 6ea9 96bd df02 2bbd 900e 4abc 543a a9bd
000000c0: b105 27ba 8087 a0ba 3c35 d03c e38d e13b
000000d0: 24ec 843d 0eeb 953d 9b38 a73c 0ea6 463d
000000e0: e234 a8bd 4fd5 2dbd 414b 903c 4c84 36bd
000000f0: 0fef 5f3d b627 443d a314 443d 8673 e6bc
00000100: d223 c4bc 1860 f43c 3bac a43b d823 9fbc
00000110: fea7 2fbd dc3e 57bc 372e 92bc cbfa b0bc
00000120: 4d6c b33d a743 e4ba f780 8d3d da4f 283c
00000130: cac9 783d 4742 953d 579d 933c 7f1d 263d
00000140: 7a13 f23c 0f2d 49bc d2cd 033d c0ff b23c
00000150: 00cd edbb 5979 4fbc 6fb3 5e3d 25cc 833d
00000160: 2225 923d e33a fa3c 1a53 8e3d 5107 9d3d
00000170: c8c9 9c3d 8579 7b3d 3ff3 d83b d445 3cbd
00000180: aadf 32bc 4890 5d3d 2a4a 143c 9f6e 2dbd
00000190: 2cf1 b03c 5ddd 22bd a3d6 2c3d abc1 e03c
000001a0: 0b05 26bd 753e 9a3c b8be 533d 1a0b 253d
000001b0: 4754 8c3c 5319 113d fc85 13bd ae15 c6bc
000001c0: 1bd2 adbd 4f3d 93bd df3d c03d 21c8 4e3d
000001d0: e796 8a3c 1b71 d23c f7b9 45bc 73fb cf3c
000001e0: f25c ca3c 7f36 a63d ba79 443d 3df9 97bc
000001f0: 1a6b b93c 8581 603d 255c 893c f9b0 e43c
00000200: f526 c33c 426b c93d b14b 16bb 8dbb 853d
00000210: e7ea 61bc 5038 493b 7641 ad3d 5559 2cbd
00000220: fbb8 89bd 6da9 8dbd 27bf e03c e759 383d
00000230: 6f84 c0b9 ad47 593d 9cf1 8dbd a79a d0bd
00000240: cdb1 353c f04e 85bd 0495 873b 1115 6abd
00000250: b658 92bd 71c0 d0bd 58f9 f73c 443c 55bd
00000260: a714 13bc 98ed b0bd 8ef3 083d 66aa d9bc
00000270: c1e3 e93c 5455 613d 5f54 453d 34b3 aa3d
00000280: 6143 413d ab40 7dbb fbd5 973d 578b 6fbc
00000290: 8e87 94bc 3b41 07be ab27 1fbe b850 09be
000002a0: 316e 6a3e c94f bebc e7a1 b83d 5e17 d73c
000002b0: 60ac 08bd 6866 99bc b9c1 88bd c506 b3bd
000002c0: 7cf0 85bd d3f8 343d bfe0 023d 895f 973d
000002d0: cbc2 92bd f939 60bd f88c 0ebb 53bd aa3c
000002e0: 1ec4 743d d6b3 183d 295c 0b3d d60d 1abc
000002f0: f309 103d aefd 03bc dede c23c 8d12 c63c
00000300: cb46 dfb9 b238 e83c 7f2d ce3d 104e 80bd
00000310: 74e1 69bc dde1 0dbd 3683 8c3d d0c8 0fbd
00000320: 1886 f33b b95e 83bd adc3 86bd 8e2c 6fbc
00000330: 3bcd 213e f40a 1e3d a6d9 e23d 2ee7 313d
00000340: eeb3 b43c ef06 8f3d 4c79 19ba 7f6d 973d
00000350: c88e a43d 3e36 b43c 091f 7b3b cee0 a03d
00000360: d4c6 8e3c 91eb 41bc 5830 b3bd 563b 8fbb
00000370: 262c aebc 5e8d c8bc 6e56 903d 4e48 623c
00000380: 5817 9a3d d162 90bd dbbb d23c f688 0fbd
00000390: c8c3 2b3d abe4 e0bc 2fd5 6a3d 8d82 c53a
000003a0: faab 84bd 99ff 69bd b7d1 d5bd eda8 aabd
000003b0: b85c bcbd 2f83 ea3d f4b8 eb3d cd8c ba3d
000003c0: 4746 eabc 3a18 28bd 42ba b3bd 92e6 0abc
000003d0: c7f1 02bc 908f fc3b f646 e53c adcb 71bc
000003e0: 9ad7 863d 1817 1dbd 76ed e23c b646 6ebd
000003f0: d7b2 8dbd 8c6c 33bc 7ed3 583b c8aa fb3c

extractor.6.bias f4 [48]
0.006504869 -0.046785742 -0.0033439344 -0.042690508 0.0436145 -0.009758527 -0.004038284 0.055453837
0.009750177 0.025588162 -0.04747786 -0.044244774 0.02937727 0.02765967 -0.050577365 0.042218808
-0.013706799 0.03550546 0.053407464 -0.04191672 0.0063264915 -0.051842496 -0.025768178 -0.018184641
-0.02297851 0.033023108 0.015093452 0.026875151 0.025618626 0.015498848 0.022407724 -0.020991793
0.04480605 0.010193022 -0.011397982 0.0006127123 -0.016980454 0.010061996 0.047009066 -0.04435682
-0.04519602 -0.02144056 0.0023145664 0.04100181 0.03336651 0.04950106 0.020887604 -0.040474724
00000000: cc26 d53b 68a2 3fbd e925 5bbb 3edc 2ebd
00000010: 1ea5 323d 3be2 1fbc 9553 84bb 9023 633d
00000020: 35bf 1f3c 449e d13c 2578 42bd 023a 35bd
00000030: 9aa8 f03c 8896 e23c 362a 4fbd a1ed 2c3d
00000040: 7b92 60bc 2c6e 113d c9c1 5a3d deb0 2bbd
00000050: 754e cf3b cc58 54bd c917 d3bc f5f7 94bc
00000060: 6e3d bcbc 3d43 073d 874a 773c 4729 dc3c
00000070: 27de d13c e1ee 7d3c 6790 b73c fbf6 abbc
00000080: 8c86 373d a200 273c 9abe 3abc 6d9e 203a
00000090: 981a 8bbc 12db 243c 948c 403d 7faf 35bd
000000a0: 761f 39bd 1da4 afbc fbaf 173b 84f1 273d
000000b0: 52ab 083d a0c1 4a3d 7b1c ab3c d3c8 25bd

extractor.7.weight f4 [48]
0.997298 0.97118145 0.97423196 0.9528419 0.9941135 0.9582892 0.9960619 0.96428645
0.95588785 0.95330274 0.9612265 0.95539236 0.9286452 1.0491848 1.0635694 1.0453897
1.0022062 0.9824701 1.0082458 0.9691462 0.9764549 0.963855 1.0034388 0.98323137
1.0167713 1.032009 1.0049609 0.99729925 0.972539 1.0213513 0.93675685 0.98977655
1.0849438 0.9588525 0.9675188 1.0013292 1.0414985 0.9362976 1.0778705 0.9345658
0.9825477 0.89257485 1.049189 1.0519531 1.0145518 0.9676671 0.9596703 1.0109416
00000000: ec4e 7f3f 599f 783f 4467 793f 72ed 733f
00000010: 397e 7e3f 7152 753f eafd 7e3f 7adb 763f
00000020: 11b5 743f a60b 743f f112 763f 9894 743f
00000030: b1bb 6d3f b04b 863f 0b23 883f 54cf 853f
00000040: 4b48 803f 2983 7b3f 330e 813f f719 783f
00000050: f3f8 793f 34bf 763f af70 803f 0db5 7b3f
00000060: 9025 823f df18 843f 8fa2 803f 014f 7f3f
00000070: 51f8 783f a4bb 823f 4ccf 6f3f ff61 7d3f
00000080: 70df 8a3f 5c77 753f 50af 773f 8e2b 803f
00000090: d34f 853f 33b1 6f3f a9f7 893f b43f 6f3f
000000a0: 3f88 7b3f c97f 643f d34b 863f 66a6 863f
000000b0: d5dc 813f 08b9 773f f4ac 753f 8966 813f

extractor.7.bias f4 [48]
-0.2401341 -0.3370431 0.012810309 -0.08071334 -0.030072777 -0.25445718 -0.07469463 -0.06679412
-0.096045546 -0.33575085 -0.019376785 -0.10403818 -0.37245247 -0.11873744 0.028360346 -0.11028467
-0.023214558 -0.065023445 -0.038753267 -0.10088167 -0.05646377 -0.11770158 -0.27430528 -0.09312876
-0.073675655 -0.00921949 0.0035533202 -0.26230785 -0.19284222 -0.11814209 -0.06845652 -0.1251817
-0.09600313 -0.06852636 -0.3916271 -0.26340094 -0.0677323 -0.3838274 -0.018012298 -0.13499591
-0.050339103 -0.1361745 -0.0738228 -0.0073793815 -0.033515837 -0.12305038 -0.2152695 -0.21736738
00000000: b7e5 75be ea90 acbe 55e2 513c 094d a5bd
00000010: 2f5b f6bc 3648 82be 80f9 98bd 5bcb 88bd
00000020: 87b3 c4bd 89e7 abbe 10bc 9ebc f811 d5bd
00000030: 17b2 bebe 9d2c f3bd f553 e83c eedc e1bd
00000040: 752c bebc 032b 85bd bfbb 1ebd 0d9b cebd
00000050: 8e46 67bd 870d f1bd be71 8cbe 4bba bebd
00000060: 43e3 96bd 580d 17bc d2de 683b 374d 86be
00000070: 6e78 45be 7bf4 f1bd ef32 8cbd a22f 00be
00000080: 4a9d c4bd 8c57 8cbd 5983 c8be 7ddc 86be
00000090: 3bb7 8abd 0685 c4be 878e 93bc 5e3c 0abe
000000a0: 6030 4ebd 5471 0bbe 6830 97bd bdce f1bb
000000b0: e747 09bd d601 fcbd 9c6f 5cbe 8e95 5ebe

extractor.7.running_mean f4 [48]
0.7023775 0.1561579 0.3325794 0.0047358586 -0.6791263 -1.7603264 0.40560672 0.02920747
-0.75417566 0.31852916 -2.075851 -0.99639994 0.5554504 -0.75738025 -0.02397445 -0.63968104
-2.648693 -1.7801758 -1.0559891 -0.35739508 -0.78489727 -1.349872 -0.099692084 1.5766301
2.3825958 -0.102524824 -1.3614669 -0.3927866 -1.68125 0.56027055 -1.4323303 0.8256132
0.45244712 -0.32142934 0.06759879 -0.24688084 1.157914 0.5213453 -0.49922112 -1.3188423
-1.1357571 0.5360247 0.5608481 0.81649315 0.099818096 -1.6656483 -1.7292949 0.5177755
00000000: 03cf 333f dbe7 1f3e d947 aa3e 432f 9b3b
00000010: 39db 2dbf 6052 e1bf afab cf3e 8144 ef3c
00000020: a811 41bf 4116 a33e beda 04c0 1114 7fbf
00000030: ff31 0e3f ace3 41bf 1166 c4bc 23c2 23bf
00000040: 3084 29c0 cddc e3bf a72a 87bf 7dfc b6be
00000050: 07ef 48bf 9bc8 acbf 5d2b ccbd 04cf c93f
00000060: 737c 1840 89f8 d1bd 8c44 aebf 531b c9be
00000070: 3333 d7bf e46d 0f3f 9956 b7bf 635b 533f
00000080: 26a7 e73e 6392 a4be 3c71 8a3d 55ce 7cbe
00000090: 8736 943f e376 053f e999 ffbe d3cf a8bf
000000a0: 7d60 91bf ea38 093f be93 0f3f b205 513f
000000b0: 6e6d cc3d f733 d5bf 8959 ddbf ef8c 043f

extractor.7.running_var f4 [48]
0.5179913 1.350886 0.7675279 1.7712241 1.1723521 0.97729486 2.139569 0.9431467
1.623786 0.5152149 1.0271039 0.59272295 0.50769824 0.43202576 1.1044344 0.5522151
2.467008 3.608483 1.0762528 0.5498507 0.6052255 1.4120774 1.2029328 2.1463017
1.0493357 3.2304976 4.1600933 1.0083184 0.6665628 1.0971144 1.9187367 0.5825747
0.48419234 1.5263189 0.3482738 1.4746209 0.8486653 0.6361878 0.89362717 4.102199
1.1937908 1.8720471 0.994684 0.6176205 2.645933 1.1998079 0.7972855 0.41591522
00000000: 149b 043f d5e9 ac3f b57c 443f 79b7 e23f
00000010: a20f 963f ff2f 7a3f b3ee 0840 1072 713f
00000020: 38d8 cf3f 20e5 033f 2478 833f b1bc 173f
00000030: 83f8 013f 7b32 dd3e 1b5e 8d3f f85d 0d3f
00000040: 76e3 1d40 63f1 6640 a7c2 893f 04c3 0c3f
00000050: 0ff0 1a3f f4be b43f b4f9 993f 025d 0940
00000060: a250 863f 79c0 4e40 7c1f 8540 9410 813f
00000070: dca3 2a3f 3f6e 8c3f 2a99 f53f 9e23 153f
00000080: 0fe8 f73e 6b5e c33f f250 b23e 61c0 bc3f
00000090: 2142 593f 34dd 223f c0c4 643f 3745 8340
000000a0: 23ce 983f 3d9f ef3f 9ca3 7e3f 611c 1e3f
000000b0: f756 2940 4e93 993f e71a 4c3f d7f2 d43e

extractor.9.weight f4 [64, 48, 3, 3]
-0.02309166 0.039747946 0.034153037 0.003969544 -0.046383433 -0.05856873 -0.0108282855 -0.10271084
-0.065736555 -0.013394198 -0.0402133 -0.036309507 -0.0049219285 0.0031961459 -0.010360536 -0.047077302
-0.11895142 -0.11527432 -0.022318799 0.08420915 -0.029734481 -0.027767034 -0.042929973 -0.034179818
-0.060379785 -0.040123772 0.028401924 0.033260714 -0.051273335 -0.066471785 0.04566598 0.009329898
-0.10412599 -0.08530717 -0.051657964 -0.063882485 0.009154412 -0.02309484 0.06522996 -0.064136416
-0.027511228 -0.05598504 -0.023415681 -0.04957413 -0.04023702 -0.13713275 -0.12922777 -0.07180112
-0.045431472 -0.018205106 0.010506287 -0.0801305 -0.03513675 -0.04389465 -0.05907163 -0.046197552
-0.035703972 -0.032901492 0.044505768 -0.0598984 -0.092980206 -0.041954506 -0.12325925 0.06556253
0.016913189 0.056675147 0.0119945 0.006023496 0.04377923 0.0108564 0.08017575 0.061625667
-0.00825116 0.062017012 0.06892431 0.064662024 0.029992705 0.049216088 0.015553341 0.013094224
-0.051301334 -0.044898808 0.0061597503 -0.001459412 -0.004700666 -0.0029332438 -0.052930947 -0.0066764294
0.004727655 -0.038867373 -0.0040528383 -0.052986216 -0.011324609 -0.02985787 -0.016128553 0.047071464
-0.017159017 0.023228075 -0.025713794 -0.030541396 -0.074723884 0.00760729 0.017517252 -0.023310835
-0.018059788 0.028194016 -0.012323561 0.069673486 -0.05474226 -0.027532171 -0.033949323 -0.07811587
-0.05911244 -0.043193735 0.0021709823 -0.053931035 -0.068518035 -0.07449717 -0.049641185 -0.06437616
0.108262874 0.044632427 0.0043763136 0.07515427 0.061087813 0.038949106 -0.121124275 -0.12259384
-0.012853515 -0.044498827 -0.002666595 0.080660805 -0.07233933 -0.0332567 0.048928425 -0.008702662
-0.044533666 0.04258518 0.07185211 0.056618284 0.015583334 0.04093046 0.112549834 0.107585356
0.036725786 -0.019056978 0.07415488 0.023448797 0.06462496 0.060903594 -0.03483793 0.056828283
-0.019862277 -0.070899814 -0.07458655 -0.11135667 0.03532612 -0.057047162 -0.07949464 0.019792603
-0.045842186 -0.048352424 -0.03289335 0.038343616 0.010094996 -0.088256486 -0.06439308 -0.011408162
-0.07578028 -0.026989346 0.0038126756 -0.031506266 -0.026121859 -0.0027953535 0.028587125 -0.08613919
-0.013343206 0.056369968 0.013776281 0.0014616356 0.032245934 -0.0070221033 0.008322773 0.004978486
0.020865008 -0.012852723 0.01031138 -0.06948128 0.050074738 0.003549126 -0.020654934 0.016890334
0.060408507 0.06770244 -0.023403268 0.014486778 0.02067321 -0.023219312 -0.1232653 -0.083547235
-0.023231069 0.0015541036 0.018921657 -0.017355192 -0.044011336 -0.107613035 -0.06967975 -0.05128538
-0.12950394 -0.09917114 -0.009406485 -0.03777292 -0.07473948 0.11029176 0.023995059 0.0622926
0.046979923 -0.049384546 -0.049309153 -0.061642412 -0.051031772 -0.062344823 -0.0754864 -0.10292251
0.0027971314 0.027805958 0.09870553 0.035160404 0.005733161 -0.004401908 -0.050177664 -0.034972213
-0.011069735 0.0052819527 0.000829681 0.050258454 -0.043250795 0.051044814 0.047776435 -0.027577912
-0.020064197 -0.0010131699 -0.025661664 -0.07327045 -0.061595008 -0.04434004 -0.04592501 -0.012640052
0.0033566752 -0.002167391 -0.03427937 -0.06151536 -0.12478477 -0.06614513 0.009136267 -0.0033116401
00000000: b92a bdbc bece 223d 0ee4 0b3d f312 823b
00000010: 8efc 3dbd c4e5 6fbd 1f69 31bc 105a d2bd
00000020: e3a0 86bd 5773 5bbc b4b6 24bd 47b9 14bd
00000030: 2148 a1bb 6e76 513b 3dbf 29bc 21d4 40bd
00000040: cd9c f3bd f114 ecbd ead5 b6bc d975 ac3d
00000050: ba95 f3bc b177 e3bc 57d7 2fbd 2300 0cbd
00000060: cb50 77bd d358 24bd 27ab e83c 633c 083d
00000070: fd03 52bd 5c22 88bd 400c 3b3d 6edc 183c
00000080: 0240 d5bd 87b5 aebd 4d97 53bd d2d4 82bd
00000090: 63fc 153c 6431 bdbc 4997 853d f459 83bd
000000a0: 3a5f e1bc 9250 65bd 3ed2 bfbc 3e0e 4bbd
000000b0: 93cf 24bd 876c 0cbe 4954 04be 770c 93bd
000000c0: 5a16 3abd e022 95bc 9022 2c3c 761b a4bd
000000d0: 8eeb 0fbd e0ca 33bd 18f5 71bd a539 3dbd
000000e0: 543e 12bd b7c3 06bd ae4b 363d 0658 75bd
000000f0: 686c bebd 7dd8 2bbd 586f fcbd a645 863d
00000100: 878d 8a3c 3324 683d 9484 443c bf60 c53b
00000110: da51 333d 0bdf 313c 2f33 a43d 326b 7c3d
00000120: e02f 07bc 8d05 7e3d 3028 8d3d 866d 843d
00000130: 43b3 f53c cf96 493d 71d3 7e3c 2889 563c
00000140: 5921 52bd d0e7 37bd bbd7 c93b be49 bfba
00000150: 0b08 9abb aa3b 40bb 1fce 58bd f3c5 dabb
00000160: 72ea 9a3b 6533 1fbd accd 84bb 1308 59bd
00000170: da8a 39bc 7e98 f4bc 0720 84bc 02ce 403d
00000180: 1191 8cbc ce48 be3c bca5 d2bc f331 fabc
00000190: d608 99bd 9346 f93b 5780 8f3c 5df6 bebc
000001a0: 1ff2 93bc 23f7 e63c c3e8 49bc f9b0 8e3d
000001b0: 6c39 60bd 268b e1bc 720e 0bbd 37fb 9fbd
000001c0: e31f 72bd eaeb 30bd 0a47 0e3b cae6 5cbd
000001d0: 2f53 8cbd f991 98bd 8e54 4bbd a6d7 83bd
000001e0: edb8 dd3d 7ed0 363d 2e67 8f3b 7bea 993d
000001f0: 3737 7a3d 1989 1f3d 0110 f8bd 7b12 fbbd
00000200: 8d97 52bc 6744 36bd 0ac2 2ebb 7e31 a53d
00000210: a526 94bd 2d38 08bd 2c69 483d 9c95 0ebc
00000220: ef68 36bd cc6d 2e3d 3327 933d 93e8 673d
00000230: 3d51 7f3c b3a6 273d 8780 e63d b655 dc3d
00000240: c76d 163d 611d 9cbc 84de 973d b117 c03c
00000250: 175a 843d 0c76 793d 38b2 0ebd c6c4 683d
00000260: 37b6 a2bc ec33 91bd d5c0 98bd f70e e4bd
00000270: 1fb2 103d 49aa 69bd 16ce a2bd 1924 a23c
00000280: 04c5 3bbd 310d 46bd 2dbb 06bd 320e 1d3d
00000290: 7b65 253c d1bf b4bd 85e0 83bd 4de9 3abc
000002a0: b132 9bbd c318 ddbc 15de 793b b70c 01bd
000002b0: 82fd d5bc 4032 37bb 8c2f ea3c be69 b0bd
000002c0: 769d 5abc 32e4 663d e9b5 613c 5a94 bf3a
000002d0: 5014 043d ac19 e6bb 3d5c 083c 9122 a33b
000002e0: 18ed aa3c 3a94 52bc 10f1 283c 344c 8ebd
000002f0: 2b1b 4d3d 7498 683b 8934 a9bc 995d 8a3c
00000300: e96e 773d 94a7 8a3d 36b8 bfbc f359 6d3c
00000310: dd5a a93c 6d36 bebc 8572 fcbd d01a abbd
00000320: 154f bebc 10b3 cb3a 9701 9b3c 7a2c 8ebc
00000330: 3b45 34bd 3964 dcbd 42b4 8ebd 9e10 52bd
00000340: ae9c 04be 3d1a cbbd a81d 1abc c7b7 1abd
00000350: 0311 99bd a5e0 e13d 4991 c43c 8626 7f3d
00000360: 056e 403d 7347 4abd 65f8 49bd c17c 7cbd
00000370: b106 51bd 495d 7fbd 9d98 9abd 09c9 d2bd
00000380: 1450 373b 52c9 e33c 2026 ca3d 5b04 103d
00000390: 3ddd bb3b e13d 90bb 1887 4dbd 063f 0fbd
000003a0: d55d 35bc 3b14 ad3b f37e 593a cfdb 4d3d
000003b0: bf27 31bd 5e14 513d 39b1 433d 13eb e1bc
000003c0: ac5d a4bc 57cc 84ba 6938 d2bc d10e 96bd
000003d0: 0c4b 7cbd e79d 35bd dd1b 3cbd 3818 4fbc
000003e0: aafb 5b3b c90a 0ebb 8668 0cbd 88f7 7bbd
000003f0: 288f ffbd 1977 87bd 48b0 153c 1a08 59bb

extractor.9.bias f4 [64]
-0.0059374166 -0.01626762 -0.00835882 -0.009077047 0.03669752 -0.012520846 0.02352845 0.015838502
-0.027776122 -0.032513417 -0.020471716 -0.027859205 0.024081534 0.031990524 0.04031406 -0.021827538
0.04381756 -0.018751558 0.004790599 0.04597852 0.020390261 -0.01269431 -0.035543557 -0.036736973
-0.005326035 0.04595953 0.023560716 0.038450316 -0.011300167 0.03268149 0.022115398 0.016640944
0.016162325 0.0063766446 -0.022823185 0.017788144 -0.011206838 0.02740889 0.029286845 -0.03591781
-0.044941373 -0.029842122 0.03356827 -0.026384074 0.038647223 -0.03111187 -0.044721685 0.026574008
-0.03784557 0.027959116 -0.014556595 0.045066226 0.027735552 0.014375592 0.0296235 -0.045276895
0.044203646 -0.038235407 -0.042347755 -0.005827215 0.022914521 -0.034391925 -0.012021613 -0.035966873
00000000: a98e c2bb ac43 85bc 6ff3 08bc e5b7 14bc
00000010: 2450 163d 3c24 4dbc bcbe c03c bfbf 813c
00000020: c08a e3bc ca2c 05bd 4db4 a7bc fd38 e4bc
00000030: a346 c53c 7f08 033d 5b20 253d aacf b2bc
00000040: 0b7a 333d de9c 99bc 75fa 9c3b f953 3c3d
00000050: 7a09 a73c ccfb 4fbc 1f96 11bd 8279 16bd
00000060: 0586 aebb 0f40 3c3d 6702 c13c 147e 1d3d
00000070: 5624 39bc 07dd 053d 5a2b b53c 9752 883c
00000080: da66 843c 2cf3 d03b b0f7 babc 71b8 913c
00000090: e39c 37bc 9c88 e03c f7ea ef3c 8e1e 13bd
000000a0: 7214 38bd 7777 f4bc e27e 093d 6a23 d8bc
000000b0: 8d4c 1e3d 52de febc 162e 37bd bcb1 d93c
000000c0: f503 1bbd 840a e53c c97e 6ebc 5d97 383d
000000d0: ab35 e33c 9a87 6b3c fbac f23c 4474 39bd
000000e0: e20e 353d bb9c 1cbd d774 2dbd 39f2 bebb
000000f0: 3cb7 bb3c 8cde 0cbd 4df6 44bc 0052 13bd

extractor.10.weight f4 [64]
1.0373461 1.0120223 0.9717211 1.0546966 0.9651328 0.9520928 0.99442106 0.9848906
0.94058996 0.979648 0.9799352 1.026142 1.0982378 1.0540838 0.91622114 0.93728787
1.0270534 0.92971927 1.0868689 1.0068744 0.9720177 1.0954661 0.95186853 0.92015445
0.9750462 1.0372627 0.9853737 1.0286605 1.0581961 1.0034918 1.0100654 0.949891
0.9717913 1.0121448 0.94945335 0.9817145 0.9701501 0.98417574 0.93362033 1.0060897
0.89289325 0.98089176 0.96715355 0.9632159 0.9774862 0.94144493 1.0152512 0.9872996
1.1217744 1.0974336 1.0196302 0.9841006 1.0217786 0.9481553 1.0555457 1.0601755
0.93693924 1.0104382 0.92212754 1.0312023 0.9989762 1.0592586 0.9445033 0.93905556
00000000: c2c7 843f f289 813f b7c2 783f 4c00 873f
00000010: f112 773f 5bbc 733f 6192 7e3f ca21 7c3f
00000020: 81ca 703f 36ca 7a3f 09dd 7a3f 9f58 833f
00000030: 0e93 8c3f 38ec 863f 788d 6a3f 19f2 6f3f
00000040: 7c76 833f 1502 6e3f 851e 8b3f 43e1 803f
00000050: 27d6 783f 3c38 8c3f a8ad 733f 3e8f 6b3f
00000060: a19c 793f 06c5 843f 7341 7c3f 26ab 833f
00000070: f872 873f 6b72 803f d349 813f 0e2c 733f
00000080: 51c7 783f f68d 813f 600f 733f a451 7b3f
00000090: c25b 783f f1f2 7b3f be01 6f3f 8cc7 803f
000000a0: a794 643f b91b 7b3f 6097 773f 5195 763f
000000b0: 893c 7a3f 8902 713f c0f3 813f abbf 7c3f
000000c0: 4e96 8f3f b478 8c3f 3e83 823f 04ee 7b3f
000000d0: a4c9 823f 4eba 723f 1f1c 873f d5b3 873f
000000e0: 40db 6f3f 0a56 813f 8d10 6c3f 70fe 833f
000000f0: e7bc 7f3f c995 873f f8ca 713f f265 703f

extractor.10.bias f4 [64]
-0.0033478679 -0.043434437 -0.28154922 -0.112968676 -0.078688696 -0.03891762 -0.048596926 -0.026026716
-0.34798226 -0.12648225 -0.39348894 -0.068437144 -0.06653201 -0.13312846 -0.13268143 -0.48810014
-0.09887544 -0.25093785 -0.10224345 -0.037741184 -0.4421413 -0.041772854 -0.19077899 -0.4631809
-0.07358119 0.012979521 -0.09563865 -0.09912053 -0.10197998 -0.09193717 -0.07299499 -0.19266072
-0.10384709 -0.3491146 -0.03715146 -0.37353173 -0.4571134 -0.10239308 -0.41581228 -0.056892388
-0.13617758 -0.03704298 -0.08817998 -0.028836 -0.056446623 -0.3010044 -0.107827105 -0.16937436
-0.02855104 0.0038219504 -0.14466873 -0.07130641 -0.031661995 -0.30521554 0.009259593 -0.1618797
-0.09388148 -0.08217918 -0.43961167 0.026016204 -0.22900048 -0.11738857 -0.057093814 -0.12002642
00000000: e767 5bbb 4fe8 31bd 3827 90be 1f5c e7bd
00000010: 8a27 a1bd 1568 1fbd 920d 47bd fb35 d5bc
00000020: bb2a b2be 9084 01be 6277 c9be c628 8cbd
00000030: ef41 88bd d452 08be a4dd 07be 43e8 f9be
00000040: 357f cabd ed7a 80be 0465 d1bd 8096 1abd
00000050: 5860 e2be 031a 2bbd 915b 43be 0c26 edbe
00000060: bcb1 96bd 0fa8 543c 32de c3bd b4ff cabd
00000070: e1da d0bd 8e49 bcbd 667e 95bd da48 45be
00000080: c8ad d4bd 26bf b2be 212c 18bd 8d3f bfbe
00000090: c40a eabe 77b3 d1bd 59e5 d4be fe07 69bd
000000a0: 2372 0bbe 61ba 17bd b597 b4bd 7a39 ecbc
000000b0: 9334 67bd 401d 9abe 75d4 dcbd 7970 2dbe
000000c0: dfe3 e9bc b079 7a3b 0a24 14be 1809 92bd
000000d0: 02b0 01bd 3645 9cbe 8cb5 173c cbc3 25be
000000e0: ef44 c0bd 8f4d a8bd c814 e1be ef1f d53c
000000f0: 1a7f 6abe 6b69 f0bd 34db 69bd 69d0 f5bd

extractor.10.running_mean f4 [64]
-1.2216262 0.5257652 0.39773753 0.33271706 -1.3581933 -1.9124061 -1.9346372 -1.7113243
-0.65996724 -2.1215668 0.67749256 -2.0721102 0.5810727 -1.624645 -3.7928739 -0.28624067
-1.878683 -0.28490102 -2.2184322 0.9473372 0.41152725 0.79771197 -2.2615836 0.23922369
-1.7384539 -2.119031 -2.2595186 -2.350513 -0.9305806 -1.941684 -2.451364 -0.10580581
-0.8000166 0.31689546 -2.1714134 -0.34391674 0.4698835 -2.9778287 -0.20275003 -1.352439
0.54155993 -1.7176129 -1.8771771 -1.5715305 -2.8885987 -0.38735405 -0.5023763 -0.15083164
-0.32609183 -1.6453843 -1.1096019 -1.1694416 -2.7622702 -0.40121573 -1.3945467 -1.3616039
-2.1288838 -1.4887356 -0.20523433 -2.6266406 -0.37554783 -1.1525699 1.6862909 -3.5203712
00000000: 3f5e 9cbf 8c98 063f 41a4 cb3e e459 aa3e
00000010: 47d9 adbf b9c9 f4bf 31a2 f7bf ad0c dbbf
00000020: 9df3 28bf c0c7 07c0 2770 2d3f 749d 04c0
00000030: 2ec1 143f 5ef4 cfbf 72be 72c0 238e 92be
00000040: af78 f0bf 8cde 91be cbfa 0dc0 b184 723f
00000050: b3b3 d23e da36 4c3f c9bd 10c0 0ef7 743e
00000060: a885 debf 349e 07c0 f49b 10c0 ce6e 16c0
00000070: 883a 6ebf 1a89 f8bf 26e3 1cc0 b7b0 d8bd
00000080: e3cd 4cbf 1f40 a23e 70f8 0ac0 db15 b0be
00000090: 9294 f03e bf94 3ec0 b49d 4fbe b91c adbf
000000a0: aca3 0a3f bdda dbbf 5747 f0bf e927 c9bf
000000b0: cdde 38c0 4553 c6be bc9b 00bf 9c73 1abe
000000c0: 82f5 a6be f49b d2bf 6f07 8ebf 43b0 95bf
000000d0: 09c9 30c0 266c cdbe 8280 b2bf 0949 aebf
000000e0: a23f 08c0 e38e bebf f328 52be e11a 28c0
000000f0: ce47 c0be 6987 93bf 61d8 d73f c34d 61c0

extractor.10.running_var f4 [64]
3.305957 2.6607778 1.4488508 1.3749174 4.481212 5.12227 3.5906837 4.344092
1.5872175 1.6838069 1.3809068 3.0540411 2.6316998 1.8256224 3.81061 1.6492485
3.1133187 1.6204783 2.1413293 2.1935093 1.7492622 3.0434964 3.431514 1.4458429
3.9678693 3.7025673 3.647978 2.6724246 1.9746788 2.2992892 3.0418475 1.5442749
2.755321 1.4204475 4.7694545 2.3981955 1.539932 3.0413399 1.4573193 1.6450063
2.7944794 5.4199553 3.6976278 9.629086 2.548588 1.9235113 2.2297304 1.0314287
2.8383818 2.8390517 2.3633733 2.6089938 3.8507915 2.2905207 2.55814 2.3792393
4.0681424 2.9267325 1.3974752 2.122535 2.0474913 2.6576788 2.9837968 3.6601517
00000000: cd94 5340 2f4a 2a40 f173 b93f 4bfd af3f
00000010: 1766 8f40 a3e9 a340 c3cd 6540 cd02 8b40
00000020: f129 cb3f fc86 d73f 8ec1 b03f 6975 4340
00000030: c56d 2840 ffad e93f 09e1 7340 931a d33f
00000040: 9d40 4740 d56b cf3f 8a0b 0940 7562 0c40
00000050: d3e7 df3f a5c8 4240 ed9d 5b40 6111 b93f
00000060: 92f1 7d40 ddf6 6c40 7978 6940 0109 2b40
00000070: 46c2 fc3f 8e27 1340 a1ad 4240 cdaa c53f
00000080: 2e57 3040 39d1 b53f 5f9f 9840 097c 1940
00000090: 7e1c c53f 50a5 4240 7089 ba3f 918f d23f
000000a0: c0d8 3240 4670 ad40 efa5 6c40 bc10 1a41
000000b0: 111c 2340 9e35 f63f e7b3 0e40 db05 843f
000000c0: 0ca8 3540 06b3 3540 8241 1740 c1f9 2640
000000d0: 5e73 7640 e497 1240 91b8 2340 7545 1840
000000e0: 392e 8240 964f 3b40 78e0 b23f 9dd7 0740
000000f0: 190a 0340 6917 2a40 87f6 3e40 ed3f 6a40
