gpl/results/il/ep_050.ckpt (torch, 773626 bytes, 43 tensors)

extractor.0.weight f4 [24, 3, 5, 5]
000000 38 15 fd 3d 62 4b 12 3c 3c 4a 19 3d 7e a4 fc 3d
       0.12357563 0.0089291055 0.03742431 0.12336062
000010 cf 70 0c bd a0 b6 88 3d d3 96 c2 bc 77 08 67 3d
       -0.03428727 0.06675458 -0.02375356 0.056404557
000020 9a 94 f9 3c a6 74 42 b7 5a 7d 7f 3d 62 20 0c 3d
       0.030466367 -1.159046e-05 0.062375404 0.03421057
000030 a0 9e 8b 3d 9e 2e 62 bc 14 d1 8c 3c 73 0b d3 3c
       0.06817365 -0.01380506 0.01718954 0.025762295
000040 83 0a 81 3d fd 49 35 3d 91 81 12 3e 8e 03 99 3d
       0.06300833 0.044260014 0.14307238 0.07471381
000050 be 05 d4 bd 4b be f7 bd c5 c1 90 bd a7 64 d6 bd
       -0.10352658 -0.120968424 -0.070682086 -0.10468417
000060 9f 10 b4 bd a6 f9 1c 3c 13 dd 8d 3d e0 2c 79 3d
       -0.08792233 0.009581005 0.06926932 0.06083381
000070 3b d9 cf bd 75 fa c1 3d 96 44 aa bc 9e ed 83 3d
       -0.10148855 0.09471599 -0.020784657 0.06441806
000080 3d 2a 0e 3d cf 52 02 be 60 24 01 be e6 9e a0 bd
       0.03470825 -0.12726901 -0.12611532 -0.078428075
000090 04 b0 9f 3d 52 96 09 bd b9 21 29 3d 43 02 6d bd
       0.07797244 -0.033590622 0.041291926 -0.057863485
0000a0 95 4a f4 3d 7b 19 0d bd b1 72 de 3d 2e 4d a3 3c
       0.11928288 -0.03444813 0.108617194 0.019934263
0000b0 d3 02 23 bd c3 24 bd bc 17 49 0a be 7c 31 11 bd
       -0.039797615 -0.023088818 -0.13504444 -0.035447583
0000c0 52 6a de bd 8c 3b a4 bd 43 cb c3 bd 7c 8f 2c bd
       -0.10860123 -0.0801917 -0.095602535 -0.042129025
0000d0 e8 ee 99 3d 16 a2 db bb 90 6b 12 3e d8 91 44 3d
       0.07516271 -0.0067026718 0.14298844 0.04799065
0000e0 d5 e7 30 bd 5f aa e1 bd fc 7e 51 3d 25 2b b9 3c
       -0.043189842 -0.11018824 0.051146492 0.02260358
0000f0 11 a2 b5 bd af c4 7a 3d 66 62 76 3d be ee c4 3d
       -0.08868802 0.06122273 0.060152434 0.09615849
000100 c1 c1 84 bd a2 d8 22 bb 29 01 a6 3c ca 18 38 3d
       -0.06482268 -0.0024848361 0.020264225 0.044945516
000110 b7 1f 80 bd 22 75 52 bd 25 5a 12 3c 5a e3 98 bd
       -0.06256049 -0.051381238 0.008932625 -0.07465239
000120 1c 47 72 3c 61 2f 23 bd 1c 9f 9e 3a 79 10 ec bc
       0.014787462 -0.039840106 0.0012101862 -0.028816449
000130 b6 05 de bc 15 6b 2a 3c 2a 04 19 be 4c 2a 1d 3d
       -0.027102333 0.010401507 -0.14942995 0.038370416
000140 b4 a4 1d be ba 98 32 be a0 2d 59 bd a6 8f 77 bd
       -0.1539486 -0.17441073 -0.053022027 -0.06043973
000150 97 02 4b 3d 62 27 dc bd d5 1d 1c be 86 0a 79 3d
       0.049563017 -0.10749699 -0.15245755 0.06080105
000160 57 92 98 bc 60 d3 b6 3d 72 ce 6c bc e4 27 0f be
       -0.018624468 0.08927035 -0.014453517 -0.13980061
000170 b9 18 cb bb 84 e6 63 3b 18 ae 9b bd 4c a5 ed bd
       -0.0061980155 0.003477485 -0.07601565 -0.116037935
000180 97 90 90 bc c6 cc ce bc a6 78 c4 bd c7 56 4a bd
       -0.01764707 -0.025244128 -0.09593324 -0.049399164
000190 66 83 cf 3d bb 93 1f bd e8 58 74 3d a5 92 3c 3d
       0.10132484 -0.038959246 0.0596551 0.04603829
0001a0 6d 2f 78 bd c1 3a e3 bd 62 27 ad 3d 00 24 50 bc
       -0.060592104 -0.11095191 0.08454777 -0.012703896
0001b0 97 bc a6 3d c0 68 14 3d 59 95 ea 3c e0 11 92 3d
       0.081414394 0.03623271 0.028635668 0.07132316
0001c0 b1 94 db 3d 75 34 48 bd fd ef 5c 3d 3b 7f c1 3d
       0.1072172 -0.048878152 0.05393981 0.094480954
0001d0 c5 0c c2 3d 4d d7 a4 3d e4 ff 94 bd 42 41 7d bd
       0.09475092 0.08048878 -0.0727537 -0.061829813
0001e0 a2 0b e3 bd 8f 05 bd bc d1 18 ac 3d 02 59 d8 bd
       -0.11086203 -0.02307394 0.08403171 -0.10563852
0001f0 a6 e9 43 3d 91 50 e2 bd 13 ca 2b be 4c eb 74 bd
       0.047830246 -0.11050523 -0.16776304 -0.05979471
000200 e5 f5 0b 3d 89 ff bf 3d be ff f8 bd b9 14 1b bd
       0.03417005 0.09374911 -0.12158154 -0.03786156
000210 0d a9 7c 3d 51 75 75 3d 61 00 91 3d d5 b4 72 3d
       0.061684657 0.059926335 0.070801504 0.059254486
000220 65 4f 36 3d 38 21 bf 3c 5c 45 6e bd a4 5d 5f bd
       0.04450931 0.02333127 -0.058171615 -0.054532662
000230 d6 24 6a bd 07 77 88 bc d7 b4 8c bd fe 0f 39 3d
       -0.057164036 -0.01665832 -0.0687043 0.045181267
000240 4c e9 75 3d da 6b 47 bd 9d 97 bb 3c 62 e7 db 3c
       0.060036942 -0.04868684 0.022899443 0.02684373
000250 33 e3 69 3d 77 17 bc 3d 1a a4 c4 bd 58 57 73 3d
       0.05710144 0.09184163 -0.096016124 0.05940947
000260 1f bd 74 bd bb ee 6e bd ac 6c 27 be 0f 70 ea bd
       -0.059750672 -0.05833314 -0.16350049 -0.11447155
000270 41 61 dc bd 15 b7 b4 bd a1 85 3a 3d 6d f8 95 bd
       -0.10760737 -0.088239826 0.045537595 -0.07322774
000280 93 c5 9d bd b9 75 56 3d ba ad 4f 3d 92 8e b8 3d
       -0.077037 0.052358363 0.050702788 0.09011568
000290 2b af 35 bd 15 3e 44 3d 0a 4e 86 bc f5 d2 7e 3b
       -0.044356506 0.04791077 -0.016394634 0.0038883064
0002a0 32 d2 7c bd b6 f9 a1 bc 6f 4d 87 3c bb 1f ca 3d
       -0.061723895 -0.019772392 0.016516415 0.09869333
0002b0 51 10 8d 3d f4 af ad 3d 04 ca 34 3e 99 5f 7b 3d
       0.06887878 0.08480826 0.17655188 0.061370466
0002c0 c0 16 01 3d 33 2a 1a bd 30 f5 04 be aa 45 06 3d
       0.031515837 -0.0376379 -0.12984157 0.03278128
0002d0 13 a5 8a bd ff 55 51 bd 04 e5 15 be 85 7a 89 bd
       -0.06769767 -0.051107403 -0.14638144 -0.06712822
0002e0 f6 02 02 be 4f 68 db 3d 52 9e cd bd 9a 7a bc bd
       -0.12696442 0.10713255 -0.10039963 -0.09203072
0002f0 33 fe 5a bb b8 07 8d bd 27 93 e8 3c 1a 46 60 bd
       -0.0033415675 -0.06886238 0.02839048 -0.054754354
000300 2c a9 81 bd 53 eb e7 ba a8 37 93 3d fc 7d 94 bd
       -0.06331095 -0.0017694033 0.0718835 -0.07250592
000310 9c 2c 78 3d 22 31 97 3d e0 1b fa 3d fc 4e 8e bd
       0.060589418 0.07382418 0.12212348 -0.06948659
000320 b0 26 b3 bc 21 3e 08 be 4b fc 6e 3d 9a ef bb bd
       -0.021869034 -0.1330495 0.058346074 -0.0917656
000330 90 43 9c 3c 53 eb 1b bd ec f9 55 bd 7a 7c 41 bd
       0.019075185 -0.03806622 -0.052240297 -0.04723785
000340 22 0e b4 bc 32 b2 4e 3c ed 85 2b 3c 1d a4 cf 3c
       -0.021979395 0.012615727 0.010468942 0.02534681
000350 1b 7d de bd 37 97 a6 3d f9 f6 c9 3d a3 3f 99 3d
       -0.10863706 0.08134311 0.098615594 0.07482841
000360 12 cb 88 3d 09 db c2 bd d2 b8 57 bd ed 16 c2 3d
       0.066793576 -0.09514434 -0.052666493 0.09477029
000370 7a df c4 bd 84 5e c4 3d d9 e7 cc bd 59 41 a7 bd
       -0.09612937 0.0958834 -0.10005159 -0.08166761
000380 48 1d 84 3d 55 cf 1f bd c1 f6 99 3c 8a 8e f0 3d
       0.064508975 -0.039016087 0.01879442 0.11745937
000390 b8 14 07 3e 0a b2 18 3e b4 82 06 bd 63 44 d4 bd
       0.13191497 0.14911667 -0.032839492 -0.10364606
0003a0 90 bf c2 3d 58 25 1f bd 53 de 69 bd a3 b1 24 bd
       0.09509194 -0.038853973 -0.05709679 -0.04020847
0003b0 71 91 1b be 11 9b e1 3b 1b 62 43 3b 22 6b 1f be
       -0.151922 0.0068849404 0.0029813114 -0.15568212
0003c0 a3 de e8 bd 8c e6 de bc 8b 65 21 3d 29 57 ab bc
       -0.113705896 -0.027209543 0.03940348 -0.020915585
0003d0 4c 54 96 bd 4d a9 5f bd 28 d2 23 be 7b e2 ff bd
       -0.07340297 -0.054604817 -0.15998137 -0.124943696
0003e0 dc 71 07 be 6d 9b 21 3d e1 6b eb 3d 91 1b c9 bc
       -0.13227028 0.039454866 0.11495186 -0.024549277
0003f0 5d a2 36 3c 2c 23 8b 3d 66 9f 19 3d 07 b7 ad bd
       0.011147109 0.06793818 0.03750553 -0.08482175

extractor.0.bias f4 [24]
000000 da ae a7 3d 29 2a 19 3d 2f a8 88 bd 00 cb 9f 3d
       0.08187647 0.037393723 -0.066727035 0.07802391
000010 8b f0 a4 bd e4 05 67 3d 68 b4 c1 bc 8f 80 0c 3d
       -0.080536924 0.056402102 -0.023645595 0.03430229
000020 72 78 49 bc be da af 3c 3a c5 06 bd 43 3e 44 3d
       -0.012296783 0.02146661 -0.032902934 0.04791094
000030 af 3b 5b 3d 0a 50 d2 bd 35 84 d1 3d 42 ad c0 bd
       0.053523716 -0.102691725 0.102302946 -0.09408046
000040 53 d3 56 bd 72 7c 3f 3d be df d4 3d e5 25 20 3d
       -0.05244763 0.04674954 0.10394238 0.03909864
000050 5a a6 83 bd cb 1c 9e 3c 24 33 89 bd e9 c8 57 3d
       -0.064282134 0.019300839 -0.066992074 0.052681837

extractor.1.weight f4 [24]
000000 a5 ab 8e 3f 38 b9 5f 3f 2a d3 74 3f 17 e4 80 3f
       1.1146132 0.87391996 0.9563471 1.0069607
000010 d8 58 83 3f 60 4a 83 3f 15 00 6e 3f 0c 11 7a 3f
       1.0261488 1.0257072 0.92968875 0.9768226
000020 de da 80 3f 59 1a 7c 3f 47 95 7b 3f 14 90 6c 3f
       1.0066793 0.98477703 0.98274654 0.92407346
000030 73 88 74 3f b5 e5 70 3f db e6 71 3f 93 63 8b 3f
       0.95520705 0.94100505 0.9449288 1.0889763
000040 89 1a 87 3f ac 95 82 3f 04 17 75 3f 45 87 63 3f
       1.0554973 1.0201926 0.95738244 0.8887828
000050 cc 78 6c 3f 74 3d 90 3f e3 ea 5e 3f 65 8e 72 3f
       0.9237182 1.1268754 0.8707716 0.94748527

extractor.1.bias f4 [24]
000000 57 5b 3f bc 58 1a 3e be f2 4c fa bd 7f 0a 9d bd
       -0.011679492 -0.18564737 -0.122217074 -0.076680176
000010 f9 12 2c 3c f2 9e 11 bc c4 83 e8 bd e9 46 f2 bc
       0.01050257 -0.008887993 -0.11353257 -0.029574828
000020 23 ed db 3c 14 ea bf 3c 12 74 c8 3c 5f 27 06 be
       0.026846474 0.023427047 0.02446941 -0.13100956
000030 3d e4 0f be 20 05 39 bd cd e7 d4 bd f2 b5 9b bd
       -0.1405191 -0.045170903 -0.10395775 -0.07603063
000040 5c c8 9e 3c 5e f0 82 3b 17 3a a1 bd 11 59 df bd
       0.019382648 0.003995939 -0.07872408 -0.1090566
000050 7e 0f 43 bd 74 07 7c 3d 63 ba de bd 19 58 89 bd
       -0.047622196 0.061530545 -0.10875394 -0.067062564

extractor.1.running_mean f4 [24]
000000 55 4a 89 3d 29 e3 e0 bd 40 10 ab be b6 dd 65 be
       0.06703631 -0.10980827 -0.33410835 -0.22447857
000010 be ef 15 be 9d c5 56 be 35 56 9c 3e c0 6a f0 bd
       -0.14642236 -0.20973821 0.3053452 -0.11739111
000020 56 d7 ee 3d 5d 75 d3 3b 1e da a8 be 03 68 95 bd
       0.11662166 0.0064532 -0.3297891 -0.07295229
000030 83 54 19 bf 99 d6 10 be 9c b6 83 bd 3e be c8 bd
       -0.5989458 -0.14144363 -0.06431314 -0.09801911
000040 e8 b0 06 bc ea 21 a9 3e 47 aa b2 3e af 5c 6d 3e
       -0.008220889 0.33033687 0.34895536 0.23179887
000050 e3 a0 a7 be 77 00 e2 3c 53 3a 28 bd 53 f8 90 3e
       -0.32739934 0.027588112 -0.041071247 0.28314456

extractor.1.running_var f4 [24]
000000 28 2c 9f 3b 8f 5c b6 3c 48 f2 e8 3c 76 04 1f 3d
       0.0048575588 0.022260932 0.028435841 0.038822614
000010 41 f1 84 3c 28 15 66 3c 39 35 f5 3c 6d bb c6 3c
       0.01622832 0.01404313 0.029932605 0.024259293
000020 d3 7c eb 3c 8c fd 98 3b b6 bc ac 3c 37 d0 11 3c
       0.028746044 0.004668897 0.021086078 0.00889974
000030 9b 28 e6 3d 84 de 41 3c 03 10 50 3c dc 05 c0 3b
       0.11238214 0.011832837 0.01269913 0.0058600735
000040 b0 d1 71 3c 8a 0a 69 3c b9 77 ca 3c b2 de 02 3d
       0.014759466 0.014223704 0.024715291 0.03195066
000050 ee 0a e9 3c 40 67 4d 3c 5c ae 03 3c 0a 3f 73 3c
       0.028447594 0.012536824 0.008037176 0.014846573

extractor.3.weight f4 [36, 24, 5, 5]
000000 27 e8 30 bd ee 80 75 bd 15 18 33 bd 4f f2 a5 3c
       -0.043190148 -0.05993741 -0.04372414 0.020257143
000010 a6 dd 8e 3d 6f d6 41 bd 0b fd 19 3c d5 82 06 bc
       0.0697587 -0.04732364 0.009398709 -0.008209904
000020 b0 89 40 3c 79 d0 93 3d fa ef c2 bc 19 dd 8f 3c
       0.011751577 0.072174974 -0.02379607 0.017561482
000030 9d f9 18 3d 98 39 d6 3c e9 b3 6c bc 68 32 9c bc
       0.037347425 0.02615051 -0.014447191 -0.019067004
000040 68 46 14 3c 4a 0f 8d bc 39 64 f4 3c 13 f2 ac 3b
       0.009049989 -0.017219204 0.029832946 0.005277881
000050 e4 17 b8 bc 3d 8f 19 3d 23 a5 e2 bc e7 13 12 bc
       -0.02247233 0.03749012 -0.027666634 -0.008915878
000060 b4 92 a3 bc c9 a9 9e bb 02 58 8a 3c 77 f0 37 bc
       -0.019967414 -0.0048420173 0.016887669 -0.011226765
000070 97 07 36 3d 63 39 82 b8 ea f4 a6 bd 07 ae 89 bb
       0.044440832 -6.209572e-05 -0.081521824 -0.004201654
000080 49 19 85 3c b1 54 09 bd 8f c4 23 3b d5 a1 ba bc
       0.016247408 -0.033528034 0.0024988984 -0.022782246
000090 50 32 5f bc 6b 9f d8 3b 63 1c 60 bd 50 94 8e bd
       -0.013622835 0.006610801 -0.05471457 -0.06961882
0000a0 92 07 b1 bc e5 06 21 bc 81 50 b4 bb 4e 20 0b bc
       -0.021610055 -0.009828304 -0.005502761 -0.008491589
0000b0 12 e9 73 3d f1 c8 f2 bc d4 ca 69 bc 6b d8 a8 bc
       0.059548445 -0.029636832 -0.014269549 -0.020611009
0000c0 fe f7 40 bb 60 2b 3b 3d eb c8 c7 bc 8d c0 b6 3c
       -0.002944469 0.045695662 -0.024387797 0.022308612
0000d0 56 92 08 3d 8d a4 24 3c 7d 0e de 3c f8 bc 07 3d
       0.03334268 0.010048998 0.027106518 0.0331392
0000e0 e1 a6 b2 3d c6 9a b2 3d 36 86 f5 3c 88 d8 24 3d
       0.08723236 0.08720927 0.029971223 0.040245563
0000f0 f4 80 0c 3c e7 33 03 3d cc db db bb ed c7 32 bc
       0.008575667 0.03203192 -0.0067095514 -0.010911924
000100 e8 dd 0a bd 03 b0 cb bd 8b 1c ca bd c2 fa e3 bd
       -0.033903033 -0.09945681 -0.098687254 -0.11131813
000110 aa 3b d5 bd a4 5d 3d bd c9 80 27 bc 5e 12 2a bb
       -0.10411771 -0.04623188 -0.010223576 -0.002595089
000120 21 07 0a bd 0b 16 04 bd c2 4c 52 bd 8f 44 e2 bb
       -0.033698205 -0.032247584 -0.051342733 -0.0069051455
000130 53 7e 81 bd b2 d0 3d bc fa 6e dc 3c ac 72 1d 3d
       -0.063229226 -0.011585401 0.026908386 0.038439438
000140 36 48 ae bd 1b f8 0c bd 81 01 97 bc 66 c3 84 3d
       -0.08509867 -0.0344163 -0.018433334 0.06482582
000150 8b e9 6a 3c 27 cb 8f 3c 5f 22 e0 bc 60 f3 a3 3c
       0.014337908 0.017552925 -0.02736014 0.020013511
000160 06 12 cf 3c bc ca bc 3c 30 c0 2a bd 7d 76 28 3d
       0.025277149 0.02304589 -0.04168719 0.041128624
000170 ff ad 40 bc 5e 51 01 bc 8d e2 05 3d e4 ad 88 bc
       -0.011760234 -0.007892935 0.03268676 -0.01668448
000180 d2 20 00 bd 27 42 7f bd 34 ad 6e 3c 2d ec b3 bc
       -0.0312813 -0.062318947 0.014567662 -0.021963203
000190 a2 8e b5 bc 72 95 a1 3c 9a b1 a2 bb a0 8c 79 3d
       -0.02216274 0.019724581 -0.0049650194 0.060925126
0001a0 92 84 a6 3c b0 cc b9 bd b4 75 cf bd d6 58 9b bc
       0.020326886 -0.09072244 -0.10129872 -0.018963259
0001b0 87 b9 88 3b fd 2c 66 3d 02 43 f8 bc 08 ff 9e 3c
       0.004172507 0.056195248 -0.03030539 0.019408718
0001c0 cd c1 96 3c 86 84 aa ba c7 f0 9f bc 90 bd bb bd
       0.018402958 -0.0013009466 -0.019523991 -0.091670156
0001d0 fa b9 8b bd 2d 4c 51 bc ce 20 9e bc fb 68 f5 3c
       -0.068225816 -0.012774509 -0.019302752 0.029957285
0001e0 7f 2c f5 bc 63 1a 4b bc 49 00 08 38 34 90 ba bc
       -0.029928444 -0.012396428 3.2425192e-05 -0.02277384
0001f0 56 fb 14 3d 4d d3 85 bd 0d a8 2b bd f6 40 bc 3b
       0.036372505 -0.06534443 -0.041908313 0.0057450486
000200 28 31 e7 bc fe b0 37 3c 18 96 c9 bc 07 82 9c 3c
       -0.028221682 0.011211632 -0.024607703 0.01910497
000210 40 08 f7 3c 54 79 8b 3d ac 2f 9d 3d ef b1 f3 39
       0.030155301 0.06810251 0.07675108 0.00046481143
000220 4c 3d a2 bc 3d 52 c1 3c ab b4 0f bd 74 14 c6 bc
       -0.01980462 0.023598785 -0.035084408 -0.024179675
000230 83 96 71 bd 08 15 38 bd f8 2d e2 bc 9f b5 e3 bb
       -0.05898143 -0.044941932 -0.02760981 -0.006949141
000240 8f 8b 10 bc 75 26 20 bd 6a d8 99 bd 3b 1e 67 bd
       -0.008822336 -0.039099175 -0.07511981 -0.056425314
000250 e0 c5 0b bd a9 80 2b bc eb b8 45 bc e2 bb eb 3b
       -0.034124255 -0.010467687 -0.012068014 0.0071940282
000260 bb 2a f8 3c 82 ab 73 3d 2c dd f5 3b 48 b4 91 bd
       0.030293813 0.059489734 0.0075031724 -0.07114464
000270 0e 36 9c bd 2f c5 05 bb a2 3b 7c bb 9f 0d 34 bd
       -0.076274976 -0.002041172 -0.0038487692 -0.043958303
000280 7e 58 34 bd 19 bb 16 bd db e8 2c 3d 45 38 5e 3d
       -0.044029705 -0.036799524 0.042214256 0.05425288
000290 da f4 75 3d d4 58 61 3d 42 43 3f 3d 78 4f bb 3d
       0.06004796 0.055016354 0.046695 0.09146017
0002a0 18 cf ce 3d d9 15 1d 3d 3a 3c 12 bd 71 af 61 3d
       0.10098094 0.038350914 -0.035701968 0.055098955
0002b0 cb 1b 7d 3c 35 5c 15 3d 4a 56 a4 bc 18 b7 19 bd
       0.015448521 0.03646489 -0.020060677 -0.037528127
0002c0 11 a0 bf b9 68 03 10 3c 16 41 c0 3b e1 71 d9 3c
       -0.00036549618 0.008789875 0.005867134 0.02654356
0002d0 15 7b 59 3d 18 fa a0 3d 0d 2e d6 3c e4 2b a0 3c
       0.053095896 0.078602016 0.026145006 0.019552179
0002e0 ea 6b a3 bb a9 d8 8f 3c 19 45 da 3c cc 34 81 bd
       -0.0049872296 0.017559366 0.026644276 -0.06308898
0002f0 fe 71 1e bd c5 12 a0 bd 2e ba 46 bd 36 82 71 bd
       -0.03868293 -0.0781608 -0.0485174 -0.05896207
000300 73 42 23 bd db 47 9a bd 83 98 13 bd 7b e3 62 bd
       -0.039858293 -0.075332366 -0.03603412 -0.055392724
000310 56 1a a2 3b ae 02 07 bc 98 ec b4 bc 31 74 4c 3d
       0.004946987 -0.008240385 -0.022085473 0.049915496
000320 f8 a9 fb bc fb 69 84 bd 6b 04 79 bd 83 51 72 bd
       -0.030720696 -0.06465527 -0.06079523 -0.059159767
000330 1a bf 5d bd be 2f 97 bc 73 7c 8f bc 03 9b 0f 3c
       -0.054137327 -0.018455382 -0.017515397 0.008764985
000340 21 d7 ec bc 1d ca 84 bd 13 76 92 3c 51 47 4e 3c
       -0.028911175 -0.064838625 0.017878568 0.012590245
000350 46 1c e4 bc 2f 34 fd 3b bf b6 97 bb 1d be 9a bd
       -0.027845513 0.007727168 -0.0046299393 -0.075557925
000360 3e 93 77 bd f1 e2 32 bd 4d d2 79 bd 99 05 61 bd
       -0.060443155 -0.04367346 -0.060991574 -0.05493698
000370 ce b9 27 bd 16 e1 cc bd 5f da d8 bd 86 ed c2 bd
       -0.04094868 -0.10003869 -0.10588526 -0.0951796
000380 a7 b5 74 bd b6 a0 2f 3d fc 08 bc 3c 2f 6a 9b 3c
       -0.05974355 0.042877875 0.022953503 0.01897153
000390 db df ad bc e2 78 4a bc dd 45 ed 3c 81 06 69 bd
       -0.021224907 -0.012357922 0.028963977 -0.05689097
0003a0 2f 81 c7 bc fe 66 b0 3b 3b 64 b9 ba af 55 83 bd
       -0.024353592 0.0053833714 -0.0014144251 -0.06412827
0003b0 5e 54 f6 bd 7b 30 cd bd 48 37 cd bd 55 47 b7 bb
       -0.120278105 -0.100190125 -0.1002031 -0.0055932202
0003c0 d2 47 1a 3d 80 f2 51 3d a7 dd c0 3d ff 3f 98 3d
       0.03766615 0.051256657 0.09417277 0.07434081
0003d0 91 c0 08 bb 23 e5 5e 3c a7 f1 62 3d 63 b9 4a 3d
       -0.0020866732 0.013604435 0.05540624 0.049493205
0003e0 a0 44 97 b8 50 6e 6e 3d d6 9d 78 bd 0a ac df 3c
       -7.2130235e-05 0.05821067 -0.0606974 0.027303714
0003f0 0b af 1d 3d db f9 06 3d 6c 91 61 bb f9 ae 10 3d
       0.038497012 0.032953124 -0.0034418954 0.035323117

extractor.3.bias f4 [36]
000000 a8 f3 84 bc 86 d2 0e bd d4 26 bf 3c 26 7c b5 bc
       -0.016229466 -0.03486874 0.023333944 -0.022153925
000010 ef e9 d7 bc 16 3b ed bc 3d 8b a8 bb ea ef 79 3c
       -0.026356665 -0.028958838 -0.0051435516 0.015254954
000020 be 4a 0c 3c ee 26 a0 bc 1d b2 9f bc 89 bf 2b 3b
       0.008562742 -0.019549813 -0.01949411 0.0026206693
000030 2f dd 9a bb af a5 d4 bc 75 81 05 bd eb 5c 65 bb
       -0.004726074 -0.02595791 -0.032594163 -0.003499801
000040 a4 08 47 bc 6a 39 0d bd 2d 07 ca 3c 3f 2e fc 3c
       -0.012148056 -0.034478582 0.024661625 0.03078377
000050 14 a9 cf 3c 97 ea c6 3c 11 a1 07 bd ae cf 1a 3c
       0.025349177 0.024281783 -0.03311259 0.009448929
000060 ec 63 19 3d e0 f0 14 bd ac ea fb bc 77 c6 a3 3c
       0.03744881 -0.03636253 -0.030751549 0.019992096
000070 c6 64 9c 3c a8 7c c4 bc 00 c1 26 3d a8 31 1e 3d
       0.019091021 -0.023985222 0.040711403 0.038621575
000080 26 89 e1 bc 0a a4 b2 bb d4 a0 b5 bc 93 dc 0c 3c
       -0.027531218 -0.005451684 -0.022171415 0.008597511

extractor.4.weight f4 [36]
000000 c4 cc 70 3f da a0 82 3f be 04 5c 3f d3 df 79 3f
       0.9406245 1.0205338 0.85944736 0.97607154
000010 3a c2 78 3f e6 69 81 3f c3 3b 79 3f 23 a7 5f 3f
       0.97171366 1.0110443 0.97356814 0.87364405
000020 2b 0e 81 3f 48 c5 7a 3f 3f b7 72 3f 21 a5 60 3f
       1.0082449 0.9795728 0.9481086 0.87751967
000030 e1 aa 82 3f 4c 41 72 3f cb 5a 5c 3f 62 7c 7c 3f
       1.0208398 0.94630885 0.8607604 0.98627293
000040 dd d6 6f 3f 1c 87 7e 3f ea 22 98 3f 41 99 7d 3f
       0.9368723 0.9942491 1.1885655 0.9906197
000050 4a e8 6e 3f 68 3d 6d 3f 89 b1 87 3f 75 4e 77 3f
       0.93323195 0.92671824 1.0601054 0.9660409
000060 7b 13 85 3f 38 00 77 3f 07 17 7a 3f 27 44 70 3f
       1.039657 0.9648471 0.97691387 0.9385399
000070 3a 4a 81 3f 1d 49 7c 3f 0b fa 70 3f 9e c0 78 3f
       1.0100777 0.9854906 0.94131535 0.9716891
000080 34 0e 80 3f 13 ca 74 3f 92 68 7d 3f b1 53 74 3f
       1.0004334 0.9562084 0.98987687 0.954402

extractor.4.bias f4 [36]
000000 66 83 ff bd e9 34 05 bd fa d0 1e be d1 55 a9 bd
       -0.12476234 -0.032521162 -0.15509406 -0.08268321
000010 bb 48 0d be db c3 a0 3d b8 81 f3 bd 66 5c c2 bd
       -0.13797276 0.078498565 -0.11889976 -0.0949028
000020 1e 27 f8 bd ba 7d 30 bc 1d 8c a1 bd 8f c1 ca bd
       -0.12116836 -0.010772163 -0.078880526 -0.099001996
000030 d7 e7 40 be 4f 70 4e bd 56 44 09 be e1 cf 69 bd
       -0.1883844 -0.050400075 -0.13404974 -0.057083014
000040 80 86 1d be 37 0e 68 bc c1 96 c8 bd af 44 1d be
       -0.15383339 -0.014163545 -0.09794379 -0.15358232
000050 c7 c8 c0 bd de 1f c6 bd 8c 3a f2 bd 8e 64 e9 bd
       -0.09413295 -0.09674047 -0.11827573 -0.113961324
000060 4a b3 2e 3c ce 9e 33 bd 0e 1d 31 be 90 46 c6 bd
       0.010662863 -0.04385262 -0.1729624 -0.096814275
000070 31 b2 41 3c f7 63 17 be 33 a4 53 bd c9 6c 8f bc
       0.011822269 -0.14784227 -0.051670264 -0.017507927
000080 29 70 cf bd 0d e3 5f bd dc 09 31 be c0 9a 5b bd
       -0.10128815 -0.054659892 -0.17288917 -0.053614378

extractor.4.running_mean f4 [36]
000000 cb 24 e9 bf 93 5a 47 bf 52 18 01 c0 25 4e 2f c0
       -1.8214353 -0.7787258 -2.0171094 -2.7391446
000010 73 d8 e2 bf 3b d9 49 bf 19 8f 12 3c 64 b4 49 bf
       -1.7722305 -0.7884709 0.00894525 -0.7879088
000020 8e 13 6a 40 9f e2 78 c0 b0 94 e5 be 25 e7 9c 3e
       3.6574435 -3.8888319 -0.44840002 0.306451
000030 37 9f 7b bf cc c3 c7 bf 32 fb c6 bf fc 57 08 c0
       -0.9828982 -1.5606627 -1.5545409 -2.1303701
000040 29 0a 8b bf 34 13 f3 bf 92 90 34 bf 65 a5 44 40
       -1.0862476 -1.8990235 -0.70533097 3.072595
000050 54 0a 36 bf 52 a2 a6 bf ce a5 37 3f 86 86 43 40
       -0.7110951 -1.3018286 0.7173737 3.0550857
000060 41 de f5 3e 43 c8 9d bf 09 a7 61 3f be 0b 82 c0
       0.4802113 -1.232674 0.881455 -4.0639334
000070 4e a2 f8 bf 2e d4 21 3f 44 b8 3d c0 45 5e 39 c0
       -1.9424531 0.63214386 -2.9643717 -2.8963788
000080 39 af 8b bf d2 d8 58 c0 da ff 70 3f fc a9 96 bf
       -1.0912849 -3.3882337 0.941404 -1.1770625

extractor.4.running_var f4 [36]
000000 5e 6c 30 40 d8 5d 53 40 40 ce db 40 aa fd f5 3f
       2.7566142 3.3026028 6.868927 1.9218037
000010 e6 91 e2 40 7a d5 0c 41 1d aa 84 40 c7 d7 8f 40
       7.08031 8.802118 4.145766 4.49509
000020 d5 c2 7f 41 4e d2 0b 41 46 2a c6 3f 9d bf 4a 40
       15.985066 8.738844 1.5481651 3.1679451
000030 7b 47 4c 41 fe d6 fe 3f 29 03 a5 40 ae 9c c0 40
       12.767451 1.990936 5.1566358 6.019126
000040 af 4e ee 3f 62 d8 33 40 5f a7 15 3f bf 42 8e 40
       1.8617762 2.810082 0.58458513 4.4456477
000050 4d 35 37 40 00 ae 6c 40 9b eb 7f 40 0a 43 84 41
       2.8626282 3.69812 3.9987552 16.532734
000060 f7 46 b4 40 aa 67 08 40 aa 58 c7 40 4a 19 c7 40
       5.6336627 2.1313272 6.2295732 6.221837
000070 14 d8 2b 40 4a 7e eb 3f 76 83 ed 40 24 01 42 40
       2.6850634 1.8397915 7.4222975 3.0313196
000080 89 08 2c 40 2a aa 94 40 68 d3 93 40 74 6d 65 40
       2.688021 4.645772 4.6195564 3.5848055

extractor.6.weight f4 [48, 36, 3, 3]
000000 f7 be 82 bc a8 a4 28 3c 3b c2 20 bd f5 a3 c8 3b
       -0.0159602 0.010293163 -0.039247733 0.006123061
000010 db 8a ef bc 5e 9f 97 3c 31 0e 5c bc b6 68 a3 bc
       -0.029241016 0.01850861 -0.013431118 -0.019947391
000020 6f cb 07 3d e5 9a f6 ba fa b5 2f bc 1d ac b6 bd
       0.033152994 -0.0018814473 -0.010724539 -0.08919547
000030 e1 d6 84 3d 84 00 21 3b 13 0e 01 3d f7 5b aa bc
       0.064862974 0.0024566958 0.031507563 -0.020795805
000040 f9 f7 77 bd fe c0 e7 ba d7 85 3f bb dc de 79 3d
       -0.06053922 -0.0017681418 -0.0029224062 0.06100355
000050 bf be 5b bd 17 20 8a bd 67 32 7f 3d e2 ae 2b bd
       -0.053648707 -0.06744402 0.062303927 -0.041914828
000060 b1 e5 57 3d f9 89 19 3a 04 9e df 39 9a d5 5c 3d
       0.052709285 0.00058570463 0.00042651605 0.053914644
000070 0b e1 ae 3d 19 cb 62 3d a8 bb 92 3c aa 0e 2e 3d
       0.08539017 0.05536947 0.017911747 0.042494453
000080 17 59 eb 3c 59 8d 14 bd 88 d5 c4 bc 34 a7 10 3d
       0.028729005 -0.036267612 -0.0240276 0.035315707
000090 af eb 43 3c 5c f7 44 3d 09 b5 30 bd 4c 4b 26 bc
       0.011958047 0.048087463 -0.0431414 -0.010149788
0000a0 c0 2f 8c 3d 0e 34 a8 3c b0 61 42 bd 20 50 cc bc
       0.06845045 0.020532634 -0.047456443 -0.02494055
0000b0 f8 88 80 bd 34 7a c6 bc 8c 25 73 3b ef 42 5c bd
       -0.06276125 -0.024228193 0.0037101237 -0.05377477
0000c0 50 af ac 3b be 09 26 3c c1 a4 be 3c 8c 26 66 bb
       0.0052699223 0.010134159 0.02327192 -0.003511819
0000d0 1b e0 7e 3d 6c d7 a7 3d 89 3c e8 3b df 83 61 3d
       0.062225442 0.08195385 0.0070872945 0.055057403
0000e0 b6 b9 43 bd 8b dc b9 bc d3 15 0c 3d 6f 5f 8e bc
       -0.04778453 -0.02268817 0.0342005 -0.01737949
0000f0 17 83 df 3c 80 46 2d 3d 29 52 7b 3d 6f 98 fa bb
       0.027284188 0.042303562 0.06135765 -0.007647566
000100 49 9c 0c bd 80 08 a9 3c 17 c5 be bc 86 8c 7d bc
       -0.034328733 0.020633936 -0.02328734 -0.015475398
000110 ce 30 74 bc e3 f0 be bc 70 1d ba bc 5a 65 69 bc
       -0.014904214 -0.023308223 -0.022719115 -0.0142453555
000120 31 26 99 3d 9d 4b 99 bc 13 24 2f 3d 24 78 a6 3b
       0.074779876 -0.018712813 0.042759012 0.00508024
000130 81 f0 49 3d 04 0f 6b 3d 5a 4f 71 3c 30 bc 07 3d
       0.049301628 0.057387367 0.014728392 0.033138454
000140 9c 27 86 3c 0a fe 06 3c b1 33 b9 3c 04 c2 a9 3c
       0.01637631 0.008239279 0.022607656 0.020722397
000150 f7 0e 6e 3c 8b b2 ed 3a a0 c3 68 3d 51 64 5c 3d
       0.014529935 0.0018134875 0.056827188 0.053806607
000160 55 91 76 3d f8 7f ab 3c ce 8d 72 3d 38 52 84 3d
       0.060197193 0.020935044 0.059217267 0.064609945
000170 e7 65 64 3d da a0 9a 3d a6 c1 dc 3c 86 8b 7a bc
       0.055761244 0.07550211 0.026947808 -0.015292054
000180 35 5d a2 3c ae 90 a6 3d ac 5f 22 3c 11 5b 57 bd
       0.019819835 0.08133064 0.009910505 -0.052577082
000190 ab 69 8e 3c c8 24 22 bd 95 8d ce 3c f7 b7 93 3c
       0.01738437 -0.03958586 0.025213996 0.018032057
0001a0 c6 da 25 bd 14 2b b7 bb 9e 23 f0 3c 9a e9 35 3d
       -0.04049184 -0.005589852 0.029313859 0.044412233
0001b0 43 2b 84 3c b4 d0 25 3d d3 39 27 bd dd 06 21 bd
       0.01613391 0.040482238 -0.04082663 -0.039313186
0001c0 d4 6e af bd 15 1d 97 bd 74 85 c3 3d 26 e2 6d 3d
       -0.08566061 -0.07378594 0.095469385 0.058077
0001d0 07 3d 1d 3d 02 b6 c3 3c b0 f8 ef 3a ac 20 89 3c
       0.03838828 0.023890499 0.0018308368 0.016739212
0001e0 08 a0 c1 3c bb 8d ac 3d e0 3a 89 3d e3 08 7f bb
       0.02363588 0.084254704 0.06700683 -0.003891521
0001f0 8d 33 be 3c dc 4f 04 3d cb af 42 3c 05 1e ed 3c
       0.02321794 0.032302722 0.011882733 0.028944978
000200 0b 52 ea 3b 98 03 d9 3d e2 88 83 3c cb b8 b1 3d
       0.0071508936 0.105963886 0.016056482 0.086778246
000210 7e 89 28 3c 50 f1 d5 3c 93 eb bf 3d a6 4e f7 bc
       0.010286687 0.026116043 0.09371104 -0.03018887
000220 ab 6d 3b bd 06 00 5f bd 60 ed 48 3c bd 8e 1f 3d
       -0.045758884 -0.05444338 0.012263626 0.038954485
000230 c0 0e 98 bb 0e ed a4 3d 09 89 e2 bc 64 bd 71 bd
       -0.00464043 0.08053027 -0.027653234 -0.059018508
000240 2f e7 0d 3d fd 07 29 bd d6 cd c2 3c 64 9c 2b bd
       0.034644302 -0.041267384 0.02377979 -0.041897193
000250 eb 34 07 bd 00 c7 8b bd db e6 37 3d 0d bb f2 bc
       -0.03300945 -0.068250656 0.044897895 -0.029630208
000260 7c 5d 11 3c a2 01 21 bd 5b 76 8c 3d da e2 32 bc
       0.008872386 -0.039308198 0.06858512 -0.010918343
000270 06 5f 41 3c d8 d6 47 3d 1b d2 fe 3c f8 ce a4 3d
       0.0118024405 0.048788875 0.031106045 0.08047289
000280 07 9c 47 3d d2 2b c2 3b c2 1e 8a 3d b2 70 10 3c
       0.048732784 0.005925634 0.06744148 0.008815931
000290 b1 c5 81 bb 78 2c b0 bd 7a 02 00 be 97 40 d2 bd
       -0.003960334 -0.08602232 -0.12500945 -0.10266226
0002a0 28 80 49 3e f0 af 87 ba c8 6e c3 3d 08 97 f4 3c
       0.19677794 -0.0010352116 0.09542614 0.029857174
0002b0 32 a6 e2 bc 1d 75 71 bc 83 bd 33 bd 74 c3 9d bd
       -0.027667139 -0.014737395 -0.043881904 -0.07703295
0002c0 39 1d 57 bd e7 8a 2c 3d 9a d0 18 3d 27 ae ad 3d
       -0.052518103 0.042124655 0.037308313 0.084804825
0002d0 44 21 7a bd 2e 04 5d bd b1 c2 48 bc 96 0d 4d 3d
       -0.06106688 -0.053959064 -0.012253449 0.050061785
0002e0 79 26 90 3d d9 1b 04 3d 33 d1 1d 3d d9 78 22 bc
       0.07038588 0.03225312 0.038529586 -0.009916508
0002f0 a2 5e d2 3c ff 7b 08 bd 55 23 96 bc 64 77 49 bc
       0.02567989 -0.033321377 -0.018327395 -0.012296531
000300 c7 8f 2b bc 16 fe b0 3b 03 8f a1 3d b4 be a2 bd
       -0.010471291 0.005401383 0.078886054 -0.0794653
000310 cb 57 f4 bc 35 d7 40 bd 60 ea 92 3d 19 9d 17 bc
       -0.02982702 -0.047080237 0.0717361 -0.009253764
000320 4f bc 52 3c cc 36 30 bd f7 02 19 bd 0a 51 ba 3c
       0.012862279 -0.04302101 -0.037356343 0.02274372
000330 4d 8d 0b 3e 95 23 3e 3d fb 2e f7 3d 0a ab c4 3c
       0.1362812 0.046420652 0.12069508 0.024007339
000340 4f c3 be ba 04 72 28 3d 44 00 19 bc ac be 77 3d
       -0.0014554056 0.04112436 -0.009338442 0.060484573
000350 b0 e3 82 3d ba 41 9c 3c 76 50 67 bb b6 37 88 3d
       0.06391084 0.01907431 -0.0035295761 0.06651251
000360 b1 be a6 3c ca f4 a3 3b 0f dc 66 bd 53 ae 6f 3b
       0.0203546 0.0050035464 -0.056362208 0.0036572411
000370 c2 62 83 bb 2e b0 0b bc 9c b8 23 3d af 5c 69 bb
       -0.0040095756 -0.008525891 0.03997098 -0.0035608222
000380 fe cc 95 3d 03 95 47 bd bf fa 42 3d e1 cb a6 3b
       0.0731449 -0.048726093 0.04760241 0.005090222
000390 93 2d aa 3c 7d d6 0e bd 15 a6 3e 3d 44 23 31 3c
       0.020773685 -0.03487252 0.046545107 0.010811631
0003a0 cf 4f 11 bd 62 9c f4 bc 42 f1 be bd 0c d5 9d bd
       -0.035476502 -0.029859725 -0.0932336 -0.07706651
0003b0 2f 67 a8 bd 92 1f c3 3d 4d dd b0 3d 3e 8a 8c 3d
       -0.08222806 0.09527506 0.0863596 0.06862305
0003c0 a3 a1 e8 ba 97 ac 84 bc 5f 92 84 bd 36 6f 8b bb
       -0.0017748367 -0.016195579 -0.064732306 -0.0042552007
0003d0 39 a1 d1 bb 1f db 80 3c 0e 48 9c 3c d9 b5 65 bc
       -0.006397393 0.015729485 0.019077327 -0.014020407
0003e0 32 e6 5a 3d a4 8b 2e bd 0c 73 a7 3c f8 86 71 bd
       0.053442188 -0.04261364 0.0204406 -0.058966607
0003f0 c4 ef 32 bd f0 38 93 3c 74 83 e6 3c 33 1b b8 3c
       -0.04368569 0.017971486 0.028138854 0.022473907

extractor.6.bias f4 [48]
000000 7d 1c d5 3b 20 a2 3f bd 50 28 5b bb 29 dc 2e bd
       0.00650364 -0.046785474 -0.0033440776 -0.04269043
000010 1d a5 32 3d c9 e6 1f bc 81 60 84 bb b7 23 63 3d
       0.043614496 -0.009759613 -0.0040398245 0.055453982
000020 15 bc 1f 3c ac 9f d1 3c 73 7a 42 bd e1 39 35 bd
       0.009749432 0.025588833 -0.047480058 -0.04424465
000030 41 a9 f0 3c bf 84 e2 3c 8f 2a 4f bd ef ee 2c 3d
       0.029377582 0.027651189 -0.050577696 0.042220052
000040 e6 95 60 bc 3f 6e 11 3d ae c1 5a 3d 09 b4 2b bd
       -0.013707614 0.03550553 0.053407364 -0.04191974
000050 07 4e cf 3b d4 58 54 bd 52 1d d3 bc 53 f7 94 bc
       0.0063264403 -0.051842526 -0.025770817 -0.01818434
000060 00 39 bc bc bc 42 07 3d 2a 4b 77 3c 5c 2e dc 3c
       -0.022976398 0.033022627 0.015093604 0.026877575
000070 72 db d1 3c 4f f4 7d 3c 70 8e b7 3c 43 f9 ab bc
       0.025617335 0.015500142 0.022406787 -0.02099288
000080 d7 87 37 3d 87 f3 26 3c 41 ba 3a bc 07 4f 21 3a
       0.04480728 0.010189897 -0.011396945 0.00061534386
000090 d3 1a 8b bc 30 dd 24 3c e8 8b 40 3d a4 af 35 bd
       -0.016980564 0.010062501 0.047008425 -0.044356957
0000a0 13 22 39 bd 88 a3 af bc 8e 9c 17 3b b2 f1 27 3d
       -0.04519851 -0.021440282 0.0023134085 0.041001983
0000b0 60 ab 08 3d 05 c2 4a 3d f0 1f ab 3c f9 c9 25 bd
       0.03336656 0.049501438 0.020889252 -0.04047582

extractor.7.weight f4 [48]
000000 98 e2 76 3f d3 68 7a 3f 23 a4 79 3f c3 1e 75 3f
       0.96439505 0.978162 0.9751608 0.95750064
000010 6f 73 80 3f 04 57 78 3f fa 18 7b 3f bd 3b 74 3f
       1.0035228 0.97007775 0.98084986 0.95403653
000020 3d 44 6c 3f 1e 84 78 3f 02 1b 7e 3f 3c f5 73 3f
       0.92291623 0.97076595 0.9925996 0.9529607
000030 d6 c9 74 3f 0f a6 86 3f e0 9e 83 3f 19 60 85 3f
       0.9562048 1.0519427 1.028286 1.0419952
000040 12 33 7f 3f 81 2b 7c 3f e4 49 80 3f cb d2 79 3f
       0.996873 0.9850388 1.002255 0.9758727
000050 9f 34 79 3f 9c 19 73 3f b7 91 81 3f 29 14 78 3f
       0.9734592 0.9496095 1.0122594 0.9690576
000060 42 b5 83 3f fc 33 85 3f 0a 60 80 3f 24 f4 80 3f
       1.028969 1.0406489 1.0029309 1.0074506
000070 ca 33 7c 3f 8a d6 7f 3f 4d 2c 72 3f 39 b6 76 3f
       0.98516524 0.99936736 0.9459885 0.963718
000080 ba 82 86 3f 4b 53 7a 3f 71 40 7b 3f c3 85 81 3f
       1.0508645 0.97783345 0.98145205 1.0118946
000090 1d 59 86 3f 5e 8f 77 3f e9 da 82 3f 1a 9f 70 3f
       1.0495945 0.96703136 1.0223056 0.9399277
0000a0 ec a8 7c 3f 11 79 5e 3f 36 7a 84 3f 71 73 84 3f
       0.98695254 0.8690348 1.0349796 1.034773
0000b0 df 78 80 3f 4c 62 7a 3f 07 be 78 3f 88 c0 7a 3f
       1.0036887 0.9780624 0.9716496 0.9795003

extractor.7.bias f4 [48]
000000 34 67 89 be 3c ea 94 be cb 1f 75 3b ad e9 7c bd
       -0.2683655 -0.29084957 0.0037402983 -0.061746288
000010 58 9c 57 3a 91 58 5b be 77 a2 83 bd 7b db 41 bd
       0.0008224896 -0.21420504 -0.06427472 -0.047328454
000020 23 30 98 bd b4 8a 9a be 1e 89 19 3c c6 98 b4 bd
       -0.07431056 -0.30183947 0.00937107 -0.08818202
000030 23 46 9b be 01 63 59 bd d0 5a 4d 3d 94 ea af bd
       -0.30326948 -0.053072933 0.050135434 -0.08589664
000040 e3 51 a6 3a 76 66 08 bd 2e cd 7f bb 19 0c 94 bd
       0.0012689199 -0.03330084 -0.0039032209 -0.0722887
000050 4a af ff bc 7f 52 c2 bd 27 96 6e be 65 b4 a1 bd
       -0.031211514 -0.09488391 -0.23299466 -0.07895736
000060 55 82 5d bd 81 ff 8a 3c f1 95 7d 3c a8 e2 68 be
       -0.054079372 0.016967537 0.015477643 -0.22742712
000070 10 57 10 be 2b a3 c1 bd 43 25 36 bd 31 70 d4 bd
       -0.14095712 -0.0945495 -0.04446913 -0.10372961
000080 2a 07 81 bd 53 a6 46 bd 15 ec 9d be 43 a5 6f be
       -0.063001946 -0.048498463 -0.3084418 -0.23402886
000090 fb 77 36 bd 08 21 a2 be 87 ab 8d bc ef be b6 bd
       -0.044548016 -0.31665826 -0.017293705 -0.089231364
0000a0 4b 82 c2 bc 41 e0 ed bd 20 06 44 bd 62 3d 0a 3d
       -0.02374377 -0.11615039 -0.047857404 0.033749945
0000b0 25 a3 93 bc 42 08 c6 bd b9 1a 31 be b7 c2 48 be
       -0.01802213 -0.09669544 -0.1729535 -0.19605528

extractor.7.running_mean f4 [48]
000000 02 71 7f 3f b7 e1 b8 3e a3 e1 7c bd 7f 21 92 3e
       0.9978181 0.36109707 -0.06173862 0.2854118
000010 38 0b 47 bf 63 0c 98 bf 33 25 66 3e 7a 31 85 3e
       -0.77751493 -1.187878 0.22475128 0.2601431
000020 bf 24 46 bf 40 00 81 3f de c5 0f c0 85 4f 49 bf
       -0.7739982 1.0078201 -2.2464519 -0.7863696
000030 3e f8 2a 3f 65 16 f3 be 44 eb c3 be 75 6c dd be
       0.6678504 -0.47478023 -0.3826543 -0.4324681
000040 ee df 15 c0 e8 08 a9 bf dc 84 5a bf 02 89 ea 3d
       -2.3417926 -1.3205843 -0.8535898 0.114519134
000050 28 f0 77 bf c0 dd 9e bf 19 8e ed 3e b6 91 96 3f
       -0.96850824 -1.2411423 0.46397474 1.1763217
000060 7c 1f f5 3f 3c a5 cf 3e e7 49 65 bf 60 58 e3 3d
       1.9150233 0.4055575 -0.8956589 0.111008406
000070 58 f1 ea bf bb 53 13 3f b9 1a a6 bf cd a0 28 3f
       -1.8354902 0.5754964 -1.2976905 0.6587036
000080 3e c7 4e 3f 7d 00 a7 be 65 67 8f 3e ed 47 94 3e
       0.8077277 -0.3261756 0.2800857 0.28961125
000090 5a 14 95 3f fe 59 89 3f 0a 33 c2 be 73 ea 95 bf
       1.1646836 1.0730588 -0.37929565 -1.1712173
0000a0 d3 fd bb bf 85 16 3b 3f 6e fd 29 3f 47 98 3f 3f
       -1.4686836 0.7308124 0.6640233 0.7484173
0000b0 39 0f cd 3e 8a 95 e3 bf 8a 4b a5 bf 19 7a 3a 3f
       0.40050676 -1.7780011 -1.2913678 0.72842556

extractor.7.running_var f4 [48]
000000 58 32 e2 3e b0 53 58 3f c3 f1 5b 3f 5e ec 13 40
       0.44179034 0.84502697 0.85915774 2.3113017
000010 f7 a7 66 3f 4a aa 57 3f bd e2 ff 3f 87 db f1 3f
       0.90100044 0.84244215 1.999107 1.889512
000020 d5 f5 7b 40 28 fc 9d 3e b0 09 b9 3f 68 92 01 3f
       3.9368794 0.30856442 1.4456081 0.50614023
000030 02 50 ae 3e 3d 12 82 3e 00 c6 63 3f 74 38 c6 3e
       0.34045416 0.2540454 0.88974 0.38714945
000040 05 fd c6 3f 8b 71 27 40 a2 35 83 3f 0a 7e e9 3e
       1.5545965 2.616305 1.0250742 0.45603973
000050 48 2d 7e 3f 97 fa 12 40 3a 51 37 3f dc 8f 1e 40
       0.99287844 2.2965448 0.71608317 2.4775305
000060 54 98 7d 3f ca 08 ea 3f 40 d7 54 40 59 33 c5 3e
       0.9906056 1.8283932 3.3256378 0.38515738
000070 8d f3 4b 3f 47 91 5f 3f 3c 82 e0 3f f7 f6 3a 3f
       0.79668504 0.8733105 1.7539744 0.7303309
000080 76 ff 12 3f 38 79 e7 3f 5d 03 03 3f 8a 7d 3c 3f
       0.5742105 1.8083868 0.51177007 0.7362906
000090 30 e4 99 3f 1c 29 13 3f 25 14 8c 3f 48 ba 39 40
       1.2022762 0.574846 1.0943648 2.9019947
0000a0 1c 37 f7 3f 69 b5 02 40 91 7b 71 3f 3b e2 76 3f
       1.9313693 2.0423224 0.9432917 0.9643895
0000b0 66 33 e0 3f 95 9c 91 3f 62 fb 28 3f 32 58 84 3e
       1.7515686 1.137591 0.6600858 0.25848538

extractor.9.weight f4 [64, 48, 3, 3]
000000 91 2b 7f bc b1 35 85 3c 51 aa 90 3c a8 04 30 3c
       -0.015574352 0.016260954 0.017659338 0.010743298
000010 f5 1f 8b bc 2d f2 77 bc 21 ea d8 bc 07 15 c4 bd
       -0.016983012 -0.015133423 -0.026478829 -0.09574323
000020 f7 24 31 bd d7 7d 00 bb a8 3c 0e bd 8e c3 14 bd
       -0.043248143 -0.0019606256 -0.034725815 -0.036319308
000030 5c 1a 05 bb f5 91 b3 3b 46 bd e1 bb 63 af ef bc
       -0.00203099 0.005480046 -0.006889018 -0.029258436
000040 35 c9 c6 bd 1f e1 ba bd 2e 66 e0 bc 61 58 70 3d
       -0.09706346 -0.0912497 -0.027392473 0.058678035
000050 df 0a 2b bd 1f 83 58 bb cf 0d 04 bd 39 e7 ce bc
       -0.041758414 -0.0033037139 -0.03223973 -0.02525674
000060 cf d2 01 bd 0d 2e c2 bc 85 42 26 3d cd 01 54 3c
       -0.031695183 -0.0237036 0.04059078 0.012939882
000070 a5 fa 3c bd 86 a1 50 bd 4f 9a 21 3d b3 89 9a 3b
       -0.04613747 -0.05093529 0.0394538 0.004716122
000080 46 c0 b6 bd 08 30 8a bd b0 bc 0b bd 9f 84 42 bd
       -0.08923392 -0.067474425 -0.034115493 -0.04748976
000090 53 d1 c4 3b 42 ab ad bc f8 36 36 3d 33 71 2e bd
       0.0060063987 -0.021199826 0.044486016 -0.042588424
0000a0 a4 96 15 3b c2 5c 0f bd a7 94 77 3c 2d 4e ca bc
       0.0022825385 -0.03500057 0.015111125 -0.02469548
0000b0 8b ce 90 bc df 43 04 be 4a f2 e1 bd dd 16 84 bd
       -0.017676612 -0.12916516 -0.11032541 -0.06449673
0000c0 8f 7c 1d bd 3a d2 36 bc 7d 9b 60 3c 4f 2a 93 bd
       -0.038448866 -0.01115852 0.013708946 -0.07185804
0000d0 96 1b 11 bd db a4 1b bd 0a 1c 88 bd fd 21 85 bd
       -0.0354267 -0.037999015 -0.06645973 -0.065006234
0000e0 45 92 8a bd 0e d4 39 bd 66 24 8e 3c ee 19 bb bd
       -0.0676618 -0.045368247 0.01735134 -0.09135805
0000f0 ee 6e ae bd fd 84 08 bd a3 da ef bd 94 f4 64 3d
       -0.08517252 -0.033329953 -0.117116235 0.05589731
000100 63 e6 bd 3b c0 88 8b 3c 9e d2 bf 3c 9b 7a e4 3c
       0.0057952865 0.01703298 0.02341586 0.027890494
000110 b5 25 68 3d ee dc 59 3a d7 de a4 3d cd a4 35 3d
       0.056676585 0.0008310814 0.08050316 0.04434662
000120 fe 2e 97 bc dd ab 0c 3d a7 b5 ad 3c 97 22 4d 3d
       -0.018455025 0.03434359 0.021204783 0.050081816
000130 f3 84 79 3c 83 f4 a3 bb b6 41 29 3c d9 73 fb 3b
       0.0152294515 -0.0050035133 0.010330608 0.007673722
000140 fd 60 81 bd 8e 62 36 bd e0 93 61 bc 1a 66 54 bc
       -0.06317327 -0.044527583 -0.013768166 -0.012963796
000150 b4 f1 de bb 5c 0b 00 bc 87 02 26 bd 86 54 36 bc
       -0.0068037156 -0.007815208 -0.040529754 -0.01112855
000160 f8 6c 47 3c 44 bd 90 bb 4b 13 59 bc bc 64 78 bd
       0.012171976 -0.0044170935 -0.013249229 -0.060642943
000170 e0 fd 47 bc 8d 1e c0 bc 73 3f 6a bc 5e de 30 3d
       -0.012206525 -0.023452068 -0.014297354 0.043180816
000180 4a 34 9b bb 60 1b ee 3c a8 79 c6 bc dc 9f 27 3a
       -0.004736458 0.029065788 -0.024227932 0.00063943653
000190 8d 30 78 bd 27 30 b8 bb 98 3f ef 3c 8c b7 25 bc
       -0.060593177 -0.0056209746 0.029205129 -0.010114562
0001a0 a6 22 fe bc 9b 18 5e b9 80 d8 02 bd 40 6b 87 3d
       -0.031022381 -0.00021180736 -0.03194475 0.06612253
0001b0 34 01 13 bd 25 8e 82 bc fb 0b 32 bd 73 39 7e bd
       -0.03588982 -0.01593692 -0.043468457 -0.062066507
0001c0 a6 68 34 bd df 33 c8 bc ba 10 22 bb 4c a8 28 bd
       -0.044045113 -0.024438797 -0.0024729208 -0.041176125
0001d0 95 54 40 bd 6a a9 a7 bd 75 59 1c bd 34 20 46 bd
       -0.046955664 -0.0818661 -0.03817125 -0.048370555
0001e0 72 d6 ce 3d af c4 42 3d 3b 9d ee 39 9d 7d a3 3d
       0.10099496 0.047550853 0.00045512043 0.07982943
0001f0 89 b4 89 3d 3d 0f 40 3d d6 8b a1 bd 80 a2 c3 bd
       0.067238875 0.046889532 -0.07888 -0.09552479
000200 c6 8e 27 bc f0 7e 4f bd 56 13 8d bc 99 2d 82 3d
       -0.010226911 -0.050658166 -0.017221134 0.06356353
000210 c3 c0 27 bd 06 d5 d1 bc 5d 39 cf 3c 20 17 c5 bc
       -0.040955316 -0.025614273 0.025295908 -0.024058878
000220 8f f1 31 bd 89 ec 48 3d 5c 2b 8c 3d ba 6f 81 3d
       -0.04344326 0.049053703 0.06844208 0.06320138
000230 d5 d2 81 3c b0 d3 64 3d fc 81 00 3e 0a 3c f4 3d
       0.015847603 0.055865943 0.12549585 0.11925514
000240 7f 60 a1 3c 32 9e 4c bd f3 32 18 3d bf 2c 4e 3b
       0.019699333 -0.049955554 0.037157964 0.0031459776
000250 3b 3e df 3c d4 dd 1a 3c e7 2a 35 bd ed 67 22 3d
       0.027251353 0.009452302 -0.044230368 0.039649893
000260 f9 c7 fc bc 15 71 90 bd 49 52 9e bd 11 50 ee bd
       -0.030857073 -0.07052819 -0.077305384 -0.11636365
000270 ec 2e fd 3c 9b cb 67 bd 6e 6e a1 bd 19 94 90 3c
       0.030906163 -0.056590658 -0.07882391 0.017648743
000280 40 75 4c bd 9b f6 52 bd 1f d2 e7 bc 15 09 04 3d
       -0.049916506 -0.051504713 -0.028298436 0.032235224
000290 c3 fc 19 bc 47 80 7d bd 77 02 58 bd 0b f8 ba bb
       -0.009398642 -0.061889913 -0.052736726 -0.0057058386
0002a0 62 c5 4c bd 6b 6f bc bc 33 bd 5b 3b 90 a4 27 bd
       -0.049992926 -0.023002347 0.003352952 -0.040928423
0002b0 5b 84 99 bc 52 2e 85 3c 5f c7 fe 3c 1b 0b 98 bd
       -0.01873987 0.016257439 0.031100927 -0.07423993
0002c0 9e 1d 47 bc 9b c3 8d 3d 64 f6 b5 3c c2 06 82 3b
       -0.012153057 0.069220744 0.022212215 0.0039680908
0002d0 16 f8 3b 3c 91 f6 99 bb 77 ab 24 3c 0b f7 14 3c
       0.0114727225 -0.0046985825 0.010050646 0.009092103
0002e0 ea d1 22 3d e0 a3 ec ba 6d 09 21 3d 5b 99 31 bd
       0.03975097 -0.001805421 0.03931563 -0.04335914
0002f0 54 63 4b 3d ba e1 a0 3b 1f 36 38 bd ca 18 a3 bb
       0.049655274 0.004909721 -0.04497349 -0.0049773203
000300 a2 cd c3 3c 16 8c 30 3d a9 15 4b bd fe dd b2 3b
       0.023901764 0.043102346 -0.049581204 0.0054585924
000310 0f 6e ae 3c fa 60 9a bc 29 d1 dd bd c2 1e 98 bd
       0.021292714 -0.01884507 -0.1083091 -0.074277416
000320 21 ce b9 bc a0 a2 0e 3c c1 a3 b0 3c e5 1b 92 bc
       -0.022681298 0.008705765 0.021562459 -0.017835567
000330 14 f8 06 bd 6d a2 c6 bd 11 b9 51 bd 35 00 b8 bc
       -0.03295143 -0.09698949 -0.051201884 -0.022461036
000340 10 9f ad bd 0f c1 54 bd 62 a1 06 bc 2a 60 e3 bc
       -0.084776044 -0.051941928 -0.008217188 -0.027755816
000350 78 96 47 bd 6a 51 c3 3d 0a 98 a1 3c c7 4e 75 3d
       -0.048727483 0.09537013 0.019725818 0.05988958
000360 84 70 7c 3d b5 a0 cb bc 67 28 13 bd 0c 98 11 bd
       0.06163074 -0.024856905 -0.035927203 -0.035545394
000370 67 06 33 bd ea 99 48 bd 66 48 93 bd 94 f5 bb bd
       -0.043707278 -0.04897491 -0.07191543 -0.091777
000380 dd d5 9d ba 14 69 c5 3c a1 ca c2 3d 06 7b 0a 3d
       -0.0012041886 0.024097957 0.09511305 0.03380873
000390 ab 8b 59 3c 73 1b 8b 3a 24 1e 38 bd bb 80 19 bc
       0.013277928 0.0010613039 -0.04495062 -0.009369071
0003a0 a3 29 64 3c 00 55 fa 3c 78 fe af bc 5c b6 16 3d
       0.013925943 0.03055811 -0.021483645 0.036795005
0003b0 80 4a 30 bd 78 b4 15 3d 02 6a 09 3d cb af 2d bd
       -0.0430398 0.03654906 0.033548363 -0.042403977
0003c0 6b b7 83 bc 72 14 61 ba 17 fa 9f bc 83 eb 69 bd
       -0.016078671 -0.00085861154 -0.019528432 -0.057109367
0003d0 ca c7 48 bd 1f d1 2c bd 90 c3 e7 bc 1e b5 00 3b
       -0.04901866 -0.04219162 -0.028291494 0.0019639204
0003e0 7a f2 60 3c 88 06 57 ba 0d e4 fc bc 1a 64 4e bd
       0.013729686 -0.00082025724 -0.030870462 -0.050388433
0003f0 25 4b e7 bd af 13 57 bd 1e 05 02 3a d7 40 c2 b9
       -0.112936296 -0.052509006 0.0004959869 -0.00037050873

extractor.9.bias f4 [64]
000000 ea 93 c2 bb 72 43 85 bc fc f5 08 bc 95 b7 14 bc
       -0.005938043 -0.016267512 -0.0083594285 -0.0090769725
000010 1b 50 16 3d 08 26 4d bc 57 be c0 3c 14 c0 81 3c
       0.03669749 -0.012521274 0.023528261 0.01583866
000020 4f 8b e3 bc b6 2c 05 bd f8 b8 a7 bc ef 35 e4 bc
       -0.027776388 -0.032513343 -0.020473942 -0.027857749
000030 49 46 c5 3c e5 06 03 3d 5d 20 25 3d 73 cf b2 bc
       0.024081366 0.031988997 0.040314067 -0.021827435
000040 ee 79 33 3d 0b a0 99 bc 38 fe 9c 3b 08 54 3c 3d
       0.043817453 -0.018753072 0.0047910474 0.045978576
000050 0b 06 a7 3c 41 fb 4f bc 59 96 11 bd dd 79 16 bd
       0.020388624 -0.012694181 -0.035543773 -0.03673731
000060 94 88 ae bb ef 3f 3c 3d ba 01 c1 3c f4 7d 1d 3d
       -0.00532634 0.04595941 0.023560394 0.038450196
000070 23 24 39 bc 20 dd 05 3d f3 2a b5 3c 83 52 88 3c
       -0.01130012 0.032681584 0.022115206 0.016640907
000080 1b 67 84 3c a6 f4 d0 3b c2 f7 ba bc 6a b8 91 3c
       0.016162446 0.0063768206 -0.022823218 0.01778813
000090 5d a5 37 bc 2f 88 e0 3c b5 eb ef 3c 43 1e 13 bd
       -0.011208859 0.027408687 0.029287199 -0.03591753
0000a0 65 14 38 bd 7d 77 f4 bc a6 7e 09 3d 47 23 d8 bc
       -0.044941325 -0.029842133 0.033568047 -0.026384009
0000b0 6c 4c 1e 3d 34 de fe bc 42 2e 37 bd 00 b1 d9 3c
       0.0386471 -0.031111814 -0.04472185 0.026573658
0000c0 d2 03 1b bd ae 09 e5 3c 07 7e 6e bc 4e 97 38 3d
       -0.03784544 0.027958717 -0.014556414 0.04506617
0000d0 5f 35 e3 3c d3 86 6b 3c 22 ac f2 3c c9 73 39 bd
       0.02773541 0.014375406 0.029623095 -0.045276437
0000e0 ff 0e 35 3d b0 9c 1c bd b4 74 2d bd b8 f5 be bb
       0.044203755 -0.038235366 -0.042347625 -0.005827632
0000f0 d3 b5 bb 3c 94 de 0c bd c0 f4 44 bc 0e 52 13 bd
       0.022913849 -0.034391955 -0.012021244 -0.035966925

extractor.10.weight f4 [64]
000000 30 3f 85 3f 0b 34 82 3f 6e b1 7f 3f b9 8f 84 3f
       1.0409908 1.0172132 0.9988011 1.0356361
000010 25 9d 78 3f 93 b2 74 3f 75 e7 7c 3f 24 fc 7c 3f
       0.97114784 0.9558498 0.98790675 0.98822236
000020 4e 05 78 3f b0 de 70 3f 94 db 7f 3f ac c7 84 3f
       0.96883094 0.94089794 0.99944425 1.0373435
000030 7f 1a 89 3f 9e 17 87 3f 66 ef 6f 3f af 43 79 3f
       1.0711211 1.0554082 0.9372467 0.973689
000040 53 8f 7e 3f 5d e2 70 3f 0c 27 85 3f 77 c4 7b 3f
       0.99437445 0.940954 1.0402541 0.98346657
000050 7e 1a 7f 3f e3 91 8a 3f ee ec 71 3f 26 ad 71 3f
       0.996498 1.0825771 0.9450215 0.9440483
000060 a4 af 77 3f de eb 82 3f df 71 80 3f 0c 32 7e 3f
       0.9675238 1.0228231 1.0034751 0.99295115
000070 17 a0 82 3f 8a 3d 7c 3f 51 cc 7e 3f 1b 55 6f 3f
       1.0205106 0.985314 0.9953051 0.93489236
000080 f8 82 70 3f 9f c2 83 3f 0b 2b 76 3f 7d c3 80 3f
       0.9394984 1.0293769 0.9615943 1.0059658
000090 e9 28 7c 3f 79 19 7f 3f 43 41 76 3f 63 d0 7f 3f
       0.98499924 0.99648243 0.9619333 0.9992735
0000a0 6c a1 68 3f 07 9a 7c 3f d8 e9 77 3f ec 9d 79 3f
       0.9087131 0.9867253 0.9684119 0.97506595
0000b0 eb 8b 75 3f 17 f3 77 3f c9 02 82 3f 67 71 79 3f
       0.9591662 0.968553 1.01571 0.97438663
0000c0 0a 34 8d 3f 27 1f 8a 3f d7 da 82 3f 7a 37 76 3f
       1.1031506 1.0790757 1.0223035 0.961784
0000d0 10 af 82 3f 00 2a 72 3f 47 2c 84 3f 65 8f 83 3f
       1.0209675 0.94595337 1.0326012 1.0278136
0000e0 46 83 71 3f 60 a0 78 3f 3c 04 72 3f 0d 03 85 3f
       0.9434093 0.9711971 0.9453771 1.0391556
0000f0 39 e6 7c 3f ad 26 83 3f e5 4d 72 3f 2f 6a 6e 3f
       0.9878879 1.0246178 0.9465011 0.93130773

extractor.10.bias f4 [64]
000000 73 fc 83 3c 90 ca 0d bd 7a e3 68 be d2 68 c8 bd
       0.016111588 -0.034617007 -0.22743025 -0.09785618
000010 26 76 6a bd 66 3b 3e 3c 01 e5 f4 3b 17 e4 7a bc
       -0.05724158 0.011610841 0.0074735885 -0.01531317
000020 ac 01 87 be 1c e0 ac bd ab 13 9c be 3e df 42 bd
       -0.26368463 -0.08441183 -0.30483755 -0.04757618
000030 33 05 cc bc 99 87 b9 bd 1a 87 a8 bd 6e ee c0 be
       -0.024904823 -0.09059066 -0.082288936 -0.37681907
000040 92 0c ca bd 75 2f 67 be 7d 21 3f bd 9d 1b 52 bc
       -0.09865679 -0.22576697 -0.046662796 -0.012823966
000050 9b 62 b9 be 83 47 37 bd 92 31 30 be 77 38 c6 be
       -0.36208043 -0.044745933 -0.1720641 -0.38714954
000060 56 98 0e bd c5 84 a8 3c b4 50 51 bd 99 31 8b bd
       -0.034813248 0.020571122 -0.051102355 -0.067965694
000070 2c 78 7b bd e5 28 4c bd c9 e2 35 bd 87 20 fb bd
       -0.0613939 -0.049843688 -0.044405732 -0.122620635
000080 a7 2b bb bd 0e a9 95 be 64 b0 c3 bc 0b 0f 9d be
       -0.091391854 -0.2923054 -0.02388782 -0.3067554
000090 4e f3 c2 be e7 1b 6a bd 7a 96 a5 be 84 fa f2 bc
       -0.38076252 -0.057155516 -0.32341367 -0.02966047
0000a0 1c fe d5 bd dc 58 ba bc a0 ee 2f bd df 85 7a bc
       -0.10448858 -0.02274745 -0.04295218 -0.015290706
0000b0 1d 74 eb bc 02 df 78 be 47 61 98 bd 01 82 08 be
       -0.02874189 -0.2430382 -0.07440429 -0.13330843
0000c0 c9 2c 3c b7 5f d1 2f 3d f3 2c cd bd 58 21 6f bd
       -1.1216101e-05 0.04292428 -0.10018339 -0.05838141
0000d0 f2 6b 1e bc 8c 08 87 be 96 88 e9 3c 83 a3 e8 bd
       -0.009669291 -0.26373708 0.028507512 -0.113593124
0000e0 8c 81 81 bd e2 51 86 bd 74 a8 b3 be 2b 37 40 3d
       -0.06323537 -0.06558587 -0.35089457 0.046927612
0000f0 e8 51 4e be 16 72 91 bd 56 a4 51 bd eb bc 81 bd
       -0.20148432 -0.07101838 -0.051182114 -0.06334861

extractor.10.running_mean f4 [64]
000000 f9 00 85 bf 9a 94 db 3e 57 b7 8a 3e 65 27 b4 3e
       -1.0390922 0.42886811 0.27093002 0.35186306
000010 3c e7 bd bf 16 4f c9 bf c9 70 b5 bf 75 0d eb bf
       -1.4836192 -1.572726 -1.4175044 -1.8363482
000020 42 e0 cd be 33 f0 0e c0 93 1e 03 3f 07 aa 00 c0
       -0.40210158 -2.2334106 0.5121853 -2.0103776
000030 df e9 7e 3e 6e 80 c5 bf e7 0a 58 c0 4b fc f9 be
       0.24893902 -1.5429819 -3.3756654 -0.48825297
000040 4a 76 cb bf 05 63 88 3e 31 56 0e c0 dd e1 2e 3f
       -1.5895474 0.26638046 -2.2240107 0.6831339
000050 5f 04 f5 3e ca 84 46 3f 20 5f d7 bf ce 0f da 3e
       0.47854897 0.7754637 -1.6825905 0.42590183
000060 77 3e d7 bf c2 1f cc bf c1 5a ec bf a9 f9 01 c0
       -1.6815938 -1.5947192 -1.8465196 -2.030863
000070 87 14 47 bf 7b 4f e1 bf bd 7a 05 c0 df 29 22 be
       -0.777657 -1.760238 -2.0856164 -0.15836285
000080 d9 ef 52 bf cb e4 fc 3e 8a e8 97 bf 8b 2c d2 3e
       -0.8239723 0.49393305 -1.186784 0.4104961
000090 7e ed 9f 3e 7f cc 37 c0 19 d2 32 bc 3f b9 81 bf
       0.3123588 -2.8718565 -0.010914349 -1.0134658
0000a0 d0 fb 07 3f 23 c2 f5 bf f9 35 11 c0 97 84 af bf
       0.5311861 -1.9199871 -2.2689192 -1.3712338
0000b0 3d 85 38 c0 9b 31 a4 3d c9 e6 99 bc a3 22 a1 be
       -2.8831322 0.08017274 -0.018786805 -0.31471738
0000c0 2d 95 b1 be ca 22 b7 bf 22 d4 8a bf bc 8c 7b bf
       -0.34684125 -1.4307492 -1.0845988 -0.9826162
0000d0 84 8e 26 c0 fe 3e 80 be ce bd ac bf 6e 7a bd bf
       -2.6024485 -0.2504806 -1.3495424 -1.4802988
0000e0 a0 b6 eb bf b9 c5 d5 bf 9d 6a 9f be 60 ec fe bf
       -1.8415108 -1.6700965 -0.31136027 -1.9915886
0000f0 1c e1 9c be c2 70 67 bf 72 03 88 3f cd 49 39 c0
       -0.30640495 -0.9040643 1.0626051 -2.8951294
