gpl/results/il/ep_060.ckpt (torch, 773626 bytes, 43 tensors)

extractor.0.weight f4 [24, 3, 5, 5]
00000000: 25ae f43d 06a7 bd3b 9803 083d faa3 f03d
00000010: 0c4f 22bd 1684 453d 334f 2ebd ee0d 153d
00000020: 3d9e 433c 203c a8bc d6c1 3d3d 10f5 7e3c
00000030: 9ec7 4d3d 1269 01bd 7e41 c7ba 9e03 953c
00000040: 3a2b 5b3d 9077 0f3d 1149 093e 1899 863d
00000050: b281 e4bd 4fcc 03be f1c5 9ebd 6387 e4bd
00000060: d753 c4bd 806f 003c 6846 8d3d 6e1e 783d
00000070: 1ce4 d4bd 7dad bb3d c4a1 32bd ad1d 283d
00000080: 3ed4 3c3c f544 18be efcc 19be c9a1 cbbd
00000090: f619 5d3d a32e 63bd 73b5 a03c eb21 a6bd
000000a0: 3ee9 da3d 3e66 4cbd 2768 c23d db15 bd3b
000000b0: aacc 59bd 2ae0 10bd b84d 17be 9c4a 3fbd
000000c0: f3ca f5bd e17e bdbd bef3 c0bd fe89 22bd
000000d0: 6398 9c3d cc02 e6bb ba21 123e 5af5 003d
000000e0: 5b48 75bd b6e4 02be 5bab 0f3d d643 8e3b
000000f0: 30fd debd b83c 1e3d de07 1e3d 0831 993d
00000100: 21d8 b3bd 6d18 8cbc a655 723b 7083 ee3c
00000110: 4dbb a0bd 3dcf 89bd e56d c2bb 7ca4 b7bd
00000120: 3392 863a dabf 5bbd 322d 67bc dde1 09bd
00000130: d52c 04bd 15ea 973b 1495 25be 9f3b cf3c
00000140: 4c65 33be 96b8 47be 3366 8ebd 6548 a6bd
00000150: 1dfc f93c 70b3 04be f254 34be 2cea 273d
00000160: 5091 1dbd 0dd8 963d 3a38 f9bc 25e2 1fbe
00000170: 246d b6bc 3a9a 2cbc 854f b3bd e7f2 e3bd
00000180: 66d4 7fbc 4956 02bd 2f01 d2bd 8763 6ebd
00000190: 3f05 f73d 511d a4bc b962 9d3d adc6 713d
000001a0: 8d8f 4cbd a4f6 ccbd 9d9a c23d 5e2a 1abb
000001b0: eb42 b53d 713f 243d 0ff8 063d e4f0 973d
000001c0: 3ff7 e03d 5b6a 40bd e6a5 5d3d 6630 bf3d
000001d0: 42e2 be3d e4d3 a23d b9a3 95bd e79f 7ebd
000001e0: 12ff eabd b626 e5bc ef00 a33d 1420 e1bd
000001f0: e856 383d 9e20 d0bd a43b 23be 7605 57bd
00000200: 25af 193d 342e bf3d 2a63 fcbd 3ad6 22bd
00000210: 3f4d 7c3d ee8e 693d 446a 863d db35 5f3d
00000220: ccbb 1c3d a580 a03c 52a6 7fbd 6433 6fbd
00000230: 9435 74bd 9c3a a1bc d035 8fbd c4fc 353d
00000240: b93a 763d 7c35 2bbd 2365 e93c b411 ff3c
00000250: 32e8 793d 8b30 c33d 107b b9bd 3be0 753d
00000260: fb87 76bd a9ff 73bd 49df 2bbe 3e91 04be
00000270: 9773 02be 3564 dbbd c64b d73c 720e b8bd
00000280: dd5b 9bbd 6d48 573d 16f8 4e3d de3e b83d
00000290: 3b4e 30bd 23ef 703d bcc5 6cbb 96dc 843c
000002a0: 3b36 47bd dacb 9fbb f623 9f3c 59c0 d03d
000002b0: 8ea4 983d 2b0f b53d 2a27 3a3e 6aae b23d
000002c0: 7ba1 513d 0be2 94bc ef22 e6bd 91af 433d
000002d0: a6b1 98bd 39cd 83bd 1166 22be 3fb4 a3bd
000002e0: 6efc 0abe 06d6 e93d c435 c2bd 5d03 aebd
000002f0: 4bb9 6b3b 587f 69bd 4cf0 283d 906b 24bd
00000300: 3d94 40bd deac 7b3c b451 bd3d 4965 83bd
00000310: 9243 8d3d bf25 ac3d 3ef7 043e c19c 7dbd
00000320: b816 943b 7e44 e5bd 2586 9d3d d701 99bd
00000330: 6e5f 113d 1956 33bd 90a1 81bd 80c5 70bd
00000340: 5ecf 0bbd 55b0 df3b 448c 873c ba4a f83c
00000350: efab d3bd d980 b13d 4868 de3d b87a b33d
00000360: d9f7 a53d 81a8 a2bd 0747 14bd d238 ea3d
00000370: faf9 b9bd a898 cf3d 9b24 bcbd 9f73 9abd
00000380: a539 923d 62cd 3bbd 446f 673c d952 f73d
00000390: d3f6 083e bdd9 1a3e 0983 59bd a153 fbbd
000003a0: d017 a53d 1d56 61bd a505 95bd 7835 7bbd
000003b0: 410e 31be 098a f7bb ef22 0ebc a47a 2abe
000003c0: 6f57 e3bd 0d8a eabc 14d2 343d 3cce 84bc
000003d0: f94b 8bbd 6a32 18bd 30da 16be 9008 debd
000003e0: 1834 f7bd 53ca 433d 2bd1 e53d d4af cdbc
000003f0: f0d3 913c 4193 953d 6f11 2f3d 18ee d6bd
0.11947278 0.005787733 0.033206552 0.11750026 -0.039626166 0.04822167 -0.042556 0.036390238
0.011939582 -0.020536482 0.046327434 0.015561357 0.050239198 -0.031594343 -0.0015202013 0.018190201
0.05350802 0.035026133 0.13406779 0.06572169 -0.1115755 -0.12870906 -0.07752598 -0.111586355
-0.09586304 0.007839084 0.068981946 0.060575895 -0.10395071 0.0916395 -0.043611303 0.041043926
0.011525212 -0.14870055 -0.15019582 -0.099429674 0.053979836 -0.055464398 0.019617772 -0.08111938
0.10689019 -0.049902193 0.09492522 0.0057704276 -0.0531737 -0.03537003 -0.14775741 -0.046702012
-0.120016 -0.09252716 -0.0942149 -0.03968238 0.07646253 -0.0070193764 0.14270678 0.031483985
-0.059883457 -0.12782559 0.035075527 0.004341583 -0.108881354 0.038632125 0.03858172 0.07480055
-0.08781458 -0.01710149 0.003697732 0.029115409 -0.07848225 -0.06728981 -0.0059335106 -0.0896692
0.001026696 -0.05364976 -0.0141098965 -0.033662666 -0.032269318 0.004636059 -0.1617015 0.025296984
-0.1751911 -0.19504008 -0.06953087 -0.08119277 0.030515725 -0.12959075 -0.17610529 0.040994808
-0.03846866 0.07365427 -0.030422319 -0.15613611 -0.02226884 -0.010534817 -0.087554015 -0.11130314
-0.015614605 -0.03182057 -0.10254132 -0.058200385 0.120615475 -0.02003351 0.076848455 0.059027363
-0.04994159 -0.100079805 0.095021464 -0.0023523788 0.08850654 0.040099565 0.03295141 0.07418993
0.109846584 -0.04697643 0.05411329 0.09335403 0.09320499 0.07950571 -0.07306618 -0.062164214
-0.11474432 -0.02797256 0.079591624 -0.109924465 0.045004755 -0.10162471 -0.1594072 -0.052495442
0.037520546 0.093349844 -0.123236015 -0.039755084 0.061597105 0.057021074 0.06563237 0.05449472
0.038265035 0.019592592 -0.062414475 -0.05839862 -0.05962141 -0.019681267 -0.06992686 0.04443051
0.060114596 -0.041799054 0.028490609 0.031136371 0.061012454 0.09530743 -0.090566754 0.060028296
-0.060188275 -0.05956999 -0.16784395 -0.1294603 -0.12739407 -0.10712472 0.026281249 -0.0898713
-0.07585881 0.052559305 0.050529562 0.08996366 -0.043043356 0.05882181 -0.00361286 0.016218465
-0.048635703 -0.004876596 0.019426327 0.101929374 0.07453261 0.08840784 0.18179002 0.08724673
0.05117939 -0.018174192 -0.11237132 0.047774855 -0.07455759 -0.064356275 -0.15859248 -0.079933636
-0.13572857 0.11417775 -0.09482911 -0.08496735 0.0035968598 -0.05700621 0.04124479 -0.040141642
-0.04701637 0.015361039 0.09244099 -0.06415803 0.06897654 0.08405637 0.1298494 -0.06191707
0.00451931 -0.111947045 0.07691602 -0.07471054 0.0354914 -0.04378328 -0.06329644 -0.0587821
-0.034133308 0.0068264403 0.016546376 0.03030907 -0.10335528 0.08667154 0.10859734 0.08763641
0.08103914 -0.07942296 -0.03620055 0.11436619 -0.09080882 0.10136539 -0.091866694 -0.07541584
0.07139901 -0.045850165 0.014125649 0.12076349 0.13375406 0.15122123 -0.05310348 -0.1227181
0.080611825 -0.055013765 -0.07276467 -0.06133029 -0.17290594 -0.007554297 -0.008675321 -0.16648346
-0.11100661 -0.02863028 0.04414566 -0.016211621 -0.068016 -0.037157454 -0.1473167 -0.10841477
-0.12070483 0.047800373 0.11221536 -0.025108255 0.017801255 0.07303477 0.042741235 -0.104946315

extractor.0.bias f4 [24]
00000000: e67f a73d 182a 193d baa9 88bd a1cc 9f3d
00000010: 57f1 a4bd df18 673d 1fc8 c1bc d087 0c3d
00000020: da73 4abc b110 b03c b2b3 06bd 3e4b 443d
00000030: 703a 5b3d 085c d2bd 3f7a d13d f00b c0bd
00000040: 1adf 56bd 9c4f 3f3d 0eb6 d43d 7df7 1f3d
00000050: 97a6 83bd 6013 a03c 6f34 89bd 31e1 573d
0.081786916 0.03739366 -0.06672998 0.07802702 -0.080538444 0.056420203 -0.023654995 0.03430921
-0.012356723 0.021492334 -0.032886215 0.04792332 0.053522527 -0.1027146 0.10228395 -0.09377277
-0.05245886 0.04670678 0.10386287 0.039054383 -0.06428259 0.019540489 -0.06699454 0.052704994

extractor.1.weight f4 [24]
00000000: 0cfa 8d3f d43b 5e3f 1149 713f cc43 743f
00000010: 494d 863f 5f07 843f ae78 6c3f 9702 7d3f
00000020: bb9b 7d3f d0f9 7b3f 9f78 793f a1e9 643f
00000030: 1841 6f3f 6f09 773f 0daf 703f 04c5 8f3f
00000040: a45c 863f 3ae2 803f 0a4e 793f 81ac 5e3f
00000050: c9a2 683f 1a8b 933f c467 553f 69ed 6f3f
1.1091933 0.8681004 0.94252115 0.9541595 1.0492336 1.031475 0.9237164 0.98832077
0.9906575 0.9842806 0.9744968 0.8941899 0.934587 0.9649877 0.94017106 1.1231999
1.0497022 1.0069039 0.97384703 0.8698197 0.9087339 1.1526825 0.8336146 0.93721634

extractor.1.bias f4 [24]
00000000: 9102 43bc d3d0 4dbe 4332 1abe 4a3c 00be
00000010: cad4 8e3b 4a13 3bbc 5eca e7bd b92b 38bd
00000020: aea0 803d 4e40 933c 45d1 b8bb febd 3dbe
00000030: 52a4 39be ada1 d4bc 1524 05be f8da 9fbd
00000040: bffc 1d3d 64a1 87bc 0694 c9bd 72c6 edbd
00000050: 99ea 5dbd d5c5 cd3d 9b18 1dbe d043 dbbd
-0.011902467 -0.20099191 -0.15058236 -0.12522998 0.0043588625 -0.011418173 -0.11317895 -0.044963572
0.06280647 0.017974999 -0.0056401812 -0.18529508 -0.1812909 -0.025956 -0.13002045 -0.07805437
0.038571116 -0.01655645 -0.09842686 -0.11610116 -0.054178808 0.10047499 -0.15341417 -0.107062936

extractor.1.running_mean f4 [24]
00000000: ee9a 77be f5b9 3abe 0ff8 77be fe17 9ebe
00000010: 3ad8 2bbe 7560 73be 4c2c 283e fdf0 cebd
00000020: 31f8 f23d 859a ad3e 19b0 ccbe 8463 59be
00000030: 6507 20bf cd74 ecbb 98d9 13be fcf6 6fbb
00000040: c063 e43c d972 8e3d 9848 afbb 5f82 543e
00000050: 90cc bcbe 4814 753d 3299 a1be 4504 93bd
-0.24180195 -0.18235 -0.2421572 -0.3087768 -0.16781703 -0.23767264 0.16423148 -0.101045586
0.11863745 0.33906952 -0.39978102 -0.21229368 -0.62511283 -0.007216072 -0.14438474 -0.003661572
0.027879596 0.06955499 -0.00534923 0.20752858 -0.3687482 0.059833795 -0.3156219 -0.07178549

extractor.1.running_var f4 [24]
00000000: e33b 6c3d 8832 6c3d c24f 383d c5cd c63d
00000010: 6541 403d c76d 223d ef48 fb3c 9f32 483d
00000020: ede2 363d a609 3f3d 44ce a03d d9f4 5f3d
00000030: 0511 633e 70f6 1f3d f513 423d 4b76 bd3c
00000040: 68a8 bb3c 4406 1f3c 8744 d53c f682 443d
00000050: 1eed 843d 7319 f53c d9fe 4e3d 5e26 c13c
0.0576743 0.057665378 0.044997938 0.09707216 0.046937365 0.039655473 0.030674426 0.0488764
0.044650007 0.04664006 0.07851842 0.054676864 0.22174461 0.03905338 0.047382314 0.023127696
0.02290745 0.009706084 0.026033653 0.047976457 0.06490539 0.029919362 0.05053601 0.023577865

extractor.3.weight f4 [36, 24, 5, 5]
00000000: 908a 5cbc 5434 f9bc 2f6f 01bd b11a f03c
00000010: c421 a23d fc99 27bd 8e7f 4e3c f35f cfbb
00000020: 6ebf 6e3c 45b8 9f3d ccad 61bc 8629 ea3c
00000030: 510e 4b3d 6630 263d 05f1 1d3b dbf6 193c
00000040: 8927 0b3d 1938 1ebb 585f 0a3d 6785 ca3b
00000050: 7fab cf3b 1261 683d 1ee0 5ebc 1348 173a
00000060: bd97 f7bb 1bdc 18bb 46e1 c43c f323 57bc
00000070: 2336 563d 05e0 143b 1d24 bfbd 5440 a4bb
00000080: 0129 5c3c b627 18bd 9f36 86bb 3e32 c6bc
00000090: a6b5 29bc 8d4e 1b3c 5ef2 56bd 22f2 93bd
000000a0: 5619 66bc d55f 00bb a8be ed39 c5bc 0bbc
000000b0: e533 723d 9bbc b6bc 287d 21bc 9d62 b3bc
000000c0: 60e7 03bb fb29 393d d2ea 03bd 9c1f a53c
000000d0: 0927 0d3d bf5b 643c e0fd ff3c 4359 773d
000000e0: 7864 e83d 47f2 db3d 2673 153d 1ece 503d
000000f0: 4f0c 1c3d 4b8e 833d 2ad0 2c3c 6b4e feba
00000100: a18e 19bd 6ba3 c4bd a3c0 c0bd 9641 debd
00000110: 5085 d2bd 077e 10bd 17b9 d23b d760 503c
00000120: 5aff 9fbc 4752 88bc fb50 f5bc fa70 493c
00000130: e814 2fbd 78e4 4039 6479 133d ce8f 3f3d
00000140: cd91 97bd 40ff abbc 96a5 2dbc 7dcb 913d
00000150: 5ca4 a53c 503a 993c 661e dbbc 25ee 723c
00000160: 70d9 bc3c 4cad bf3c 6ffa 13bd e973 2c3d
00000170: 3314 84bc 6f24 fdbb 222a 233d 91be fcbb
00000180: 9c6a bcbc 2c48 7fbd 4b8e 543c d8e3 b9bc
00000190: 0242 d0bc b343 d73c 87f7 0abc db52 843d
000001a0: 8ae6 303c 01e5 d3bd c263 d9bd 86d7 f5bc
000001b0: dd6a 303b a397 7d3d a3c7 fbbc e950 d23c
000001c0: 3013 bd3c 8463 123c e71c 9fbb b84e a4bd
000001d0: d77f 5dbd d8cf 38bb ccbf 28bc 624b 193d
000001e0: 63be 4abb 61e7 9e3c b59f c93c 7790 80ba
000001f0: 9a3e 2b3d c04a 7fbd c1f1 0cbd f618 3e3c
00000200: 5ea6 b4bc 418a a03c 2794 03bc 3daf 413d
00000210: 5bea 4a3d 99ee b03d 2f14 c23d 6359 9fbb
00000220: d36b b1bc aac2 a93c 9c01 1abd bb16 c4bc
00000230: 5436 82bd b061 4bbd af64 f8bc 995f 4cbc
00000240: 9356 1abc 328f 57bd d96a b4bd ea10 95bd
00000250: b448 37bd 21d4 8ebc 7d0f b3bc 7375 daba
00000260: 4f88 8c3c ce01 633d d8d4 49ba 1c86 c5bd
00000270: 494c b2bd 4dfe 76bb 0cc7 6d3a b723 26bd
00000280: d2d7 37bd 453f 10bd 537d 2a3d 3786 443d
00000290: 8f94 5c3d 542b 523d 95e2 413d 1081 ba3d
000002a0: cc44 c93d 34bf 103d 6d38 3ebd 792a 323d
000002b0: bcc2 aa3b 9b74 143d 87c6 77bc 2d49 29bd
000002c0: ab98 3db8 2631 7a3c 7bfb 313c 3cba 343d
000002d0: 8b09 a93d 3f6e c63d 6bac 263d 585b 973c
000002e0: 6cfa 813a 1e67 ff3c f03c 063d 6553 9abd
000002f0: 7ce6 72bd 70f3 cebd 4608 2fbd a4f8 5cbd
00000300: fcd5 27bd d685 86bd 8242 ccbc 92a3 1ebd
00000310: a8d2 b63c 7f15 303c dc49 96bb 4a20 913d
00000320: 8cf1 d9bc 52bf 81bd 00c7 7fbd 3aca 86bd
00000330: 5354 75bd a54d 95bc 8f97 5bbc ad6b 293c
00000340: 59ef 09bd 2833 94bd cac5 a83c 12a4 ae3c
00000350: c358 a7bc 3071 663c e006 0fbb e8aa a4bd
00000360: d1b5 82bd a2ba 37bd e2cb 7ebd 9dc1 6abd
00000370: a90c 5cbd 14cd f0bd dc14 03be 913d ebbd
00000380: 7f6f 86bd 1c03 3f3d f1fa c13c e54b bd3c
00000390: d24d cbbc 4dd9 38bc 587c 2b3d 10d1 52bd
000003a0: f9eb a9bc 73fc 233c 2df8 a73b b930 9fbd
000003b0: 6844 14be edf5 fdbd 5c90 f0bd 9689 56bc
000003c0: 9f9f 0e3d 9fd4 513d ae16 c73d e2bd a73d
000003d0: 4a4f c1bb 9664 b43c 941b 723d 671b 583d
000003e0: c7d4 00bc c24d 583d 93b4 63bd 1f06 213d
000003f0: ac28 643d c5bf 373d 56dd 6d3c ac35 6e3d
-0.01346077 -0.03042046 -0.031600174 0.029309602 0.079165965 -0.040918335 0.012603654 -0.0063285767
0.014572008 0.077988185 -0.013774347 0.028584253 0.0495742 0.0405735 0.0024099958 0.009397234
0.03397325 -0.0024142324 0.033782333 0.0061804536 0.0063375826 0.0567332 -0.013603238 0.0005770933
-0.0075559304 -0.0023324552 0.0240332 -0.01313113 0.052297723 0.0022716534 -0.0933306 -0.0050125513
0.0134375105 -0.037147246 -0.004095867 -0.02419388 -0.01035825 0.009479177 -0.052477233 -0.072239175
-0.0140441265 -0.001958837 0.00045346213 -0.008528893 0.05913152 -0.022306731 -0.0098565 -0.021897608
-0.0020126924 0.04520605 -0.032206364 0.020156674 0.034461055 0.01393789 0.031248987 0.06038786
0.11347288 0.1073957 0.036486767 0.05097782 0.038097676 0.064236246 0.010547677 -0.0019402032
-0.037489537 -0.09601482 -0.094117425 -0.10852353 -0.102793336 -0.03527644 0.006430756 0.012718401
-0.01953094 -0.016640795 -0.029945841 0.012295002 -0.042744547 0.00018395658 0.03600444 0.046768002
-0.07400856 -0.020995736 -0.010598561 0.071188904 0.020219974 0.018704563 -0.026747894 0.014827286
0.023052901 0.023398064 -0.036127504 0.042102728 -0.016122913 -0.0077252905 0.039835103 -0.007713147
-0.023000054 -0.062324688 0.012973378 -0.022691652 -0.0254221 0.026277399 -0.008481867 0.06461116
0.010797152 -0.103464134 -0.106147304 -0.030009996 0.0026919164 0.06191219 -0.030734843 0.025673347
0.023080438 0.008934859 -0.0048557403 -0.08022827 -0.054076996 -0.0028200056 -0.010299634 0.037425406
-0.0030936233 0.01939744 0.024612287 -0.0009808679 0.04180775 -0.062327147 -0.034410242 0.011602631
-0.022051986 0.019597175 -0.008030928 0.04728626 0.049539905 0.08639259 0.09476506 -0.0048629506
-0.02165786 0.020722706 -0.03759919 -0.02393662 -0.063580185 -0.04965371 -0.030321447 -0.012473964
-0.009420055 -0.052626796 -0.08809442 -0.07278617 -0.04474707 -0.017435135 -0.021857971 -0.0016667083
0.01715484 0.055421643 -0.00076992577 -0.0964472 -0.087059565 -0.0037688196 0.0009070493 -0.040561404
-0.044883557 -0.03521659 0.041623425 0.04797956 0.053852614 0.051310852 0.047335226 0.09106648
0.09827575 0.035338596 -0.04644053 0.043497536 0.0052112024 0.036244016 -0.015123016 -0.04132955
-4.5203295e-05 0.015270507 0.01086318 0.04412292 0.08253773 0.096889965 0.040691774 0.018476173
0.000991655 0.0311771 0.03277296 -0.075354375 -0.05930184 -0.10105026 -0.0427325 -0.05394806
-0.040975556 -0.06568496 -0.024934057 -0.03873021 0.022317246 0.010747313 -0.0045864414 0.07086237
-0.026604436 -0.063353196 -0.06244564 -0.065815404 -0.05989487 -0.0182255 -0.013402834 0.010340613
-0.033675525 -0.0723632 0.020602126 0.02131847 -0.020428067 0.014065072 -0.0021824166 -0.0804041
-0.06382335 -0.04485572 -0.062206157 -0.05731355 -0.05372301 -0.117578655 -0.12800926 -0.11486352
-0.06564235 0.046633825 0.023679228 0.023107478 -0.024817381 -0.011282277 0.04186663 -0.05146891
-0.020742403 0.010008919 0.0051260204 -0.07772965 -0.1447922 -0.12400422 -0.11746284 -0.0130943265
0.034820195 0.051228162 0.09721123 0.08190514 -0.0058993446 0.02202062 0.05910833 0.052760508
-0.00786323 0.05280853 -0.05559213 0.03931248 0.05570285 0.04486062 0.014518103 0.058156654

extractor.3.bias f4 [36]
00000000: c9f4 84bc 3ed3 0ebd fd26 bf3c 0b7b b5bc
00000010: eae8 d7bc 9d3a edbc 5c8a a8bb e2ef 793c
00000020: a74c 0c3c a127 a0bc 37b2 9fbc b9c0 2b3b
00000030: 9cdc 9abb 29a5 d4bc 6a81 05bd fa5c 65bb
00000040: 6900 47bc 7939 0dbd 83f7 c93c 792f fc3c
00000050: 7da8 cf3c 65ea c63c fd9b 07bd eccc 1a3c
00000060: 9d63 193d daef 14bd e0e0 fbbc c8c4 a33c
00000070: 0d65 9c3c 747c c4bc b1c0 263d c631 1e3d
00000080: 8689 e1bc 42a1 b2bb 3a9e b5bc 9ddd 0c3c
-0.016230004 -0.034869425 0.02333402 -0.022153398 -0.02635618 -0.028958613 -0.005143447 0.015254946
0.008563197 -0.019550147 -0.01949416 0.00262074 -0.0047260057 -0.02595766 -0.032594122 -0.0034998045
-0.012146094 -0.03447864 0.024654156 0.030784355 0.025348896 0.02428169 -0.033107746 0.009448271
0.037448514 -0.036361553 -0.030746877 0.019991294 0.019091154 -0.023985125 0.04071111 0.038621686
-0.027531397 -0.0054513523 -0.022170175 0.008597759

extractor.4.weight f4 [36]
00000000: 6e28 753f 73b7 823f 8dd1 573f 74da 793f
00000010: 32d2 773f 8321 823f ecca 703f c886 5b3f
00000020: a542 7f3f 3d56 763f f3d9 743f 0830 5d3f
00000030: 6bff 7e3f 8201 6c3f ac88 583f a7e9 793f
00000040: d69a 6f3f 479d 803f a592 9d3f 6431 7d3f
00000050: f509 703f b3ab 6d3f 6fc7 883f 72a9 733f
00000060: 2f37 863f 10f1 733f 6774 7d3f 76e2 6e3f
00000070: 20e5 803f cfa8 6b3f ad32 6d3f 079d 783f
00000080: 156b 833f e347 723f dc86 793f e3c8 713f
0.95764816 1.0212234 0.84304124 0.9759896 0.9680511 1.0166477 0.94059634 0.85752535
0.99711066 0.9622534 0.95645064 0.86401415 0.99608487 0.921898 0.84583545 0.9762215
0.93595636 1.0047997 1.2310377 0.9890349 0.93765193 0.9284012 1.0685862 0.9518043
1.0485591 0.9528971 0.9900574 0.933143 1.0069923 0.92054456 0.9265545 0.97114605
1.0267054 0.9464094 0.97471404 0.94447154

extractor.4.bias f4 [36]
00000000: bee3 fdbd 46d1 46bd 30a9 36be 606c e4bd
00000010: 9940 1abe de10 8f3d c84c 09be 30ea d3bd
00000020: 4b24 02be 9534 2ebd f81f a8bd a230 f7bd
00000030: a766 6bbe a7d3 8abd 2146 26be 3d97 9cbd
00000040: 162c 14be 5719 c1bc 0b57 cfbd 47cd 1dbe
00000050: 25b7 c7bd f09e c9bd 0bb1 06be de27 f1bd
00000060: 6812 793b ce3d 9dbd 33c9 2cbe a08f c9bd
00000070: 40dd 8fbc f103 55be 1f07 afbd 612e 58bd
00000080: 3d35 ecbd 09c8 77bd 44ec 3ebe 3157 a6bd
-0.12396954 -0.048539422 -0.17837977 -0.111534834 -0.15063705 0.06985639 -0.13408196 -0.10347402
-0.12709157 -0.042530615 -0.082092226 -0.12069823 -0.22988378 -0.06778651 -0.1623769 -0.07646034
-0.14469942 -0.023571653 -0.10124024 -0.15410338 -0.09751729 -0.09844768 -0.13153474 -0.11775182
0.0038005356 -0.07677804 -0.16873626 -0.098418474 -0.017561555 -0.20802285 -0.0854628 -0.052778605
-0.11533592 -0.060493503 -0.18644816 -0.08122099

extractor.4.running_mean f4 [36]
00000000: a4c2 82bf 7eb9 c0be ffca c0bf b4ec 33c0
00000010: ff2d 45bf fb61 f5be 70ef ce3e 80a9 92bf
00000020: c582 2340 83f3 72c0 305d 96be 436c 293f
00000030: 02bc ffbe 6463 f9bf ac35 0dc0 aba7 a9bf
00000040: 2811 5bbf c0e0 f7bf b7c1 01bf e4c0 0040
00000050: 1c01 13be ee47 b4bf 559d 6d3e 6c23 0540
00000060: 3e7f 6e3f 2ddf 52bf b2e8 403f 4909 6ec0
00000070: 2f1a edbf 549f 48bf 9216 18c0 f463 2cc0
00000080: 158f 0cc0 e07b 5ac0 cfa0 0fbf 5e4a 8ebf
-1.021565 -0.3764152 -1.506195 -2.8113222 -0.7702331 -0.47926316 0.4041705 -1.1457977
2.5548565 -3.7961128 -0.2936797 0.6618082 -0.49948126 -1.9483457 -2.2064009 -1.3254293
-0.85573053 -1.9365463 -0.5068621 2.011773 -0.14355892 -1.4084451 0.23204549 2.080287
0.93162906 -0.8237179 0.75355065 -3.7193167 -1.8523616 -0.78368115 -2.3763776 -2.6936007
-2.196233 -3.4138107 -0.5610475 -1.1116445

extractor.4.running_var f4 [36]
00000000: 6bcd 7c40 0e3f 7840 dc65 4141 c013 3840
00000010: 6f43 9040 8b9e 0a41 40f5 2c40 c97d 6f40
00000020: c600 9641 0fa7 8941 8ed4 3840 c55a 7840
00000030: 2250 7441 6836 6e40 d9c4 1b41 1b24 c040
00000040: 138c c13f aa31 2540 a2bf 343f 30a7 7440
00000050: e411 1340 735c 9b40 3529 a23f 57a0 8941
00000060: ed91 cf40 e1fe 3340 6410 1e40 136d e840
00000070: db78 8440 73e8 d740 e5b1 b540 8e71 8340
00000080: 388c 3940 48bc 9d40 daa8 8840 b45b c740
3.9500377 3.8788486 12.087368 2.8762054 4.5082316 8.663707 2.7024689 3.7420523
18.750378 17.206572 2.8879733 3.8805401 15.269564 3.7220707 9.7355585 6.0044074
1.5120872 2.5811563 0.7060491 3.8227043 2.297967 4.8550353 1.2668825 17.20329
6.486563 2.8124316 2.4697504 7.2633147 4.139753 6.747125 5.6779656 4.1076117
2.8991833 4.9292336 4.270612 6.229944

extractor.6.weight f4 [48, 36, 3, 3]
00000000: f6c7 ddbc fd02 9c38 f07f 30bd d870 f3bb
00000010: f478 52bd 4d85 1fbc 0e2b a73b 2ac4 e5bb
00000020: 0dcb 273d 8ab2 073b a68e 3ebc 5d39 c2bd
00000030: b975 ac3d 8a3a ac3c d3ac 3b3d a705 40bd
00000040: 4fe4 aabd 58e7 86bb 2421 7ebb 8dde 703d
00000050: 39ee 4fbd 75c9 96bd 20e2 653d 1af3 38bd
00000060: c2ba 8c3d 2a0a ff3b c979 813b 1e9d a33d
00000070: 5805 e73d 110e 863d 0179 b23c 8773 383d
00000080: 1c82 093d cd3b d5bc f9ef 91bc 5a33 373d
00000090: 1f2f a53c 0c5d 653d 22df 07bd 032f 473c
000000a0: 6419 ac3d 7119 1c3d 7b79 16bd d78d b8bc
000000b0: f4b7 77bd a583 febc 9132 e1bb b32d 97bd
000000c0: a51e 3e3c 83d8 b13b b4d8 b63c 63bd 75bb
000000d0: ea88 673d 474e 8d3d bceb 873b a487 253d
000000e0: 02a5 a0bd 3cdb c5bc 27e9 fc3c e3dd f4bc
000000f0: fb93 023d a460 1a3d 664e 4f3d 5e7c 93bc
00000100: 2836 16bd f089 a33c df8e 86bc 4fb1 e0bc
00000110: 02bc edbc 4935 e8ba 3072 abbb 559e ddbb
00000120: 41da a33d d8c6 3bbc 25b2 623d 4a2e 633b
00000130: 1065 573d 032f 843d 8c21 fe3b 464d ee3c
00000140: c302 8e3c ec48 5e3b 7c03 fe3c ee8a ba3c
00000150: 8603 853c 907e 9539 26a7 6d3d 8f88 8f3d
00000160: 958e a13d 187c 0d3d 697e 7b3d 47ce 863d
00000170: c6c7 793d 7754 8e3d ead8 923c 31fd d2bc
00000180: 86c2 d9bb 5ec2 723d 283d a73b 41da 32bd
00000190: c071 d93c b39e efbc bc6a 1d3d e81b f83c
000001a0: 446e f5bc bac8 9cbb ddb1 f03c 54d1 243d
000001b0: 3d34 b43c 0e5e 1a3d da53 31bd e68f 06bd
000001c0: 1708 b0bd fe68 98bd bff1 c43d 971e 643d
000001d0: 94cf d73c 143d 773c a972 8dbc 573c 4b3c
000001e0: 802a da3c 31ab b43d 1baf 6f3d 5253 8ebc
000001f0: 82ce 8f3c 29d3 053d faee 8a3c 0fc4 003d
00000200: fa2b 653c 84f1 d73d 64ec d53b a812 a13d
00000210: 0ec8 043b 5b47 893c 8686 b03d bf9f c1bc
00000220: ef32 55bd 9e29 87bd eabc 6e3c 5706 103d
00000230: fc26 5bbc 2310 a93d 291e 1ebd c794 9fbd
00000240: 8130 db3c c7e3 6abd bf7b 173c 88c6 67bd
00000250: 3a5f 75bd 6e6d bcbd d50f 103d d7b3 34bd
00000260: 4b36 15bb 43de 5abd 1659 593d 3fbc cebc
00000270: 616c 7e3c 9f7a 443d c74d 033d f1c1 ad3d
00000280: b2a1 3b3d 57d6 cfbb 776a 9f3d 19dd 7fbb
00000290: a703 efbb 02e2 f3bd 7cd3 11be ad37 f7bd
000002a0: 4718 583e c06f 92bc 8de8 be3d 78ad d43c
000002b0: da14 0ebd c778 89bc 5591 59bd d039 a3bd
000002c0: ce6a 62bd 0093 de3c 6385 b23c 6fca 8e3d
000002d0: e464 91bd 5d50 68bd 4c57 87bc 26f9 0b3d
000002e0: bd85 783d 9224 fd3c ebc7 2a3d 5495 adbb
000002f0: 279c f33c b6cd 9dbc 442f 153c 347f 573c
00000300: ee04 15bc 6f34 8c3c efe2 b23d c6b3 99bd
00000310: 63f3 d3bc 8089 37bd a92d 8b3d 8241 bebc
00000320: ac28 273c 3408 67bd 4e15 3cbd 70e1 443c
00000330: 8a3f 063e 4ae5 ff3c f37c ea3d 4dec 083d
00000340: fe47 263c a77b 613d f7c5 0abc e132 853d
00000350: 2525 963d afea 673c 9a3f aabb 37a6 8d3d
00000360: c671 773c bfe9 21bc 26f9 a9bd d6fd 193b
00000370: ffcb 67bc 04b5 c0bc 1973 693d 83fe d83b
00000380: cc7f 9c3d 004d 8dbd e28a 0e3d 4626 88bb
00000390: 1727 1e3d deb5 c6bc 8e19 4e3d 97f3 173b
000003a0: 341d 73bd 5cc0 64bd 4c6a bbbd cfc2 90bd
000003b0: 95cc acbd 15ba da3d 5160 db3d 67b1 bd3d
000003c0: c455 17bc 6a2e c1bc 5204 98bd 3212 0b3c
000003d0: 4f7e e03b f741 d03c 8a41 fb3c 732b 66bc
000003e0: 3c57 7c3d b33f ebbc e4c9 153d ed5f 32bd
000003f0: 9b4b 19bd aed1 6a3c bbe0 973c 9e8e f63c
-0.027072888 7.439216e-05 -0.04309076 -0.0074292235 -0.05138488 -0.009736371 0.005101568 -0.00701191
0.04096513 0.0020705783 -0.01163069 -0.094835974 0.08420891 0.021024007 0.045819115 -0.04688039
-0.08344328 -0.004116934 -0.0038777078 0.05880599 -0.050764296 -0.07362644 0.056123853 -0.045153715
0.06871559 0.007783194 0.0039512855 0.07988952 0.11280316 0.06545652 0.021786215 0.04503205
0.033571348 -0.026029492 -0.017814623 0.044726707 0.02016407 0.05599694 -0.03317178 0.012157205
0.084032804 0.0381102 -0.036736947 -0.022528572 -0.060478166 -0.031068632 -0.006872483 -0.07381763
0.011603986 0.0054274215 0.022320129 -0.0037496916 0.056527056 0.06899696 0.004147975 0.04041256
-0.07843973 -0.02415239 0.030872894 -0.02989096 0.031879406 0.03768982 0.050611876 -0.018003639
-0.03667274 0.019963235 -0.016425548 -0.027428297 -0.029020313 -0.0017716076 -0.005232118 -0.0067632594
0.08000613 -0.011460982 0.055345673 0.0034665042 0.052586615 0.06454279 0.007755464 0.029089581
0.017335301 0.0033917977 0.03100752 0.022771325 0.016237032 0.0002851379 0.058020733 0.07008468
0.078885235 0.034542173 0.06139985 0.06582313 0.060981534 0.06949704 0.017925698 -0.025755497
-0.0066455035 0.059267394 0.005103726 -0.043665174 0.026543498 -0.029250478 0.038431868 0.030286744
-0.029959805 -0.0047846707 0.029381687 0.040238693 0.021997565 0.037687354 -0.043292858 -0.032852076
-0.08595293 -0.07441901 0.09616422 0.055693235 0.026344098 0.015090246 -0.017266588 0.012404523
0.026631594 0.08821715 0.058516603 -0.017373715 0.017554525 0.03267208 0.016959656 0.031436976
0.013987536 0.10544112 0.006528424 0.078648865 0.0020260843 0.016757658 0.08619408 -0.023635743
-0.052050527 -0.06599735 0.014571408 0.035162296 -0.013375994 0.08255031 -0.03860298 -0.07792049
0.026756527 -0.05734613 0.009245812 -0.05658582 -0.05990527 -0.092005596 0.03517135 -0.04411682
-0.0022767957 -0.05343462 0.053063475 -0.025236247 0.015528769 0.047968503 0.032056596 0.08484257
0.0458085 -0.00634269 0.077839784 -0.0039041697 -0.0072941366 -0.11908342 -0.14240831 -0.12071166
0.21103011 -0.017875552 0.09321699 0.025961623 -0.034687854 -0.016781224 -0.053117115 -0.07970011
-0.055277638 0.027169704 0.02179212 0.06972205 -0.070993215 -0.056717265 -0.016521119 0.034173153
0.060674418 0.030901227 0.041694563 -0.0052973423 0.029737545 -0.01926313 0.009105507 0.013152886
-0.009095414 0.017114846 0.087346904 -0.07504992 -0.025872892 -0.044808865 0.06795818 -0.023224596
0.010202568 -0.056404307 -0.045918755 0.012016639 0.13110176 0.031237263 0.114496134 0.03342848
0.010149 0.055049565 -0.00847005 0.06503845 0.073313035 0.014155074 -0.00519557 0.069164686
0.015102809 -0.00988239 -0.082994744 0.0023497245 -0.014147758 -0.023523815 0.05699453 0.006622137
0.07641563 -0.06899452 0.034800418 -0.004154953 0.038611498 -0.024256643 0.05031734 0.0023185962
-0.059354022 -0.05584751 -0.09151134 -0.07068407 -0.084374584 0.106800236 0.1071173 0.092623524
-0.009236757 -0.023581702 -0.07422699 0.008488225 0.0068509947 0.02542208 0.0306709 -0.014048445
0.06160663 -0.028716898 0.03656949 -0.043548513 -0.03742562 0.014332218 0.018539777 0.030097302

extractor.6.bias f4 [48]
00000000: 3c25 d53b 5aa2 3fbd b329 5bbb 39dc 2ebd
00000010: 4ea5 323d 57e6 1fbc 4f5b 84bb 8c23 633d
00000020: 95bd 1f3c aba0 d13c 4879 42bd a439 35bd
00000030: 44a8 f03c d08d e23c 3f2a 4fbd 84eb 2c3d
00000040: 4d95 60bc 1d6e 113d cfc1 5a3d f4b4 2bbd
00000050: 0651 cf3b 9258 54bd 301c d3bc 5bf8 94bc
00000060: 243c bcbc 4a43 073d f04a 773c 2329 dc3c
00000070: a6da d13c 76f1 7d3c f18e b73c 68f7 abbc
00000080: 2a87 373d 44fc 263c a3b3 3abc fde0 203a
00000090: a21a 8bbc d3d9 243c bd8b 403d 6faf 35bd
000000a0: 7c1f 39bd e3a3 afbc bca9 173b 78f1 273d
000000b0: 4fab 083d 5dc1 4a3d 901f ab3c e8c8 25bd
0.006504683 -0.04678569 -0.0033441603 -0.04269049 0.043614678 -0.009759507 -0.004039205 0.055453822
0.00974979 0.025589308 -0.047478944 -0.044244424 0.02937711 0.027655512 -0.0505774 0.042216793
-0.013707471 0.035505403 0.053407487 -0.041920617 0.0063267974 -0.05184228 -0.025770277 -0.018184831
-0.022977896 0.033023156 0.01509355 0.026875084 0.025616955 0.015499463 0.022407027 -0.020991996
0.044806637 0.010191981 -0.011395368 0.00061370415 -0.016980473 0.010061699 0.047008265 -0.04435676
-0.04519604 -0.021440452 0.002314194 0.041001767 0.033366498 0.04950081 0.020889074 -0.040474802

extractor.7.weight f4 [48]
00000000: 1a6b 7b3f 2532 793f f2d6 763f 8100 743f
00000010: 1797 7d3f d52b 783f 8b8c 803f e214 743f
00000020: 169c 713f e48b 733f fe06 7a3f 38c6 753f
00000030: b00e 713f 81d2 863f bdf4 863f e9de 853f
00000040: 0121 803f c1fc 7c3f 5e95 803f f208 773f
00000050: ed6d 783f ef2d 753f e215 813f 1882 7b3f
00000060: cf28 823f 263a 843f cd9a 803f 53e2 803f
00000070: 5c31 7d3f 2e76 803f a10c 723f 1c0e 7a3f
00000080: 29af 873f 30f5 763f 798c 783f f8d1 803f
00000090: e022 853f 608d 723f 2dfd 863f 0751 703f
000000a0: 1876 7c3f 88f2 603f 24f6 843f e5b5 853f
000000b0: 6132 813f cc84 7a3f 5c0c 793f d28f 7d3f
0.982103 0.9734214 0.9642173 0.9531327 0.9905867 0.9694188 1.004289 0.95344365
0.94378793 0.9513533 0.9766692 0.9600558 0.94163036 1.0532991 1.0543438 1.0458652
1.0010072 0.9882317 1.0045583 0.96498024 0.97042733 0.95773214 1.0084803 0.9824538
1.0168704 1.0330245 1.0047241 1.0069069 0.9890344 1.0036066 0.9455052 0.9767778
1.060033 0.96467876 0.97089344 1.0064077 1.0401268 0.9474697 1.0546013 0.9387364
0.98617697 0.87870073 1.0387616 1.0446135 1.00935 0.9785888 0.97284484 0.9904758

extractor.7.bias f4 [48]
00000000: 9451 84be b7e8 9abe bcf2 78bb da28 96bd
00000010: 67d1 a6bc 4811 62be 9abb 65bd b88c 58bd
00000020: 26a7 afbd b84e a8be 9f90 dcba b005 d8bd
00000030: e501 abbe f890 b1bd 7ce3 453d fade bdbd
00000040: f2ae 32bc 0b96 3bbd 5b1d d3bc 751c b8bd
00000050: 43cd 5cbd 3e50 e8bd e73e 7dbe bf00 afbd
00000060: 59a9 71bd a947 1f3b a9aa 4c3c c0ce 80be
00000070: 7e69 24be 975b ddbd 6e02 58bd 9d4d eebd
00000080: e471 a1bd 7532 5ebd 513b b3be 8c58 7bbe
00000090: 9cf2 63bd a01e b3be 479e edbb 0c2b cfbd
000000a0: 029e 11bd 341b f6bd 92ad 61bd e019 f43c
000000b0: d5e7 e7bc 9eb8 e0bd bfc6 43be afb2 63be
-0.2584349 -0.30255672 -0.0037986478 -0.073320106 -0.020363523 -0.22076905 -0.056087114 -0.052868575
-0.08576803 -0.32872558 -0.0016827768 -0.1054796 -0.33399883 -0.08670229 0.04831265 -0.09271045
-0.010905968 -0.04579739 -0.025770834 -0.08989803 -0.05390669 -0.1134343 -0.24731027 -0.08545064
-0.058999393 0.0024304187 0.01249186 -0.25157738 -0.16055867 -0.10808485 -0.052736692 -0.11635897
-0.07883051 -0.05424734 -0.35006192 -0.24545497 -0.055651292 -0.34984303 -0.007251534 -0.101156324
-0.03555108 -0.12016907 -0.05509717 0.029797494 -0.028308788 -0.10972713 -0.19118784 -0.22236131

extractor.7.running_mean f4 [48]
00000000: 853d 623f 4645 b3bd c7b7 87bc 985d ce3d
00000010: d0c7 65bf dc62 adbf 3a74 093f 7250 c4bd
00000020: c59e 0ebf d4a9 d13e 9b42 16c0 ca35 44bf
00000030: d91f 9e3e fb88 20bf 26b1 dcbd f141 03bf
00000040: a886 15c0 142d bcbf e83d 58bf 813f c9bd
00000050: 56be 3fbf ec9a 8abf 6164 f2bd aa7d a93f
00000060: f6a3 1340 e328 6c3d bb4d 8dbf 8f30 36be
00000070: 408b ccbf 2f36 043f 97f8 a7bf 477b 3a3f
00000080: 120d 313f c146 15bf 5593 a1bd 1c49 84bd
00000090: 915c b93f 4ad6 063f 521a 07bf 7e1b 95bf
000000a0: a80f b2bf 4080 953e dcb8 423f e8d0 2f3f
000000b0: 5d63 7b3e 3959 b4bf f531 a9bf b4b1 0c3f
0.8837512 -0.08753447 -0.016567124 0.10076445 -0.89758015 -1.3545794 0.5369297 -0.09585656
-0.55711013 0.4094988 -2.3478153 -0.76644576 0.30883673 -0.62709016 -0.10775976 -0.51272494
-2.3363438 -1.4701257 -0.8446946 -0.098265655 -0.74899805 -1.0828528 -0.11835552 1.3241475
2.3068824 0.05765618 -1.1039346 -0.17791961 -1.5979996 0.5164518 -1.3122739 0.72844356
0.6916057 -0.58311087 -0.078894295 -0.06459257 1.4481374 0.5267073 -0.52774537 -1.1649015
-1.3911028 0.2919941 0.76063323 0.6867814 0.24549623 -1.4089729 -1.3218371 0.54958653

extractor.7.running_var f4 [48]
00000000: ab54 2f3f 9d5a ba3f 2729 a63f 2844 0240
00000010: d5c0 c23f 3f7a 503f 8c0f d83f 624d 673f
00000020: 3f77 c73f 0f94 413f 77c4 cc3f f43c 123f
00000030: b1ac 143f 9bbb 0c3f 7e80 6f3f d6c1 463f
00000040: 010d 0440 5db2 6940 0a59 933f 418f 473f
00000050: 5192 f13e 27d3 f33f 814e 913f c09a c63f
00000060: 5eeb 643f 573a 1140 6ba3 7840 ff28 2b3f
00000070: 711c 1d3f 8bbc 603f 8732 eb3f 1dbb 243f
00000080: 65be e83e 1e06 df3f a9d8 123f b901 8f3f
00000090: b454 443f d9e1 853f 4d85 343f b624 5540
000000a0: ddea 863f 1855 a73f 7a04 4b3f 47d5 213f
000000b0: 8800 0540 9832 803f dbc9 493f f1d3 ef3e
0.6848857 1.4558903 1.2981309 2.03541 1.5215098 0.8143653 1.6879745 0.9035245
1.5583266 0.75616544 1.5997456 0.5712426 0.58076006 0.54973763 0.9355544 0.7763952
2.0632937 3.6515114 1.1511548 0.77952963 0.47181943 1.9048814 1.1352082 1.5515976
0.8942164 2.2691858 3.8849742 0.6685943 0.61371523 0.87787694 1.8374795 0.6434801
0.4545776 1.7423742 0.5736185 1.1172401 0.76691747 1.0459548 0.705159 3.3303657
1.0540425 1.3072844 0.79303706 0.6321606 2.0781574 1.001544 0.7882363 0.46841386

extractor.9.weight f4 [64, 48, 3, 3]
00000000: 86bd 89bc 0ed5 d93c 72e7 9c3c bb90 d8ba
00000010: afe6 fbbc c9bd 33bd 6666 d4bc 581c b6bd
00000020: 1ec5 1ebd 4414 febb 7291 1fbd 8d60 1dbd
00000030: 46ad 2abb 440c ad3b 9c2d 9ebb 9e77 0fbd
00000040: bd57 cdbd 1a03 bfbd 7446 14bc 3b5a ac3d
00000050: f77b 0fbd 29af ddbb 6e4c 1bbd a51b 15bd
00000060: b9f3 3fbd 5682 0ebd 3189 fa3c ee7b d03c
00000070: f4e2 41bd 7e43 6ebd 4bcc 513d 7896 8c3c
00000080: 1dfd bcbd c2a0 97bd 2f85 41bd 6db5 7dbd
00000090: e791 a03c bfee 71bb e79c 8f3d be43 4cbd
000000a0: f151 6fbc 6ed0 2abd 35ec 05bb d2ed 2abd
000000b0: c1f5 f6bc 7cdb 07be c5ce ebbd 14d9 7bbd
000000c0: 2faa 1ebd c850 11bc 767f a43c 25d0 94bd
000000d0: a85d edbc 5761 18bd fc42 73bd 9d02 5dbd
000000e0: 831a 51bd f408 2dbd 010d f23c 1639 adbd
000000f0: 6727 c3bd 620a 27bd 5651 03be 5dbc 7f3d
00000100: e8b6 0b3c d10d 353d fe3b 473c 74f6 353c
00000110: 8bdd 3b3d c6e9 e93a e787 9e3d 7d29 4b3d
00000120: d980 d1bc 247d 053d c740 113d 7db4 643d
00000130: 782a 9d3c a46c 863c 8761 c73b c7d5 f23b
00000140: 366f 87bd 24b9 4ebd 833e 87bc 202e 8cbc
00000150: 3f26 0fbc a3bf 3cbc 3b0d 53bd 64e6 77bc
00000160: 08aa fe3b 1954 7ebc 49e3 60bb 1ea0 48bd
00000170: e495 0dbc 3af2 bcbc 5740 3ebc a09b 4b3d
00000180: 296d 24bc 6f56 da3c 4e43 babc d187 c1bc
00000190: aeae a3bd 385c 32bc 3ffd 383c 7c7e 04bd
000001a0: c7c2 0fbd 9bbe 383c 6d3a 18bd 46e8 583d
000001b0: cb90 34bd 9e76 e6bc 5e4a 3bbd 9aa5 91bd
000001c0: a8e2 60bd 0325 0fbd 687a 4dba b5cc 2bbd
000001d0: d37c 5bbd a005 9abd c63c 1abd 2663 6cbd
000001e0: c245 d63d 7006 353d c581 e43a e700 9d3d
000001f0: e4c2 813d b247 3c3d d16d d7bd 9c8f e8bd
00000200: 7210 79bc f6c6 56bd a746 aabc 2a4e 793d
00000210: 5155 8abd 60ce 0ebd e38c 183d d24a 3cbc
00000220: f73a 29bd 7fe8 223d 1d6a 8f3d 5048 643d
00000230: 18cb 603c db28 443d bbba f23d 359d ef3d
00000240: c93d d43c 48c8 f7bc 8fdc 883d 5045 5e3c
00000250: dc8d 343d 9058 0c3d 6821 15bd 2968 483d
00000260: ae64 ebbc d556 a3bd 0f83 9fbd 61d4 f6bd
00000270: d5b7 103d b593 58bd a0de b5bd e610 c43c
00000280: a364 49bd bd7e 82bd 7ed4 b7bc 4c8b 3c3d
00000290: a345 8d3b 9820 93bd c48b 84bd 3885 24bc
000002a0: 5c7f 79bd 7cb3 ecbc 95f6 de3b 4c9d 02bd
000002b0: 9848 a9bc 981d 353b f80b eb3c ec45 aebd
000002c0: 767f 62bc cf6f 7d3d 7533 993c ee30 f33b
000002d0: c236 cf3c 4ffc a0bb 975f 563c f349 b838
000002e0: cf85 fd3c fa79 15bb a15e cf3c 1212 58bd
000002f0: 9376 673d c656 5f38 fd9a 03bd 63ab 0a3c
00000300: cb13 433d b090 653d e7d9 1cbd 28eb da3b
00000310: f3a2 273c 958e 03bd 5905 f1bd 15e4 a8bd
00000320: bacb aabc 45ec 3e3b 90b6 aa3c bb78 4fbc
00000330: 1d61 0dbd 24f2 c3bd 7877 52bd db32 53bd
00000340: d542 f1bd d14d b0bd a2f0 96bb fe56 09bd
00000350: 04d2 82bd 8bad d33d 28f7 8f3c ebd6 623d
00000360: 9341 933d 05f0 e1bc 88d0 0fbd 4e1d 3fbd
00000370: f454 32bd 09c6 5ebd 9d00 a7bd cba7 dabd
00000380: c608 5cbc beac 023d c0ab c83d cc7d ff3c
00000390: e685 743c bc54 7bba 05b1 52bd 4ec9 bbbc
000003a0: f28e 2ebc 1dfd 0dba a884 f9bb 15c0 3c3d
000003b0: 327a 32bd e584 533d 756e 3b3d 6a27 1ebd
000003c0: fe3d 7ebc e19e bdbb d55c 08bd fb2f 86bd
000003d0: 3611 70bd 4a0e 32bd b142 29bd 4527 c1bb
000003e0: 1a75 2c3c a74f 153b 36b8 d1bc 9497 46bd
000003f0: ec46 ffbd 3ec0 7cbd 5770 383c 32bd babb
-0.016814005 0.02659085 0.01915333 -0.0016522625 -0.030749647 -0.043882165 -0.025927734 -0.08892125
-0.038762204 -0.0077538807 -0.038957067 -0.038422156 -0.002604322 0.005281003 -0.0048272144 -0.035026185
-0.100265004 -0.093267635 -0.00905 0.084156476 -0.03503033 -0.0067652655 -0.037914686 -0.036403317
-0.04686329 -0.034792267 0.030582996 0.02544972 -0.04733558 -0.058169834 0.05122022 0.017161593
-0.09227965 -0.07403709 -0.047246154 -0.0619406 0.019600822 -0.0036915985 0.070123486 -0.04986929
-0.014606939 -0.04170268 -0.002043498 -0.04173071 -0.030146481 -0.1326732 -0.115140475 -0.06148632
-0.03873652 -0.008869357 0.02008031 -0.07266263 -0.028975323 -0.037202206 -0.059390053 -0.05395757
-0.051050674 -0.042244866 0.029547216 -0.08458154 -0.09529 -0.040781386 -0.12823996 0.062435497
0.008527495 0.04420263 0.012160299 0.011106122 0.045865577 0.0017846159 0.07740765 0.049600113
-0.025574135 0.032590047 0.035462167 0.05583619 0.01918529 0.016409226 0.006084624 0.007410738
-0.06613009 -0.050469533 -0.0165093 -0.017111838 -0.008737146 -0.011520299 -0.05152629 -0.015130613
0.007771734 -0.01552298 -0.003431516 -0.048980825 -0.008641694 -0.023064721 -0.0116120195 0.049708962
-0.010035791 0.026652543 -0.022737172 -0.023624333 -0.07992302 -0.0108862445 0.011290847 -0.032347187
-0.035097864 0.011275913 -0.037165094 0.05295589 -0.044083398 -0.028132733 -0.04572522 -0.07111664
-0.054903656 -0.034947407 -0.00078383693 -0.04194327 -0.05358584 -0.07520604 -0.037655614 -0.057711743
0.10462524 0.044195592 0.0017433694 0.07666188 0.063360006 0.04596681 -0.10518993 -0.11355516
-0.015201675 -0.052435838 -0.020785643 0.06086556 -0.06754554 -0.034864783 0.037243735 -0.011492448
-0.041316 0.039772507 0.070026614 0.055733025 0.013720296 0.047890525 0.11852022 0.11699907
0.025908368 -0.030246869 0.06682693 0.01356633 0.0440806 0.034264147 -0.03640881 0.04892746
-0.028734531 -0.07975546 -0.07788669 -0.12052227 0.035331566 -0.05287524 -0.08880353 0.023933839
-0.04916824 -0.0637183 -0.022440191 0.04603128 0.00431128 -0.07183951 -0.06471971 -0.010041527
-0.060912475 -0.028894179 0.006804297 -0.03188829 -0.020664498 0.0027636047 0.02869223 -0.0850943
-0.013824334 0.061874207 0.018701294 0.0074216044 0.025294665 -0.00491289 0.013084314 8.787578e-05
0.030947594 -0.00228083 0.025313677 -0.05275161 0.056509566 5.3248157e-05 -0.03213023 0.008463713
0.047626298 0.056046188 -0.038293745 0.006680865 0.010231721 -0.0321184 -0.11768598 -0.08246628
-0.020849098 0.0029132527 0.020839006 -0.012663062 -0.034516443 -0.09567669 -0.051383466 -0.05156217
-0.11780325 -0.08608592 -0.0046063224 -0.033530228 -0.063877136 0.10335835 0.017573908 0.055380743
0.07190242 -0.02758027 -0.03511098 -0.046658807 -0.04353805 -0.05438808 -0.08154414 -0.10676535
-0.013429826 0.03190302 0.09798384 0.031187914 0.014924502 -0.00095875165 -0.05143835 -0.022923138
-0.010654198 -0.000541644 -0.007614691 0.04608162 -0.043573566 0.05164041 0.045759637 -0.038611807
-0.01551771 -0.005786762 -0.033291657 -0.0655212 -0.058610164 -0.04347066 -0.041323368 -0.005894574
0.010525966 0.0022783072 -0.025600534 -0.0484844 -0.12464699 -0.061706774 0.011257253 -0.0056988234

extractor.9.bias f4 [64]
00000000: 2992 c2bb 6f43 85bc 8bf6 08bc 43b8 14bc
00000010: 1d50 163d be25 4dbc 61be c03c cbbf 813c
00000020: 9c8b e3bc bb2c 05bd 19b7 a7bc ee37 e4bc
00000030: 4d46 c53c f207 033d 5920 253d 7ad0 b2bc
00000040: 067a 333d b69d 99bc 23fa 9c3b 0b54 3c3d
00000050: eb07 a73c dafb 4fbc 3c96 11bd b479 16bd
00000060: 4a89 aebb 1e40 3c3d 1a03 c13c f17d 1d3d
00000070: c925 39bc fddc 053d 992a b53c 0c53 883c
00000080: ff66 843c ecec d03b 6cf8 babc 20b8 913c
00000090: 529f 37bc 7a87 e03c 6bea ef3c c71e 13bd
000000a0: 5f14 38bd c377 f4bc c77e 093d 7a23 d8bc
000000b0: 7b4c 1e3d f0dd febc d02d 37bd b8b1 d93c
000000c0: 0b04 1bbd ca08 e53c 3e7f 6ebc 4f97 383d
000000d0: 1435 e33c 4589 6b3c a4ac f23c 3574 39bd
000000e0: dd0e 353d c29c 1cbd 9874 2dbd 46f5 bebb
000000f0: d2b6 bb3c aede 0cbd 56f5 44bc fd51 13bd
-0.005937834 -0.016267506 -0.008359562 -0.009077135 0.036697496 -0.0125212055 0.02352828 0.015838524
-0.027776532 -0.03251336 -0.02047305 -0.0278587 0.024081374 0.03199 0.040314052 -0.021827925
0.043817542 -0.01875196 0.004790561 0.045978587 0.020389518 -0.012694323 -0.035543665 -0.03673716
-0.0053264247 0.045959584 0.02356105 0.038450185 -0.011300513 0.032681454 0.022115039 0.016641162
0.016162394 0.0063758995 -0.022823535 0.017787993 -0.0112074185 0.02740835 0.029286584 -0.035918023
-0.044941302 -0.029842263 0.03356817 -0.026384104 0.038647156 -0.031111687 -0.044721425 0.026574
-0.037845653 0.027958293 -0.014556704 0.045066174 0.02773527 0.014375989 0.029623337 -0.04527684
0.044203628 -0.038235433 -0.04234752 -0.0058275787 0.022914324 -0.03439205 -0.012021383 -0.035966862

extractor.10.weight f4 [64]
00000000: f6c0 853f b0f2 813f f8ea 7a3f 5106 853f
00000010: 88e4 773f b563 743f 9d9f 7f3f 75b2 7c3f
00000020: 4cbc 733f 8efb 753f d3f7 7b3f 8370 843f
00000030: 3f04 8b3f 9e41 873f b525 6c3f ebd8 733f
00000040: 0f54 803f 0d1f 6e3f 0eda 883f 9f07 7f3f
00000050: fbef 7a3f aa30 8c3f 6874 733f a367 6d3f
00000060: 7be7 763f 50bd 833f 40c1 7f3f 1a1b 813f
00000070: 2e8f 853f 3999 803f 79d5 803f 08fb 703f
00000080: 110b 743f 2230 823f 5159 743f 8e4a 7d3f
00000090: 39be 793f 8d08 7e3f b332 723f fae0 803f
000000a0: 33a5 663f 3519 7c3f 12be 783f 89dd 773f
000000b0: 4db1 783f a395 733f bc69 823f 243f 7d3f
000000c0: 2293 8f3f a474 8c3f 1113 833f 6024 7a3f
000000d0: 0a90 823f 1383 743f b96e 873f 209c 853f
000000e0: 5980 723f b0ff 7f3f 48a7 6e3f d581 843f
000000f0: f575 803f d973 853f eeb2 723f 512d 6d3f
1.0449512 1.0152187 0.98014784 1.0392553 0.96833086 0.9546464 0.99852926 0.98709804
0.95209193 0.96086967 0.98425025 1.0346836 1.0860671 1.05669 0.92245036 0.95252866
1.0025653 0.9301613 1.0691545 0.99621004 0.9802243 1.0952351 0.95099497 0.9273626
0.9644696 1.0292149 0.9990425 1.0086396 1.043432 1.004676 1.0065147 0.94133043
0.95329386 1.0170939 0.95448786 0.98941886 0.9755588 0.992318 0.9460861 1.0068657
0.90095824 0.9847596 0.97165024 0.9682241 0.9714554 0.951502 1.0188518 0.9892447
1.1216776 1.0973096 1.0240194 0.97711754 1.0200207 0.95512503 1.0580665 1.043827
0.94727093 0.99999523 0.93224 1.0352122 1.0035998 1.0425979 0.94804275 0.9264727

extractor.10.bias f4 [64]
00000000: 9675 6d3c d54d f9bc 9703 86be 7a38 d6bd
00000010: 93c3 91bd 31c9 52bc 7e91 96bc f1ef e3bc
00000020: 0e00 97be f517 d0bd 9f3e b4be 9690 5ebd
00000030: e9c1 29bd ec4c e2bd 7bce d8bd c3b3 dfbe
00000040: 1bb8 d5bd 3512 7bbe 6410 9bbd 85ed 60bc
00000050: a284 cbbe 1ce0 3cbd f7cc 35be 8460 d9be
00000060: 10d4 6fbd 0744 ac3c eff1 a0bd 90b7 bebd
00000070: 5612 90bd a1d6 99bd d5c1 5abd 172c 1dbe
00000080: 3af3 ccbd 361f a6be 2982 d7bc 4f31 acbe
00000090: 24c8 d7be 91b5 8dbd e3f2 bcbe 17c9 1fbd
000000a0: 1e07 f3bd 1cf6 ccbc 7a50 6abd 2ae8 a9bc
000000b0: 0df1 36bd 87ec 8cbe b698 c0bd 34ab 04be
000000c0: 3f32 3abc 58ef 053d 7ead fabd 50c0 7fbd
000000d0: ef8e c5bc d82f 8bbe 9bad 283c 5dcd 0fbe
000000e0: 0caf b7bd 69c1 88bd 83af cdbe c2fe 1d3d
000000f0: 3eb7 4ebe a15d d5bd 7859 57bd ff43 babd
0.014493367 -0.030432621 -0.26174614 -0.10459991 -0.07117381 -0.012865351 -0.018379923 -0.027824374
-0.2949223 -0.101608194 -0.35204026 -0.054337107 -0.041444693 -0.11049828 -0.10586258 -0.43691835
-0.10435506 -0.24518664 -0.07571486 -0.013728504 -0.39749628 -0.046112165 -0.17753969 -0.42456448
-0.058551848 0.021028532 -0.07858645 -0.093123555 -0.07034747 -0.0751164 -0.05340751 -0.1534885
-0.10007329 -0.32445687 -0.026307182 -0.3363137 -0.42144883 -0.06919397 -0.36904058 -0.039010134
-0.11866592 -0.025019698 -0.057205655 -0.020740587 -0.044663478 -0.27524206 -0.09404127 -0.12955934
-0.011364519 0.03269896 -0.12240122 -0.062439263 -0.024116008 -0.2718494 0.010295297 -0.14043184
-0.089689344 -0.06677515 -0.40172967 0.038573034 -0.20187089 -0.10418249 -0.05257556 -0.090950005

extractor.10.running_mean f4 [64]
00000000: 2f97 a6bf a329 cb3e 9cbe b83e 4970 8b3e
00000010: 5e2f bcbf 6d3f efbf de9b e4bf e72d d0bf
00000020: 7e7b 33bf 41e8 0fc0 5d1e 043f b24e edbf
00000030: c09a c33e 3d7c bcbf 7db7 53c0 5011 18bf
00000040: 2082 dbbf b272 d4bd 8274 07c0 69e9 3f3f
00000050: f744 bb3e ac9f 213f 7b29 dbbf 2028 b63e
00000060: 08db cfbf 0642 f6bf c28d e0bf f3e0 12c0
00000070: c36e 1fbf b034 e3bf efe7 08c0 a874 573e
00000080: a2a6 27bf db15 9d3e 62f7 cfbf 8763 333d
00000090: 218e 9b3e 6532 24c0 b58d 64be 335e 83bf
000000a0: 1e91 f13e 76bc 02c0 2f2b 0ac0 0441 d9bf
000000b0: 6abf 35c0 e6c5 50be 8e02 acbe 74b9 e0bd
000000c0: 9aa1 81be 45c3 e8bf e65c 87bf e481 81bf
000000d0: caca 27c0 87bf e8be e195 cdbf 861e a3bf
000000e0: e2d8 ddbf 0942 aebf 5a10 99be 7789 13c0
000000f0: bc00 7abe 87db 81bf 4ad4 ba3f 8515 4ac0
-1.3014888 0.39680204 0.36082923 0.27234104 -1.4701955 -1.8691231 -1.7860067 -1.6264008
-0.7011031 -2.2485507 0.5160883 -1.8539641 0.38204002 -1.4725415 -3.3080742 -0.59401417
-1.7149086 -0.10373439 -2.116486 0.7496553 0.36576054 0.63134265 -1.7122034 0.35577488
-1.6238718 -1.9238899 -1.7543261 -2.2949798 -0.62278384 -1.7750454 -2.139156 0.21040595
-0.65488636 0.30680737 -1.624737 0.04379609 0.30381873 -2.5655758 -0.22319682 -1.0263122
0.47181028 -2.0427527 -2.1588857 -1.6972966 -2.839808 -0.20387992 -0.335957 -0.109728724
-0.25318605 -1.8184592 -1.0575225 -1.0117764 -2.6217523 -0.45458624 -1.6061364 -1.274369
-1.7331812 -1.3613902 -0.29895288 -2.3052652 -0.24414343 -1.014512 1.4596035 -3.1575634

extractor.10.running_var f4 [64]
00000000: d2d2 4040 a3ef 0840 dd95 e23f e848 ac3f
00000010: a244 6f40 36e8 9040 bb71 6740 52de 5d40
00000020: 4aed d53f 2c32 b63f 66b6 b93f 7971 4440
00000030: f23f 2c40 d548 e23f a387 7240 2e65 c63f
00000040: d38c 2140 ecc6 c43f 5e1b f73f 28fe f73f
00000050: c205 ef3f ffd2 2340 71df 3a40 ba2c eb3f
00000060: 5a3c 8a40 0ddd 8940 bd49 2c40 eb7a 1f40
00000070: 7312 a43f 580f 0740 6ec5 5040 df22 c63f
00000080: 8f8f 1b40 1e87 dc3f 9f87 6c40 9311 0a40
00000090: 69d2 e23f 1943 4540 8b80 ce3f f7e3 cd3f
000000a0: 1037 5640 120d cf40 ca1c 3840 1941 0141
000000b0: cdb2 2440 fbe4 0240 bf66 f83f 227f 9f3f
000000c0: ec8a 1a40 04a9 0640 c5db 0640 2f86 0a40
000000d0: 30bd 4740 0c19 ff3f 4692 3540 a20e 0740
000000e0: 6e83 4040 e91e 2740 1bb9 a23f 66ae 2240
000000f0: 0c5c e93f 80dc f23f 953c 1f40 9fc8 6840
3.0128675 2.1396263 1.7701985 1.3459749 3.738564 4.528346 3.6163166 3.4666944
1.671304 1.4234061 1.4508789 3.0694258 2.691403 1.7678477 3.7895286 1.5499628
2.5242202 1.5373206 1.9305227 1.9374437 1.8673632 2.5597532 2.9198878 1.8373024
4.319867 4.3082337 2.6920006 2.4918773 1.281813 2.1103115 3.2620502 1.5479392
2.4306371 1.7228734 3.6957777 2.1573226 1.7720462 3.0822203 1.6132978 1.6085194
3.3471107 6.4703455 2.8767571 8.078393 2.5734131 2.0452259 1.9406356 1.2460673
2.414729 2.104066 2.1071637 2.16444 3.120922 1.9929519 2.8370528 2.110268
3.0080218 2.6112616 1.271274 2.5418944 1.8231215 1.8973541 2.4880726 3.637245
