gpl/results/il/ep_030.ckpt (torch, 773626 bytes, 43 tensors)

extractor.0.weight f4 [24, 3, 5, 5]
00000000: 9d44 bb3d d435 82bc 88dc 543c 0789 c13d
00000010: ff86 83bd 8f00 713d c4d5 09bd 03ef 483d
00000020: 0c46 8d3c d3a3 2bbc f4b0 1d3d ce55 503c
00000030: da3a 363d c916 22bd 24f9 2abc d7df adba
00000040: fbdf 143d 259c 863c 8b15 f53d bebc 393d
00000050: 23fe ccbd bbf0 f5bd 090e 8dbd 1e7a c7bd
00000060: 6cea b1bd 7bd7 9c3a 5339 893d d002 793d
00000070: bb36 dcbd 5ccf af3d 22b4 bdbb ea5f 9d3d
00000080: 74be 3e3d 18f0 f9bd 197d f5bd c2d9 a8bd
00000090: 9d84 9a3d 8f39 31bd fc8a f43c c427 93bd
000000a0: ca08 cf3d d42b 58bd fd72 ac3d 4a04 c539
000000b0: 877b 84bd 875e 4dbc ba19 02be 55ec e2bc
000000c0: 3eb3 c0bd 4ebf 95bd 4fa9 ddbd 6e16 4bbd
000000d0: 2067 8c3d 7dae 90bc 6c7f 063e 88bc 7b3d
000000e0: 2d9e 00bd 33bf c9bd e54b 6c3d 34ed ed3c
000000f0: 6cd5 b9bd 06c4 763d 33d3 573d 6339 b23d
00000100: 0d08 a0bd aaaf cebc abf9 1fbb baab 953c
00000110: 57e7 aebd fc45 a3bd bf25 3f3c 3a93 96bd
00000120: 527e 813c 5ab9 09bd c961 5c3a 91ea 9dba
00000130: 88e9 953b a773 e03c c86d 01be e3d8 523d
00000140: 1769 ecbd d058 00be d6ef 8dbc c426 d6bc
00000150: 8402 9c3d 254b adbd db45 f2bd f864 9d3d
00000160: f085 38bc 7f15 b13d affc 013d 27bf bebd
00000170: 0cc5 953c 935c ea3c 59d5 80bd 0330 cdbd
00000180: 9e56 9ebb 5887 7fbc b354 a3bd 745d 62bd
00000190: 9434 aa3d 10af 69bd 7681 163d 2b70 f93c
000001a0: a750 a9bd dfc0 02be e3d0 9b3d e095 b4bc
000001b0: 52f6 993d be25 023d 6837 763c 573f 893d
000001c0: cc09 c83d 17f0 84bd 1536 273d 330d ae3d
000001d0: f23f b13d 38fb 8e3d 2ba3 a8bd 3e19 90bd
000001e0: 7e4a 00be ccf3 1dbd c708 8f3d 6ec6 ecbd
000001f0: 315f eb3c aead cbbd 3f10 1ebe fd42 73bd
00000200: 87df 233d 6bd1 bf3d b523 e6bd 2472 adbc
00000210: 51bc 8f3d a0cc 8d3d 1e53 a03d 3ed1 883d
00000220: 8899 773d 4016 f13c ce91 71bd 1312 6dbd
00000230: 82ad 5bbd 2eac 3ebc d7a8 8ebd 2c17 3a3d
00000240: 059c 613d b576 91bd 4ef8 c9b9 8ac9 133b
00000250: 5ec0 173d de7f 773d 20f0 53bd b24e cf3d
00000260: 395d 9cbc 73f7 50bc 843a f8bd cc51 8ebd
00000270: 5704 8abd a3e1 46bd 546b af3d 242e 13bd
00000280: 2053 7abd ec09 883d 7ff3 753d 17bf c83d
00000290: f985 21bd 8a72 503d 34ea 87bc 1bc0 953a
000002a0: 9999 8abd 95a3 dbbc 5490 b33c 90c1 d73d
000002b0: e18e 9a3d 69ae b03d 3248 333e a2cb 963d
000002c0: b4a5 263d 1c59 efbc 92ca edbd af8e 393d
000002d0: b337 27bd c801 e7bc 9337 f5bd 542e 25bd
000002e0: 6fe3 cebd fef3 eb3d e330 c0bd e1f6 b0bd
000002f0: 3bd6 d439 e5da 8abd 8065 283d dfb2 3bbd
00000300: fd7f 69bd 1e76 563a 3a5d 983d 281e 5cbd
00000310: d922 a33d 3923 c13d d5db 0b3e 2d59 67bd
00000320: 4bed 97bb 0e13 f1bd 997b 993d a363 91bd
00000330: 3f70 173d 4922 dfbb ce2e cabc 992d 93bc
00000340: fe9a f33b 1af7 183d 3cf6 d73c ff0e 223d
00000350: a7a5 cbbd 4f49 b63d a091 d03d 71f4 c53d
00000360: 0a9d af3d 8e74 a7bd 423a 2dbd a635 d13d
00000370: 73b6 7ebd 4eda 043e ff43 8dbd b06b 62bd
00000380: f282 af3d 102f 14bd 4567 b83c a98b 053e
00000390: 7a5f 0e3e eb48 213e c2d6 f4ba a8a9 8bbd
000003a0: 04d7 0a3e cf19 6dbb 203a d1bc b339 443c
000003b0: f2b4 c9bd 0e72 7d3d 9971 5d3d c03f ddbd
000003c0: 3796 b5bd 018e 26bb 4175 6e3d 4555 853b
000003d0: a3fa 58bd 38a1 1fbc ca17 eebd 3e9c b5bd
000003e0: 7209 b4bd 4ac0 a13d 14ff 113e 154c 533b
000003f0: edd1 3b3d 6243 c13d b6f9 713d 1770 3cbd
0.09143946 -0.015894808 0.012992032 0.09449964 -0.06422233 0.058838423 -0.03365113 0.049056064
0.017245315 -0.01047607 0.038498834 0.01271577 0.04448972 -0.03957251 -0.010435376 -0.0013265562
0.036346417 0.016431877 0.119669996 0.045346014 -0.1000941 -0.12008806 -0.068874426 -0.09740089
-0.086872905 0.0011966074 0.06700387 0.060793698 -0.107526265 0.085844725 -0.005789296 0.0768431
0.04656835 -0.122039974 -0.11986751 -0.08244659 0.07544825 -0.043267783 0.02985143 -0.07185319
0.10109098 -0.052776173 0.0842037 0.00037577964 -0.064688735 -0.012534744 -0.12705126 -0.027700583
-0.09409188 -0.07311879 -0.10823309 -0.049581937 0.06855607 -0.017661327 0.13134545 0.061459094
-0.03140085 -0.098509215 0.057689566 0.029043771 -0.0907391 0.060245536 0.05269165 0.08702352
-0.078140356 -0.025230248 -0.0024410288 0.018270362 -0.08540218 -0.07972333 0.011666714 -0.073523
0.015807305 -0.03362403 0.0008406905 -0.0012048056 0.0045749582 0.027398897 -0.12639534 0.05147637
-0.11543482 -0.1253388 -0.017326277 -0.026141532 0.07617667 -0.08461598 -0.1182973 0.07685274
-0.011262402 0.08646678 0.03173512 -0.09313803 0.018282436 0.028608596 -0.06290693 -0.10018923
-0.004832103 -0.015596233 -0.079751395 -0.055264905 0.0831081 -0.05705172 0.036744557 0.030448994
-0.08267336 -0.12768887 0.07608201 -0.022044122 0.07517685 0.031774275 0.015027858 0.06701534
0.097674936 -0.06491106 0.04082306 0.08498611 0.08654775 0.0698151 -0.08234247 -0.070360646
-0.12528417 -0.03856258 0.06984096 -0.11561285 0.028731914 -0.09945236 -0.15435885 -0.059390057
0.040008094 0.09366115 -0.11237279 -0.02117259 0.070183404 0.06923795 0.07828353 0.06680535
0.060449153 0.029429555 -0.05897694 -0.057878565 -0.053632267 -0.0116377305 -0.069657974 0.045432255
0.055080432 -0.0710272 -0.0003852271 0.0022550547 0.03704869 0.060424678 -0.051742673 0.10122432
-0.01908742 -0.012754309 -0.12120536 -0.06949195 -0.06739109 -0.048555028 0.08565393 -0.035932675
-0.06111443 0.066425174 0.06004667 0.098020725 -0.039434407 0.050890483 -0.016591169 0.001142505
-0.06767578 -0.0268114 0.021919407 0.10534966 0.07546783 0.08627016 0.17508009 0.073630586
0.04068537 -0.029217295 -0.11610903 0.04530209 -0.040824603 -0.028199092 -0.119734906 -0.040327385
-0.10101973 0.11521147 -0.093843244 -0.086408384 0.00040595405 -0.06780032 0.041112423 -0.04582488
-0.057006825 0.0008181053 0.074396566 -0.053739697 0.07965631 0.09430546 0.13658078 -0.05648153
-0.004636442 -0.117712125 0.074942775 -0.07099082 0.03697228 -0.006809507 -0.024680521 -0.017966079
0.007434248 0.03734503 0.02636253 0.039565083 -0.09943705 0.08900701 0.10184026 0.09665764
0.08574875 -0.08176528 -0.042291887 0.10215311 -0.062185716 0.12973902 -0.06897735 -0.05527848
0.08569898 -0.036177695 0.02251018 0.13041557 0.13903609 0.15750472 -0.0018679725 -0.06819469
0.13558584 -0.0036178713 -0.025540411 0.011976647 -0.09848966 0.06187635 0.054063413 -0.10803175
-0.08866542 -0.002541423 0.05821729 0.004069003 -0.0529734 -0.009743027 -0.11625631 -0.088676915
-0.08790864 0.07898004 0.14257461 0.0032241393 0.045854498 0.094366804 0.059076034 -0.046005335

extractor.0.bias f4 [24]
00000000: 22bc a73d a525 193d f317 88bd e413 9f3d
00000010: 13f6 a4bd 5800 673d 8e8e c1bc 31ae 0c3d
00000020: 9891 4abc a192 ae3c 40cc 06bd d73c 443d
00000030: 203b 5b3d 9d74 d2bd 1281 d13d 5cf4 bfbd
00000040: 29c1 57bd 3d64 3f3d 14b2 d43d 63b3 203d
00000050: 03a7 83bd 0bf0 9d3c 0337 89bd 05d7 573d
0.0819018 0.037389416 -0.06645193 0.07767466 -0.080547474 0.056396812 -0.023627546 0.03434581
-0.012363814 0.021310152 -0.03290963 0.047909584 0.053523183 -0.102761485 0.10229696 -0.0937278
-0.052674446 0.046726454 0.10385528 0.039233577 -0.06428339 0.0192795 -0.06699946 0.052695293

extractor.1.weight f4 [24]
00000000: 96ba 8c3f f135 6a3f 2170 6b3f 37d9 7c3f
00000010: 1626 823f 268e 833f 3222 723f d703 813f
00000020: 7026 803f b9a2 7d3f 8af8 803f d893 803f
00000030: 4219 823f 8f41 703f c989 853f 0376 823f
00000040: 0fd7 863f 8658 823f 2890 753f 7ace 6e3f
00000050: 4344 773f 4bb1 883f d761 6a3f 9b0d 813f
1.0994442 0.9148856 0.9196797 0.98768944 1.0167873 1.0277755 0.9458343 1.0079297
1.001173 0.9907642 1.0075848 1.0045118 1.0163958 0.93850034 1.0432674 1.0192264
1.0534381 1.0183265 0.9592309 0.9328381 0.96588534 1.0679106 0.9155554 1.0082277

extractor.1.bias f4 [24]
00000000: dc9a e6bc a7d8 0dbe cc64 acbd e23c 03bd
00000010: a729 f33b e30e 5abc 75fa 27bd 1938 313b
00000020: fca1 9bbb 18a5 5f3d 4771 f93c 0bdf 83bd
00000030: aa0f c5bd 613f cebc a42a 59bc f0da 8bbd
00000040: 604f 303a d2a8 a8ba 9183 20bd fadc 4fbd
00000050: e673 3cbd 6b8b cb3c cfe5 92bc 02a0 f8bc
-0.028150015 -0.13852178 -0.08417663 -0.032040484 0.007420737 -0.013309213 -0.04101034 0.0027041493
-0.0047495347 0.054600805 0.030449523 -0.064390264 -0.09622128 -0.025176706 -0.013254795 -0.068288684
0.0006725695 -0.0012867695 -0.03918797 -0.05074785 -0.046008967 0.024846753 -0.017931847 -0.030349735

extractor.1.running_mean f4 [24]
00000000: cf35 aebd 8d86 b6bd af59 873c 23a8 5b3e
00000010: d4ee 0cbe 5569 15be 8c2d 3c3e e09f 64be
00000020: 8bc0 b03d c7ce 49bd f839 a6be 7f10 a0bd
00000030: 3965 46be 05ed b23d 2ff0 b9bb 88b9 afbd
00000040: 3d6f cc3c 1467 853c c161 333e 6ba6 623e
00000050: e1ae d7be 787f 9e3d f7a5 693e 656a bcbd
-0.08506357 -0.08912382 0.016522257 0.21450858 -0.1376298 -0.14590962 0.1837675 -0.22326612
0.08630475 -0.049269464 -0.32466102 -0.078156464 -0.19374551 0.08736614 -0.005674384 -0.08580309
0.024955386 0.016284503 0.17517759 0.22133796 -0.4212561 0.077391565 0.22817217 -0.09199981

extractor.1.running_var f4 [24]
00000000: 9e5e 653c 695f 463c a8ad 213c bb3c 473c
00000010: 87d4 6e3c 8662 4b3c 8fbe 863c 57b6 1a3d
00000020: b0d9 6f3c 59da eb3b acd5 1a3d 6ee8 343c
00000030: 1e10 b23c c298 9f3c ce38 393c d7dd b83b
00000040: b1a8 2b3c 5c47 a33b 21a7 fb3b 4690 c93c
00000050: e9b1 623d 9781 383c 82dd 283d f85a 763c
0.013999609 0.0121077085 0.009868063 0.012160475 0.014577038 0.012413627 0.016448287 0.03777155
0.014639303 0.00719766 0.03780143 0.011041744 0.0217362 0.01948202 0.011305047 0.0056416797
0.010477231 0.004982872 0.0076798354 0.024604928 0.05534545 0.011261365 0.04122687 0.015036337

extractor.3.weight f4 [36, 24, 5, 5]
00000000: 6627 1aba f7cd d9bb ecf3 d0bc 93e9 113d
00000010: dea6 883d d634 11bd e184 9a3c 0f60 1b3b
00000020: 4882 743b efcd 503d 0505 b1bc 7dd8 573c
00000030: 340d d33c 1526 b13c 9168 babb 2a8e babc
00000040: 78d4 213b 3f6b 0cbd c779 673c 5775 94bb
00000050: 9d5d 2abd c0df 1f3c e451 80bd 0b07 20bd
00000060: 7eb6 53bd 4bfb eaba 7938 ed3c 0fed 55bc
00000070: 59b5 e73c 61c5 d13b afe4 52bd 13fc 323c
00000080: 81c7 ba3c 6b54 b8bc 873d 123c e91a 85bc
00000090: 16e1 a73a dc6d cb3c aa86 5bbd d9fa 8bbd
000000a0: 3304 30bc 51a0 e3bb 48c2 0dbc 01c5 00bd
000000b0: 617b 003d 1c66 11bd a020 c0bc 2929 cdbc
000000c0: acc1 02bd a1cc 043c 069d 433c 08ba 0b3d
000000d0: 7788 243d c404 3e3c 931d 2c3d 22d8 8a3b
000000e0: 364b 473d ee27 103d be9f 47bc ebf3 053b
000000f0: c762 64bc 5258 733c 8335 c2bc bd78 5dbc
00000100: 1203 e3bc 2b12 3bbd 5e58 0ebd e32d 81bd
00000110: 4136 41bd ad58 28bc 2a23 3939 3f79 1c3a
00000120: d751 ebbc aaa7 04bd 0f37 5bbd e6c8 c43b
00000130: 592a 2abd 01b5 cbbb 677a 8c3c dfe6 8e3c
00000140: f767 80bd 654d b2bc eb29 2bbd 2aa3 103c
00000150: 5e30 e2bc 3985 b33c 61fd f6bc 4b07 a63c
00000160: df78 a23c a988 df3c 5066 e3bc 1fbf 063d
00000170: 4407 ecbc 9ca6 06bd a8b8 a73c dada cfbc
00000180: 41f5 29bd 0ba4 83bd d8a5 e93b 06cc eabc
00000190: 09c3 eabc 6268 dc3b b5d0 a7bc 6d4e db3c
000001a0: 56b7 64bc fba8 4fbd 0149 81bd a37e 87bc
000001b0: 0f55 89bc edef a03c 488c 8fbc 1a10 c53c
000001c0: a53c 043d 764d 023c da93 fcbb 9b26 69bd
000001d0: 0fe6 33bd d17e a8bc 3520 21bd fd36 ba3b
000001e0: 2fb1 2cbd 0c2c 13bd 6b19 95bc 458e 4fbd
000001f0: 56bb a33c 6ddd f5bc 3db2 c3bc ef71 073c
00000200: 5bcd 08bd 6e0b 9b3b b861 bbbc 07c3 0b3c
00000210: 365a c53a 0461 1c3d e1ef 333d 2950 ce3c
00000220: c4b4 85ba 75ad b63c 8c9a 36bd 69a4 1ebd
00000230: 8262 6dbc 6718 43bc 435e eebb b710 03bb
00000240: 20c1 00bc 469b e7ba ef77 17bd dbac febc
00000250: aff1 62bc 068b 8a3b cf65 febc a67c e1bc
00000260: 8df3 b53c fdca a03c 1017 4ebc ae26 1ebd
00000270: 3a00 6abd eb5a 9a3b a549 b6ba 5ee8 0bbd
00000280: 23d6 1fbd 2aaa 4bbd 2585 003d 5f97 103d
00000290: e1b7 403d d964 e63c 149c 633b ee57 5c3d
000002a0: 55ab 663d a0d9 c8b9 c5f5 21bd 97f0 063d
000002b0: 083b 5f3c 7c32 d83c dc81 d6bc 2e0c 82bc
000002c0: 1e3f 2f3c 3ae7 3a3c aa72 cb3c 3d7f 153d
000002d0: d838 d53c 3a16 8f3d 8167 893c 575b c73c
000002e0: 1405 43bc 644d 113c ad50 173d 2ec5 1dbd
000002f0: a385 133c 43e5 e6bc cc0c e8bc a451 dabc
00000300: 7124 a7ba 76d7 16bd 7217 8a3b 85e9 69bd
00000310: 8a74 8cbb 6e21 bbbc 56bc 10bd ad6b 013d
00000320: d5fc dcbc 8198 76bd 4bfd 50bd adff 2fbd
00000330: d9b1 35bd 798d e3bc adeb 00bd 468e 073c
00000340: af33 ddbc 4833 52bd 7119 253a 3234 85bc
00000350: 9e9b 50bd 4c6d 4ebb 0706 4d3a eb93 8abd
00000360: ec37 78bd 5c59 37bd 546f 66bd 0714 23bd
00000370: 0f50 babc 5fab 8bbd e999 80bd 47b1 54bd
00000380: 11f7 0bbd cb9d d63c f2ec 8d3c 3f3a 3d3c
00000390: 33db 29bc f8fb d4bc c272 373d b924 23bd
000003a0: 1a1d 9bbc b011 08bc e882 84bc 3a89 dbbc
000003b0: cdd1 93bd 545c 38bd d26a 49bd a31d 5b3c
000003c0: 1eef 8e3c d095 a83c 691a 713d 2e1e 403d
000003d0: 7f16 f1bc d49c 97bc 2001 083d 8e3a 9c3c
000003e0: 0698 8ebc 4c45 4e3d 06ee 6dbc 9f2b 6b3d
000003f0: 3eb5 4e3d 9f41 5a3d 11ac 553c ac41 e03c
-0.00058805046 -0.0066468674 -0.025506936 0.035623144 0.066724524 -0.03545078 0.01886219 0.0023708378
0.00373091 0.050977644 -0.021608839 0.013174173 0.025763132 0.021624604 -0.005688735 -0.022772867
0.0024693292 -0.034281965 0.014128155 -0.0045305896 -0.041593183 0.009757936 -0.062656194 -0.039069217
-0.05168771 -0.0017927674 0.028957592 -0.013057007 0.028284715 0.006401703 -0.05148762 0.010924357
0.022800209 -0.022501191 0.008925802 -0.016248183 0.001280817 0.024832658 -0.053595223 -0.06834955
-0.010743189 -0.0069466014 -0.008652277 -0.031437878 0.031367663 -0.03549777 -0.023453057 -0.02504404
-0.03192298 0.008105428 0.011939293 0.03411296 0.040169206 0.011597816 0.04202039 0.004237191
0.04865571 0.03519433 -0.012184082 0.0020439576 -0.013939566 0.0148526 -0.023707157 -0.013517556
-0.027711425 -0.045671623 -0.034752242 -0.0630758 -0.04717088 -0.010275048 0.00017656074 0.0005968995
-0.028725548 -0.03238646 -0.053519305 0.0060053943 -0.041544292 -0.0062166457 0.01714821 0.017444072
-0.0626983 -0.02176542 -0.041788023 0.008827964 -0.027610954 0.021914111 -0.030150117 0.02026715
0.019833026 0.027286844 -0.027758747 0.03289711 -0.028812058 -0.032873735 0.020473793 -0.025372911
-0.041493658 -0.06427773 0.007130366 -0.02866174 -0.028657453 0.0067263106 -0.020485261 0.026770795
-0.013959726 -0.05069826 -0.063127525 -0.016539877 -0.016764192 0.019645656 -0.017522946 0.02405553
0.032284398 0.007953038 -0.007708055 -0.056921583 -0.043920573 -0.020568283 -0.039337356 0.0056828246
-0.042161163 -0.03593068 -0.018200597 -0.05067279 0.01998679 -0.03001281 -0.023888702 0.00826691
-0.033398967 0.004731587 -0.022873744 0.008530385 0.0015056792 0.03817846 0.04392994 0.025184708
-0.0010200967 0.022299508 -0.04458098 -0.038731012 -0.014488818 -0.011907673 -0.0072744205 -0.0019998976
-0.007858545 -0.0017670176 -0.036979612 -0.031088283 -0.013851567 0.0042279987 -0.031054405 -0.027525257
0.02221086 0.019628042 -0.012578741 -0.038611107 -0.057129122 0.0047105453 -0.0013907446 -0.03415715
-0.039022576 -0.049722828 0.031376977 0.03530061 0.04705036 0.02812426 0.003473048 0.053794794
0.05631574 -0.00038309116 -0.039541025 0.032944288 0.013624914 0.02639126 -0.026184969 -0.015874948
0.010696201 0.011407668 0.02483495 0.036498297 0.026028082 0.06986661 0.016772987 0.024335546
-0.011903066 0.008868549 0.036942173 -0.038518123 0.009004029 -0.028185492 -0.028326415 -0.026650257
-0.0012751949 -0.036826573 0.0042142207 -0.057107467 -0.0042863535 -0.022843089 -0.03533586 0.03159683
-0.026976028 -0.060204033 -0.05102281 -0.04296844 -0.044359062 -0.02777742 -0.031474758 0.008273667
-0.027002184 -0.051318437 0.00062980416 -0.01626024 -0.050929658 -0.0031498251 0.00078210275 -0.06766494
-0.060600206 -0.044762954 -0.056258515 -0.03981402 -0.022743253 -0.06819796 -0.06279356 -0.051926877
-0.034171168 0.026198288 0.017324898 0.0115495315 -0.010367203 -0.025999054 0.044787176 -0.039829943
-0.018934775 -0.008304998 -0.016175702 -0.026798833 -0.07217751 -0.045009926 -0.049174137 0.013373765
0.017448004 0.020579249 0.058863077 0.04690378 -0.029429672 -0.018507399 0.033204198 0.01907089
-0.017406475 0.050359055 -0.014522081 0.057414647 0.050465815 0.053285237 0.013041512 0.027375065

extractor.3.bias f4 [36]
00000000: 79f2 84bc ced4 0ebd 8926 bf3c 8380 b5bc
00000010: e6eb d7bc 4f37 edbc f450 a8bb 59ed 793c
00000020: 7957 0c3c fc28 a0bc aeb4 9fbc c3ae 2b3b
00000030: d3f9 9abb 4aa7 d4bc 2f81 05bd 3669 65bb
00000040: 3a0f 47bc e73a 0dbd 8a11 ca3c 943a fc3c
00000050: 52a6 cf3c 34e6 c63c b998 07bd d7c4 1a3c
00000060: 6762 193d 92f1 14bd 7f05 fcbc b7c5 a33c
00000070: d369 9c3c ee88 c4bc 79bf 263d c931 1e3d
00000080: 0791 e1bc 4faf b2bb 509f b5bc 3be0 0c3c
-0.016228901 -0.034870915 0.023333805 -0.022156006 -0.026357602 -0.028957037 -0.0051366035 0.015254342
0.008565777 -0.019550793 -0.019495334 0.0026196695 -0.0047294884 -0.025958676 -0.032593902 -0.0035005338
-0.012149626 -0.03448 0.024666566 0.030789651 0.025347862 0.024279691 -0.033104632 0.009446344
0.03744736 -0.036363192 -0.03076434 0.019991739 0.01909343 -0.023991074 0.040709946 0.038621698
-0.027534975 -0.0054530273 -0.022170693 0.008598383

extractor.4.weight f4 [36]
00000000: 9762 6f3f 73df 823f ad7c 6d3f f05f 7c3f
00000010: 962e 853f 3162 843f e1ce 7b3f df8d 713f
00000020: 9c44 813f 3930 813f fae2 7a3f 9bc4 6f3f
00000030: 9f5e 8a3f 1395 783f 3bae 6c3f cf62 803f
00000040: 5122 6d3f e76e 7f3f 2932 8e3f fd1d 7e3f
00000050: de99 7c3f 1bc4 753f b073 833f 4c88 7c3f
00000060: 4845 833f c242 743f e9b9 7e3f bd5e 743f
00000070: 3873 823f 42b0 783f ef38 793f 53fd 783f
00000080: 5037 773f f788 7c3f ada8 7f3f 511f 7d3f
0.9350981 1.0224441 0.92768365 0.9858389 1.0404842 1.0342466 0.9836255 0.94357103
1.0099063 1.0092841 0.9800259 0.9365937 1.0810126 0.9710247 0.92453355 1.0030154
0.9263049 0.997786 1.1109058 0.9926451 0.9867228 0.9600236 1.026968 0.9864547
1.0255518 0.95414364 0.99502426 0.9545706 1.0191412 0.9714395 0.973525 0.9726154
0.96568775 0.9864649 0.99866754 0.9887591

extractor.4.bias f4 [36]
00000000: 102e 98bd 1b85 743c 04c1 92bd 7283 e5bb
00000010: 1aac 96bd 20cc a53d 4787 bbbd eeea 43bd
00000020: 58bc a2bd 65c2 e43c 6e52 6dbd ec52 60bd
00000030: e969 eebd 3d17 3fbc a07a 9bbd 857b 37bd
00000040: 8e6e 94bd 7a8b 773c c7af 92bd 599e b8bd
00000050: 77db f4bc 24e8 58bd 8387 7dbd 38d9 68bd
00000060: c7ae 92bb f3a5 b2bc 3841 acbd 7846 b7bc
00000070: 2f0e f13c 035a 9fbd 0e4c 07bd d5a2 e93a
00000080: 08f6 31bd b07f f539 edef cebd af5d 75bc
-0.07430661 0.014924313 -0.07165721 -0.007004195 -0.073570445 0.080955744 -0.091566615 -0.04783147
-0.0794608 0.027924726 -0.05793994 -0.05476658 -0.116412945 -0.011663255 -0.07591748 -0.04479553
-0.07247649 0.015108937 -0.07162433 -0.090145774 -0.029889805 -0.05295576 -0.061896812 -0.05684778
-0.0044764015 -0.021807646 -0.08410877 -0.02237247 0.029425709 -0.0778084 -0.033031516 0.0017825017
-0.043447524 0.00046825176 -0.10104356 -0.014975949

extractor.4.running_mean f4 [36]
00000000: cc4b 07c0 5bb7 573e 76d5 1ac0 64ec 1ac0
00000010: 6ede d2be f3a6 dcbe 01cb 3d3f 997a a1bf
00000020: 2404 2e40 31b4 2ac0 1fb8 78bc 151c 41bf
00000030: ec60 093e 9c75 adbf e7d7 49bf a4af f9bf
00000040: fa58 b1bf 0a2a 90bf 6d47 9fbe 81b5 2b40
00000050: da33 c6be 5453 c9bf 1ca0 743f 48e5 0340
00000060: a506 873f aa90 cfbf 12bd 30be 08c2 2bc0
00000070: 75a1 d2bf fcc4 a83f 8c46 e2bf 9f84 16c0
00000080: 45e6 13bf c7bc eabf f6ee 3b3f 6738 7dbf
-2.1140013 0.21066038 -2.4192786 -2.4206781 -0.41185325 -0.43096122 0.74137884 -1.2615539
2.7190027 -2.667248 -0.015180617 -0.75433475 0.13415879 -1.3551517 -0.78845066 -1.9506726
-1.3855278 -1.1262829 -0.3110918 2.6829531 -0.38711435 -1.5728555 0.9555681 2.0608692
1.0548903 -1.6216023 -0.17259625 -2.6837177 -1.6455523 1.3185115 -1.7677779 -2.3518445
-0.5777324 -1.833886 0.734115 -0.9891419

extractor.4.running_var f4 [36]
00000000: e747 9840 dbdb d53f 4b4c b740 fb13 eb3f
00000010: 1b66 4b40 15e6 5c40 77d1 ac3f e29d 4940
00000020: e503 f640 2979 ba40 3794 1140 9ccf b33f
00000030: 890c 6e3f f41e eb3f 527a 3740 c99f 7b40
00000040: 6ae5 c43f 0a5a af3f f1bd c23e 9fb0 2340
00000050: cd3f 7f3f d760 0640 bce5 db3f f8bf e840
00000060: f18d de3f 0230 3a40 1d45 da3f 253f ff3f
00000070: 97e9 1b40 324d 0340 c8fa 3540 454a 3440
00000080: ec5a 3140 6953 ae40 9ca0 8140 c3fd 4a40
4.758777 1.670772 5.728063 1.8365473 3.178107 3.451543 1.3501424 3.1502614
7.6879754 5.82729 2.2746713 1.4047732 0.9298788 1.8368821 2.8668408 3.9316275
1.5382512 1.3699353 0.3803554 2.557655 0.9970673 2.0996606 1.7179484 7.2734337
1.7387067 2.9091802 1.7052342 1.9941145 2.4361322 2.0515866 2.8434315 2.817033
2.7711744 5.447682 4.0508556 3.1717384

extractor.6.weight f4 [48, 36, 3, 3]
00000000: 1907 04bd 4215 25bc 6136 0ebd 9e75 933c
00000010: 6019 87bc 7ff5 0f3d e753 b6bb 9645 e0bc
00000020: 7c3d 073d 5893 57bc 4ef6 b5bc 8c0c acbd
00000030: 44c3 993d 7eab f93b 2b17 fc3c 8a0b 08bc
00000040: ff8a 44bd b385 8d3c 843a ca3c 370c 9d3d
00000050: e19b d9bc c518 61bd 59b5 8a3d 90b8 9abc
00000060: 821f 343d e9d1 9ebc fbbe b8bb d3d7 663d
00000070: b66a 903d d000 483d 8085 153c 0ee2 c93c
00000080: 4e93 a73c e189 c2bc 21af d9bc 02eb 243d
00000090: 725a a33c 0c15 403d 700d 1bbd 4004 14bc
000000a0: a0ff 883d 1f1f df3c 237f 98bd d50f 66bd
000000b0: e108 a7bd ff00 febc 3413 153c 23b9 f2bc
000000c0: c988 de3c 96d7 c23c 91cd 283d c45a cabc
000000d0: 2515 293d c516 8d3d 06dd 29bc 163b 6f3d
000000e0: cc34 11bd 46e7 9f3b f25e 2c3d 8fe2 22bc
000000f0: dd51 7839 a5ed 393d 7def 803d 912f 73bc
00000100: 535b 15bd 9dea cc3c d2e4 4abd f656 24bd
00000110: 690c 05bd 2bf4 8bbc 859e acbc 8325 3fbc
00000120: a7c1 9b3d a03a 8cbc 9aa5 193d 5a1f 8b3b
00000130: 10c5 253d 3054 303d 4289 083c 2252 cd3c
00000140: 102d daba e6ee 1d3c 7e2f d43b cb90 a73c
00000150: c77f 973c 1e6f c3ba 30b0 793d a48e 773d
00000160: 2dbd 273d 674d ed3b e15c 323d a2e0 6b3d
00000170: ef2d 7c3d c904 4f3d 60c9 04bb 669e 06bd
00000180: bd82 e7bb 50a9 323d 7dcf eabc f5ba 28bd
00000190: 86f6 c93c 9553 dfbc 445e ed3c 8f2c b73c
000001a0: c6eb f7bc 04c3 543c f05d 253d 79dd 7b3d
000001b0: d5d4 4a3c 478c 1b3d 28ca 20bd 537d 53bd
000001c0: 7612 ddbd 7f12 b2bd 0d16 853d 0be5 063d
000001d0: c5b2 413c 6ed2 063d bf48 b93b 76db b2bb
000001e0: b630 393c ac2c 983d 194f 7f3d 883e 57ba
000001f0: 4ac7 d53c 4d25 eb3c daae e5ba c669 673c
00000200: 6e90 273c 7abf a03d dff7 5abc fd8d 943d
00000210: c659 91bc 664d 74bc 6046 773d abd2 853c
00000220: d6e3 fabb e477 b5bc 9c78 e33c c3a7 473d
00000230: aff2 9e3c eb6d 9d3d 3a69 a1bc 5581 0bbd
00000240: bccd 2c3d 09e3 ebbc aebc 183d eb1f bebc
00000250: ddbb 15bc 5ef7 19bd 9211 2f3d 58e4 c5bc
00000260: 0a18 db3c 1b5b d4bc 7e36 8b3d 839a edbb
00000270: 630c 773b eac8 0f3d f2cc f63c ee86 913d
00000280: 9199 d63c 561c 143a f406 213d 3f3c 0b3d
00000290: 9b05 f73c 1830 4cbd 24a9 eebd 016f b5bd
000002a0: 1420 153e 12db 98bb 0a0f 9f3d 22f1 633d
000002b0: b40b 763c e825 183c e9ef 17bc 988e 63bd
000002c0: 626b 07bd 1bce 833b bfbf e23c 2c3d 873d
000002d0: 2b3f 30bd 1109 1cbd 2dad 183c c908 513d
000002e0: f4d0 8e3d 2708 103d 2bbd 113d 1e97 9abc
000002f0: 3cab a83c 9592 3d3c d034 373c ef7d cb3c
00000300: b683 9cbc 282c f0ba a873 913d 5758 32bd
00000310: cbe6 a8bb ae7e a5bc fb67 9f3d 9cb0 953c
00000320: d0f5 fd3c 8707 1bbd 62cd 42bd 1bc6 b13c
00000330: 5ac8 7e3d 171f d2bb 611b 843d 229e eb3c
00000340: 1344 70bb 4c06 0b3d 4692 63bc b4e0 453d
00000350: ee73 453d f95b 743c 5e32 54bc d9ae 433d
00000360: 0932 a03c 3a83 843b 6375 02bd e02e 573c
00000370: f840 f73b 2178 573c b367 d03c 4f9f babc
00000380: 9fd3 773d a12e 1ebd d93f 103d 04fa 7d3c
00000390: 55d8 f73c d5d8 07bd 8068 313d a42a a73a
000003a0: d3e2 38bd da0b 6dbc 94a2 26bd e180 dabc
000003b0: 6228 09bd f469 a03d 6dd1 b03d 0d5d 763d
000003c0: c3df d63c 5d67 553b 2623 4bbd ad00 7bbc
000003d0: 7d69 c6bc de16 af3c d34e 923c 5f6e 9ebc
000003e0: cbf1 2c3d f17f 1cbd 86f6 913c 0bdf 53bd
000003f0: ec6f c6bc a09e c73c 4538 1b3d 5fe9 ae3c
-0.03223333 -0.010075869 -0.03471983 0.01800042 -0.016491592 0.035146233 -0.005564201 -0.027376931
0.03301762 -0.013157688 -0.022212174 -0.084008306 0.07507947 0.0076193204 0.030772766 -0.008303532
-0.04798412 0.017275667 0.024686106 0.076683454 -0.026563587 -0.054955263 0.067728706 -0.018886834
0.04397536 -0.019387202 -0.005638001 0.05635817 0.070516035 0.0488289 0.009126067 0.024643924
0.020455983 -0.023747386 -0.026572766 0.040263183 0.019940589 0.046895072 -0.037854612 -0.009034216
0.066893816 0.02723652 -0.074461244 -0.056167442 -0.081559904 -0.031006334 0.009098817 -0.029629296
0.027164834 0.02378444 0.04121167 -0.024701484 0.04127993 0.068891086 -0.0103676375 0.058405958
-0.03545074 0.004879865 0.042082734 -0.009941711 0.0002368162 0.04539265 0.06295679 -0.014842884
-0.036464047 0.025014216 -0.049534626 -0.040121995 -0.03248254 -0.017084202 -0.021071682 -0.011666658
0.07605296 -0.017117798 0.037511446 0.0042456808 0.040471137 0.043049037 0.008333506 0.025063578
-0.001664551 0.009639477 0.006475388 0.020454785 0.018493546 -0.0014910435 0.06095904 0.060438767
0.040951896 0.007241893 0.043545607 0.057587273 0.061567243 0.050541673 -0.002026163 -0.032865904
-0.0070651458 0.0436185 -0.028663391 -0.04119392 0.024653684 -0.027261535 0.028975613 0.022360114
-0.030263793 0.0129859485 0.04037279 0.06149051 0.012379845 0.037975576 -0.03925529 -0.05163319
-0.10794537 -0.08694934 0.064983465 0.032933276 0.011822407 0.032915525 0.005654424 -0.0054582907
0.0113031175 0.074303955 0.062331293 -0.0008210917 0.026096005 0.02870431 -0.0017523423 0.014124339
0.010227306 0.07849021 -0.013364761 0.072536446 -0.017743003 -0.014911031 0.06036985 0.016335806
-0.0076565547 -0.022151895 0.027767472 0.048743974 0.01940283 0.07686981 -0.019703496 -0.034058888
0.04218839 -0.028794782 0.037289314 -0.023208579 -0.009139028 -0.037589423 0.042741366 -0.024156734
0.026744861 -0.025922349 0.06797503 -0.0072510852 0.0037696592 0.035103716 0.030127022 0.07105814
0.026196273 0.00056499743 0.03931327 0.033993002 0.03015404 -0.049850553 -0.11653355 -0.08859063
0.14563018 -0.004664787 0.0776654 0.055649884 0.015017439 0.009286381 -0.009273508 -0.05555591
-0.033061393 0.0040223724 0.027679322 0.066034645 -0.04302899 -0.038094584 0.009318632 0.05103377
0.069734484 0.035164025 0.035580795 -0.018870886 0.020589463 0.011570592 0.011182025 0.024840323
-0.019105773 -0.0018323706 0.07102138 -0.04354128 -0.005154466 -0.020202007 0.077835046 0.01827269
0.031001002 -0.037848976 -0.04755915 0.02170091 0.06220279 -0.0064123976 0.064505346 0.028761927
-0.003666167 0.033941552 -0.013889855 0.048309997 0.048206262 0.014914506 -0.012951462 0.04777417
0.019555109 0.0040439637 -0.03185023 0.013133734 0.0075455867 0.0131512 0.025440073 -0.022781042
0.060504552 -0.038618688 0.03521714 0.015501503 0.030254522 -0.03316577 0.04331255 0.0012753797
-0.04513819 -0.014468158 -0.04068239 -0.026672782 -0.033485778 0.07832709 0.08633695 0.060147334
0.026229745 0.003256283 -0.049594067 -0.015319985 -0.024220223 0.021373209 0.017859852 -0.019339738
0.04222278 -0.038207952 0.017817747 -0.051726382 -0.02422329 0.02436763 0.03789546 0.021351514

extractor.6.bias f4 [48]
00000000: 0906 d53b 00a8 3fbd 352d 5bbb 92dc 2ebd
00000010: f2a2 323d a9e2 1fbc e356 84bb bd22 633d
00000020: fdb8 1f3c 9590 d13c 8479 42bd 3b3a 35bd
00000030: 9daa f03c d894 e23c db29 4fbd 28fd 2c3d
00000040: 749a 60bc 206e 113d 24bd 5a3d 5db2 2bbd
00000050: a45c cf3b 9a58 54bd d12a d3bc 58f9 94bc
00000060: 173e bcbc ab41 073d f850 773c 0a4b dc3c
00000070: 7adc d13c 53ef 7d3c 748e b73c 63f8 abbc
00000080: 5b84 373d 86ea 263c e8e7 3abc eb88 213a
00000090: fe17 8bbc 99d9 243c 138d 403d edaf 35bd
000000a0: 4020 39bd 8ea3 afbc ce8a 173b d6ee 273d
000000b0: 2dad 083d dfbe 4a3d df22 ab3c 9fc9 25bd
0.0065009636 -0.046791077 -0.0033443694 -0.04269082 0.043612428 -0.00975863 -0.004038678 0.05545305
0.0097486945 0.025581637 -0.047479168 -0.044244986 0.02937823 0.027658865 -0.050577026 0.042233616
-0.0137086995 0.035505414 0.053403035 -0.041918147 0.0063281823 -0.05184231 -0.025777252 -0.018185303
-0.022978825 0.03302161 0.015094988 0.02689125 0.025617827 0.015498954 0.022406794 -0.020992463
0.04480396 0.010187751 -0.01140783 0.0006162065 -0.016979214 0.010061645 0.04700954 -0.04435723
-0.04519677 -0.021440294 0.0023123506 0.040999256 0.03336828 0.049498435 0.020890651 -0.040475484

extractor.7.weight f4 [48]
00000000: 5fd5 7a3f 4c29 7f3f 4bd4 803f 7f70 7a3f
00000010: 053c 7c3f d0f9 783f b8f6 783f 210d 7d3f
00000020: d4e4 733f a47a 7e3f 0ad4 823f 3046 763f
00000030: cb7f 7b3f 95ae 843f 7fe0 823f 2318 833f
00000040: d3b7 813f f308 803f 41ab 7e3f bf11 793f
00000050: e36a 7d3f 1cad 7a3f b4d1 813f ee0e 733f
00000060: ad0e 823f 75de 823f d760 803f 64bf 823f
00000070: 0800 7a3f 8082 773f 48cc 783f e51c 773f
00000080: 4bf4 813f 3a2e 7b3f b65d 803f e416 833f
00000090: 3d72 843f 2198 7e3f eda7 803f 1ff4 783f
000000a0: 404c 7c3f ac3e 663f 40af 803f 000d 833f
000000b0: dbbd 7e3f 794c 7d3f a1b6 793f 2b99 7b3f
0.9798183 0.9967239 1.0064787 0.97827905 0.9852908 0.97256184 0.9725146 0.9884816
0.9527104 0.99405885 1.0220959 0.9620085 0.9824187 1.0365778 1.0224761 1.0241741
1.0134224 1.0002731 0.9948006 0.97292703 0.9899122 0.97920394 1.0142121 0.94944656
1.0160729 1.0224138 1.0029553 1.0214658 0.976563 0.966835 0.9718671 0.96528465
1.0152677 0.9811741 1.0028598 1.0241361 1.0347363 0.9945088 1.0051247 0.972475
0.9855385 0.8993938 1.0053482 1.0238342 0.99508446 0.98944813 0.97544295 0.9828059

extractor.7.bias f4 [48]
00000000: 9c2c 49be 4b8d 5dbe 4e9d 123d fbef 20bd
00000010: 90d3 253b cd6c 1cbe a495 23bd bf83 dfbc
00000020: 4810 99bc b72a 59be d140 0c3d 1493 6bbd
00000030: 7c11 4bbe 5d95 9c3b 31b1 163d 86ed 28bd
00000040: 7d28 da3c 73f3 84bb 1ae1 cf3c b05d 36bd
00000050: 104b e73b 4751 29bd 140c 1cbe 3989 8dbd
00000060: 178f f3bc 9798 913c 095a 183d 3d81 16be
00000070: 109c 95bd 15db 6cbd f9bc 9cbb d93a 74bd
00000080: 9a77 5cbc ecff bfbc a9d8 45be 5ab3 15be
00000090: 4b1d 25bc 563f 6fbe e53b d03b d21f 24bd
000000a0: 3455 bebc f0cd 9abd b9e3 bebc 7210 5f3d
000000b0: 01e2 22bb b254 3abd 28c0 e1bd aed0 1fbe
-0.19645923 -0.2163593 0.03579455 -0.039291363 0.0025303103 -0.15275879 -0.03993763 -0.027284501
-0.018684521 -0.212077 0.0342415 -0.05751331 -0.19830889 0.0047785477 0.036790077 -0.041242145
0.026630634 -0.0040573417 0.025375891 -0.04452294 0.0070585087 -0.041337278 -0.15238982 -0.06910939
-0.029731316 0.017772956 0.03719524 -0.14697738 -0.07305157 -0.05782612 -0.0047832695 -0.059626434
-0.01345625 -0.023437463 -0.1932093 -0.14619198 -0.010077785 -0.23364004 0.0063547962 -0.04006941
-0.023233987 -0.07558811 -0.023301946 0.054459043 -0.0024853947 -0.045490928 -0.11022979 -0.15606949

extractor.7.running_mean f4 [48]
00000000: 3f39 953f a4f9 c83e d4ce 1bbe 1053 1ebd
00000010: 18ae 7abf e721 1dbf b5da 123e ba3f 5dbe
00000020: 99f5 05bf 8793 753f 5a32 09c0 98ea 2abf
00000030: 93b9 173f b8bb 26bf 5969 f0be cc11 d1be
00000040: a55c f6bf 28ef 7ebf 17f6 94bf 53a2 4d3e
00000050: 3424 89bf 10e9 60bf b368 703e 3185 f13e
00000060: 41db e33f 8511 8d3e 16fe 76bf 50ee 593e
00000070: d691 bfbf 3453 2f3f 506a 8dbf f5e0 583f
00000080: b4b6 a33e 39fe 12bf a287 cc3e 206d a23c
00000090: 5037 803f 1f46 5b3f c558 9dbe 8ade 5fbf
000000a0: e444 83bf 119d 10be bc0c ca3e 55d4 973e
000000b0: aeb1 483f 03d3 85bf 2a02 88bf 066e 7c3f
1.1658095 0.3925296 -0.15215617 -0.038653433 -0.97921896 -0.61379856 0.14341243 -0.21606341
-0.5232788 0.95928234 -2.1436982 -0.6676421 0.5926754 -0.65130186 -0.46955374 -0.4083389
-1.9247023 -0.99583673 -1.1637601 0.20081453 -1.0714173 -0.87855625 0.2347744 0.4717193
1.7801286 0.2755243 -0.96481454 0.21282315 -1.4966381 0.6848633 -1.1048069 0.8471826
0.3197533 -0.57419163 0.3994723 0.019827425 1.001688 0.8565387 -0.30731788 -0.8744894
-1.0255399 -0.14122416 0.3946284 0.29654184 0.7839612 -1.0455021 -1.062566 0.9860538

extractor.7.running_var f4 [48]
00000000: 152e 2b3e 0d0b 4c3f 73a8 3e3f 91f9 ca3f
00000010: e4d4 9e3f 9691 e03e a25f bd3f 84e4 973f
00000020: f500 3840 c9cd 0b3f ba3e ba3f e17f c33e
00000030: 314a 2a3f 573b a33e 05c9 0b3f 7ef0 543e
00000040: baa0 1440 d3c0 4d40 f022 583f 2fa6 b53e
00000050: 4e87 733f 1bf4 1e40 750d 333f 94c0 853f
00000060: 1474 193f afae fe3f 1a73 3840 0580 153f
00000070: 1d6c db3e 2c68 d53e a62c 3640 75ef 3c3f
00000080: 6454 b23e 9e99 2f3f dd3e 703e 5525 4b3f
00000090: 0d3e 673f c5f7 b53e c8a9 3c3f 8366 3c40
000000a0: d87c a93f 16a7 da3f 70ac 1b3f 8aea 8d3e
000000b0: 1522 963f 161b 0a3f 55df c43e 5d20 a83e
0.16716798 0.7970436 0.74475783 1.5857412 1.2408719 0.43861073 1.479481 1.1866612
2.8750584 0.5461088 1.4550393 0.381835 0.6651946 0.3188121 0.54603606 0.20794865
2.32231 3.214894 0.8442831 0.3547835 0.95128334 2.483649 0.6994241 1.0449395
0.59942746 1.9897059 2.8820252 0.5839847 0.4285592 0.4168104 2.8464751 0.7380288
0.3483001 0.68593776 0.2346148 0.7935384 0.90329057 0.35540596 0.73696566 2.9437568
1.3241224 1.708224 0.60809994 0.27718002 1.1729151 0.5394758 0.3845164 0.3283719

extractor.9.weight f4 [64, 48, 3, 3]
00000000: 614a 0b3d 4d6b f53c 0a2d 9a3c a28e 743b
00000010: 44de 01bd 38b2 b4bc 67b9 10bd 0867 cdbd
00000020: 81e9 3cbd efa6 af3c c1d0 c9bc fa99 15bd
00000030: 19a0 f7bb 4761 5b3b 2f7e 81ba 6ac1 bebc
00000040: 9bcb a7bd b34e 9abd 7dbe 03bd bdff 223d
00000050: 3dd6 e3bc b2ed c93b 263a bcbc 15ea 04bc
00000060: 632b 18bd e6d9 06bd 6935 023d 03e5 e23b
00000070: 9adc 28bd 8ae3 f9bc 0d13 2b3d 0bd6 d43c
00000080: 1237 0dbd 0a5d 97bd aee9 f5bc 8370 20bd
00000090: a90d 96bc 4ce4 84bc 1138 d23c 5ed9 57bd
000000a0: 4b8f 8f3a 7b91 60bd 5917 543c b38a f5bc
000000b0: 5e55 32bd 270b ccbd b300 c1bd 3300 61bd
000000c0: 84c8 07bd 8825 f2ba 0ec3 e53c c3ee 92bd
000000d0: a51f 0abd 88b7 debc 8c17 24bd 774c 17bd
000000e0: 601d 4bbd 0fcd 17bd fb6f 223d 9070 6abd
000000f0: f7a0 91bd ed39 1fbc a477 cbbd ff80 feb9
00000100: 9465 a5bc e3be debc c93b 863c cc0d b83c
00000110: e1c3 0c3d dd9e d4bb 2954 923d 5104 bc3c
00000120: 77c7 f8bb d2e4 353d d6fc 1e3c 8383 df3c
00000130: 6aac 753b bec1 bcbc 0828 693a 0a8e ed3b
00000140: 3864 b8bd 3c21 24bd b253 a7bc 3bc3 50bc
00000150: 3ab1 10bc e44c 63bc 9c8c 15bd 836f 1bbc
00000160: 0351 903c e1a6 a93b 0e2d 3cbc ea74 6dbd
00000170: 3b0d 1bbc 9ff3 95bc d108 92bc 0482 023d
00000180: e47f 28b9 0ae2 0b3d 5718 6fbc b91f c13b
00000190: 1eba 7ebd cd67 76bc 594a 8c3c 122b a7bc
000001a0: e0cb 43bd 89f4 bdbb 66d7 17bd f2c2 fb3c
000001b0: bb51 69bc df68 b63b c9d3 4cbd 70f2 6bbd
000001c0: 01e0 46bd 23ff aebc 0025 ccbb b855 19bd
000001d0: ec19 34bd 2408 9bbd e8ea bdbc b4ab 57bd
000001e0: c1d5 983d aa58 f83c d06c a6bc 72cc 703d
000001f0: e904 113d e969 bf3c cc56 31bd 33fa 81bd
00000200: 8dd5 f83b 4292 8abd d91b 1ebd fbda cd3c
00000210: e441 5ebd 36f5 27bd e99f e53b b234 b7bc
00000220: fdcb 2cbd 7efb 123d 258a 443d 27fc 453d
00000230: 5be5 2bbc defb 083d 846e ae3d 7d2b b33d
00000240: dda4 c03c 3478 babc a849 4a3d b2bd afbb
00000250: 25a1 e63c a1cc bd3c d72d 70bd 1c59 113c
00000260: 9e33 39bd c0a9 43bd 9c2a 71bd fc7f b4bd
00000270: 0f05 ae3c 5d3b 73bd 3cb8 5bbd 806b 143c
00000280: b3be 6abd 000d 76bd b4c7 92bc f639 2c3d
00000290: c38b f4bc 77a5 82bd 8c10 83bd 0b9e 1ebd
000002a0: 9dd6 42bd a1f6 22bd b431 0dbd d125 97bc
000002b0: 4a82 5a3a 5b30 603c 1123 353d eb9c 5fbd
000002c0: ce4a 51bc 32cd 8f3d 2cf6 7e3c 72fc 14bb
000002d0: bd55 36bc 90f7 d4bc 0394 673c ddac 5b3c
000002e0: 4575 283d 57bd 1dbc 06d3 303d 1f73 33bd
000002f0: c87c 2b3d 28e8 543c 038f 69bd b4a3 64bb
00000300: 9253 07bc fa2a 8b3c c8af 8bbd 2d3f b33a
00000310: 1fb0 1f3c 6041 2ebd a75d aabd 2315 78bd
00000320: 2188 8ebc 10fe 833b a3b5 b53c 0c5d 16bc
00000330: 3225 86bc 13c9 97bd e325 01bd 4861 943c
00000340: a168 02bd 4fc2 1dbb 4a25 09bd d345 37bd
00000350: e0ac 43bd d4d6 7a3d d9a9 66bb 9916 443d
00000360: 3fac 613d 85d1 61bc 7257 dfbc 5671 32bc
00000370: 3810 57bc 0b08 3bbd f906 81bd cb54 86bd
00000380: 15c2 e53b 676b 793b fe87 8e3d 2bf7 ba3c
00000390: 3e08 8e3b 9830 5439 6e20 17bd 72b5 56bc
000003a0: 58dc 683c 4216 c83c c996 c3bc c0ab 153d
000003b0: 447b 12bd 04d1 913c 399e 173d 0f0d dcbb
000003c0: 173e b3bc 1261 d339 0fb6 93bc 8757 0bbd
000003d0: 4287 26bd acd0 0abd 2cef 03bd 84b1 e8ba
000003e0: 2e02 a83c 3044 623b 2e65 60bc 15a3 18bd
000003f0: 6180 abbd cfc6 17bd 939e 5b3a 5e79 f53a
0.03400648 0.029958392 0.018820304 0.003731646 -0.03170611 -0.022057638 -0.035333063 -0.10029417
-0.046121124 0.021441905 -0.024635674 -0.036523797 -0.007556927 0.003347473 -0.0009879525 -0.023285586
-0.081931315 -0.07534542 -0.032164086 0.039794672 -0.027812118 0.0061623687 -0.022976946 -0.00811245
-0.03715075 -0.032922648 0.031789217 0.006924273 -0.041226007 -0.030504007 0.041766215 0.02598097
-0.034476347 -0.07390793 -0.030018654 -0.0391698 -0.01831706 -0.016222142 0.0256615 -0.052697532
0.0010952739 -0.05482624 0.01294502 -0.029973364 -0.043538444 -0.09963065 -0.094239615 -0.05493183
-0.03315021 -0.001847432 0.02804711 -0.071744464 -0.033721585 -0.027187124 -0.04006152 -0.036938157
-0.04958856 -0.037060793 0.039657574 -0.057236254 -0.0711078 -0.0097184 -0.09934929 -0.00048542765
-0.020190038 -0.027190631 0.01638593 0.022467516 0.034366492 -0.0064886645 0.071449585 0.022951277
-0.0075921374 0.044407673 0.0097038355 0.02728439 0.00374868 -0.023041602 0.000889421 0.0072495984
-0.0900349 -0.040070757 -0.020425651 -0.012741859 -0.008831317 -0.013873313 -0.03651105 -0.009487036
0.017616754 0.005177364 -0.011485351 -0.057972826 -0.009463604 -0.018304644 -0.01782647 0.031862274
-0.00016069371 0.034151115 -0.014593205 0.005893674 -0.062189214 -0.0150393965 0.017125295 -0.02040628
-0.047801852 -0.005796973 -0.037070654 0.030732606 -0.0142406775 0.005566701 -0.05000666 -0.057604253
-0.04855347 -0.021361893 -0.0062299967 -0.037435263 -0.043970034 -0.07569912 -0.023183301 -0.052653983
0.07462645 0.030315716 -0.020315558 0.058788724 0.035405073 0.023365932 -0.043295667 -0.0634655
0.0075938166 -0.06766178 -0.038600776 0.025128832 -0.054262057 -0.041005336 0.007007588 -0.022363994
-0.042186726 0.035884373 0.047983307 0.048336174 -0.010491694 0.033443324 0.08517173 0.08748529
0.023516113 -0.022762395 0.04938665 -0.0053631896 0.028153012 0.023168864 -0.058637466 0.008871343
-0.04521524 -0.047769308 -0.058878526 -0.088134736 0.021242647 -0.059382785 -0.053642496 0.009058833
-0.05731077 -0.06007099 -0.017917491 0.042047463 -0.0298518 -0.06379216 -0.063996404 -0.03872494
-0.047567952 -0.039785985 -0.03447123 -0.01845065 0.00083354546 0.013683404 0.044222895 -0.054593008
-0.0127741825 0.0702156 0.015561622 -0.0022733477 -0.01112884 -0.025996953 0.01413441 0.013407913
0.041127462 -0.009627662 0.043169998 -0.04381096 0.041867048 0.0129948035 -0.057021152 -0.0034887614
-0.008259671 0.016988266 -0.06820637 0.0013675444 0.00974658 -0.042542815 -0.08318644 -0.060567033
-0.017398896 0.0040280893 0.022181338 -0.009177458 -0.016375158 -0.07411399 -0.031530272 0.018112794
-0.031838063 -0.0024072116 -0.033482827 -0.044744324 -0.04777229 0.061240032 -0.0035196452 0.047873113
0.055095907 -0.0137828635 -0.027263377 -0.010891279 -0.013126425 -0.045661967 -0.06300158 -0.06559142
0.007011662 0.0038058402 0.06959532 0.022822937 0.0043344786 0.00020235998 -0.03689616 -0.013104783
0.01421269 0.024424676 -0.02387561 0.036540747 -0.035762087 0.017799862 0.037016127 -0.006715424
-0.021880193 0.0004031738 -0.018031148 -0.03401902 -0.040656336 -0.03389041 -0.032210514 -0.0017753099
0.020508852 0.0034525506 -0.013695998 -0.037264902 -0.08374096 -0.037054833 0.00083778164 0.0018728187

extractor.9.bias f4 [64]
00000000: f398 c2bb 3445 85bc e503 09bc eeb6 14bc
00000010: e64f 163d 3128 4dbc 51be c03c 08c1 813c
00000020: 978c e3bc de2c 05bd 8bb5 a7bc ac30 e4bc
00000030: 1c46 c53c 070d 033d ac20 253d 01d5 b2bc
00000040: 1f7a 333d 129e 99bc ccfe 9c3b 4a54 3c3d
00000050: a601 a73c 4df9 4fbc d595 11bd c57d 16bd
00000060: 3386 aebb 5b3f 3c3d 3f01 c13c 6a7e 1d3d
00000070: 5e22 39bc 57dd 053d 072c b53c f851 883c
00000080: ee65 843c e1f3 d03b 32f8 babc 20b6 913c
00000090: 38b1 37bc 1d87 e03c 07e7 ef3c 1f1f 13bd
000000a0: 2e14 38bd f976 f4bc 647e 093d 1325 d8bc
000000b0: b64c 1e3d a3e0 febc 152e 37bd c5b3 d93c
000000c0: dd03 1bbd 530a e53c f87e 6ebc 6a97 383d
000000d0: a235 e33c 6b84 6b3c 72ac f23c 6b74 39bd
000000e0: 0a0f 353d f79c 1cbd 077a 2dbd 9afd bebb
000000f0: 79b9 bb3c 67df 0cbd 0af6 44bc 5652 13bd
-0.005938643 -0.01626835 -0.008362745 -0.009076817 0.03669729 -0.012521789 0.02352825 0.015839115
-0.027777 -0.03251349 -0.020472309 -0.02785524 0.024081282 0.031994846 0.04031436 -0.021830084
0.043817636 -0.018752132 0.0047911163 0.04597882 0.020386528 -0.012693715 -0.03554328 -0.036741037
-0.0053260564 0.045958858 0.023560164 0.038450636 -0.011299698 0.03268179 0.02211572 0.016640648
0.016161885 0.006376729 -0.022823427 0.01778704 -0.011211686 0.027408177 0.029284967 -0.03591835
-0.04494112 -0.029841887 0.0335678 -0.026384866 0.038647376 -0.031112975 -0.04472168 0.026574979
-0.03784548 0.027959025 -0.014556639 0.045066275 0.027735535 0.014374833 0.029623244 -0.04527704
0.044203795 -0.03823563 -0.042352702 -0.0058285715 0.022915589 -0.03439274 -0.012021551 -0.035967194

extractor.10.weight f4 [64]
00000000: 53b3 843f f56c 823f dbce 813f 8534 813f
00000010: d25d 7c3f fded 773f 0c90 7f3f 52e8 7e3f
00000020: 7e87 803f 1971 6e3f 700d 823f 57df 853f
00000030: 0f1e 843f 8b71 863f ce86 763f 97cb 803f
00000040: 4e00 7b3f 300f 743f c13d 7d3f 472e 733f
00000050: 9e27 823f 6b81 883f b518 773f 79c3 763f
00000060: 64d9 783f 5ce8 823f eec9 813f 87d6 7d3f
00000070: 056c 793f 6ad7 7d3f 4a1a 803f b41e 733f
00000080: a264 723f 1680 853f 394d 753f 3148 833f
00000090: 3cf8 7f3f 4b24 813f 8c9f 7c3f 23c4 7a3f
000000a0: 099a 733f ba16 803f f063 773f 3751 7d3f
000000b0: 6b22 783f 3c92 7c3f 696d 823f 40d1 7c3f
000000c0: 0092 823f 3bf3 863f db76 833f c78e 753f
000000d0: 32a9 803f 24c2 733f 3270 823f 2e0f 803f
000000e0: 0b61 763f a084 773f 73b5 763f 5250 853f
000000f0: 9b11 7a3f 341a 7f3f 5af3 733f 9f67 723f
1.0367225 1.0189501 1.0141252 1.0094153 0.9858066 0.96847516 0.99829173 0.9957324
1.0041349 0.93141323 1.0160351 1.0458783 1.0321673 1.05034 0.96299446 1.0062131
0.9804734 0.95335674 0.98922354 0.9499249 1.016834 1.0664495 0.96522075 0.9639202
0.9720671 1.022716 1.0139749 0.9915547 0.9743045 0.9915682 1.0008023 0.94968724
0.94684803 1.0429714 0.9582096 1.0256406 0.9998815 1.0089201 0.9868095 0.9795553
0.95156914 1.0006936 0.9663687 0.9895205 0.9692752 0.98660636 1.0189639 0.9875679
1.0200806 1.0542978 1.0270647 0.95920986 1.0051634 0.9521811 1.0190489 1.0004632
0.96241826 0.96686745 0.9637062 1.0415137 0.97683114 0.9964936 0.952932 0.94689363

extractor.10.bias f4 [64]
00000000: 558c 103d c471 45bb c09d 1cbe fb4c 39bd
00000010: f335 c2bc b35b 383c 3a6c 973c 966d 70bb
00000020: 6424 25be 97c8 42bd b790 3abe 7821 09bc
00000030: 68ff 45b8 b032 28bd 414e 27bd aa67 69be
00000040: 9cda 0fbd e1cb 2dbe de4e f3bc 5b4a 82bc
00000050: 56ac 6bbe 693f d3bb 2be1 f2bd 89cc 82be
00000060: bc23 54bc 8c77 4b3d ece1 f3bb 9996 97bc
00000070: 4402 05bd 4f1c 57bc 20df c3bc 9e95 59bd
00000080: 4fc0 57bd 74e9 4fbe 6e61 fcbb ba76 46be
00000090: eb7f 82be e523 3fbc e2ad 3dbe 63de 1abc
000000a0: 7cd6 97bd 9421 05bc 56b4 95bc a4c3 d3bb
000000b0: e158 9bbc 87af 23be 34bd 6abd d86a a9bd
000000c0: 6dbb 9f3c 8494 5d3d 28b0 f5bc d700 07bd
000000d0: 9b38 553c bc86 38be 744a 233d a2b6 73bd
000000e0: 5085 d6bc e133 73bd 3744 51be 3ac3 673d
000000f0: aa64 11be f79a 12bd f995 1fbd 4e51 2abd
0.03529008 -0.0030127624 -0.15294552 -0.04523943 -0.023707366 0.011252332 0.018484224 -0.0036686412
-0.16127163 -0.04755458 -0.18219267 -0.008369796 -4.7206326e-05 -0.041063964 -0.040846113 -0.22793451
-0.03512059 -0.16972305 -0.029700693 -0.015904596 -0.2301496 -0.006446768 -0.11859354 -0.25546673
-0.012947973 0.049674556 -0.0074427035 -0.018504428 -0.032472864 -0.013129308 -0.023910105 -0.0531212
-0.052673634 -0.20303899 -0.007702044 -0.19381228 -0.2548822 -0.011666273 -0.18523362 -0.009452435
-0.074139565 -0.008125681 -0.018274467 -0.006462531 -0.01896328 -0.15984927 -0.057309344 -0.08272332
0.019498551 0.054096714 -0.029991224 -0.032959785 0.013013984 -0.18020147 0.039865926 -0.059500344
-0.026186615 -0.059375647 -0.20436178 0.056582667 -0.14198557 -0.035792317 -0.038961384 -0.041581444

extractor.10.running_mean f4 [64]
00000000: 0f94 a7bf b4d0 d3be 5fff 1b3f 89f3 153e
00000010: d28b d0bf 270e ccbf 10d4 d1bf 9ae3 dabf
00000020: 6b67 093e 5228 e3bf 73fb b93e 4965 bdbf
00000030: 60fe c3be 6a90 87bf 7ba4 00c0 0472 8cbe
00000040: 3701 aabf f5b2 163f e870 03c0 1ec8 2dbe
00000050: daac a53e 5e7b 89be ceb3 8bbf 4d65 903e
00000060: b881 94bf 808b d4bf 5358 aabf 9d59 b2bf
00000070: abf3 87bf 5563 c8bf 4c9f ebbf 4d16 673e
00000080: 6671 69bf 5879 123f 0067 b2bf 95ae fb3e
00000090: fc13 9f3e 9824 06c0 bd25 5d3e 5f4a 36bf
000000a0: 2213 433f 796c b8bf 052f f5bf de57 70bf
000000b0: 252e f6bf c920 303e f725 143e cca1 5fbe
000000c0: 30b9 6ebe a4bf a9bf 37a0 8bbf 9b04 64bf
000000d0: 6f4c 0bc0 1327 f83b 1f85 bbbf b31f 96bf
000000e0: 751a 7abf b383 d2bf 5a20 8e3d 9c72 d8bf
000000f0: 0428 c0be 1a7e 53bf aa89 193f 43f6 e0bf
-1.3092059 -0.41370165 0.6093654 0.14643683 -1.629267 -1.5941819 -1.6392841 -1.7100708
0.13418357 -1.774668 0.36324653 -1.4796535 -0.3828001 -1.0590947 -2.010039 -0.27430737
-1.3281621 0.58866817 -2.0537663 -0.1697087 0.32358438 -0.26851934 -1.0914247 0.28202286
-1.1602087 -1.6605072 -1.3308204 -1.3933598 -1.0621237 -1.5655314 -1.8407989 0.22567101
-0.9118866 0.57216406 -1.3937683 0.49156633 0.31069934 -2.0959835 0.21596427 -0.7120723
0.7620107 -1.4408103 -1.9154974 -0.93884075 -1.9232832 0.17200007 0.14467607 -0.21839064
-0.23312831 -1.3261609 -1.0908269 -0.8906953 -2.1765401 0.0075730174 -1.465 -1.1728424
-0.9769662 -1.6446441 0.06939764 -1.6909976 -0.3753053 -0.8261429 0.59975684 -1.7575153

extractor.10.running_var f4 [64]
00000000: 9212 b73f 6c26 fa3f 775a 213f 2dd1 743f
00000010: 60e1 7d40 08a6 2940 cf7d 1e40 4d00 bf3f
00000020: ae01 613f bf6d 0e40 656d 0e3f 853a f73f
00000030: 80f3 d63f 7a84 773f 9544 1140 84fb 273f
00000040: 705a 9c3f ce31 853f 9184 0c40 ce1e 2640
00000050: cd22 483f 9151 0040 67ed e03f 1fc2 1d3f
00000060: 70c9 e33f 7d94 3340 62b3 e83f 16e1 ee3f
00000070: 9b42 843f f044 ac3f fd21 1540 eabf 243f
00000080: 875b 843f 7e5f 053f 6626 0a40 2336 7d3f
00000090: f5c7 033f 7040 b93f 95ce 293f 5eda 393f
000000a0: cf27 883f 137d a240 4d4c bd3f bdeb 2640
000000b0: 5a0f 2940 11b9 3e3f d100 4b3f f955 f43e
000000c0: 38f2 d13f a409 a43f c111 1640 935f 1140
000000d0: 4805 e93f 4fc9 8e3f b5b5 ee3f a345 a63f
000000e0: f604 d63f 614e 4540 0947 f13e ef37 433f
000000f0: 1a3d 7a3f 1c94 af3f d371 973f 4f5e de3f
1.4302542 1.9542975 0.63028663 0.95631677 3.9668808 2.6507587 2.4764287 1.4921967
0.8789319 2.2254484 0.5563567 1.9314734 1.679306 0.9668652 2.269811 0.6561816
1.2215099 1.0405824 2.1955912 2.5956302 0.781781 2.0049784 1.757245 0.6162433
1.7795849 2.805938 1.8179743 1.8662441 1.0332826 1.3458538 2.3301995 0.6435534
1.0340432 0.52098835 2.1585937 0.9891073 0.51476985 1.447279 0.66330844 0.72598827
1.0637149 5.077768 1.478891 2.6081383 2.641562 0.7450114 0.7929812 0.47721842
1.6402044 1.2815442 2.3448336 2.2714584 1.8204737 1.1155185 1.8649203 1.2990001
1.6720264 3.0829089 0.47124508 0.7625722 0.97749484 1.3717074 1.1831611 1.7372531
