gpl/results/il/ep_090.ckpt (torch, 773626 bytes, 43 tensors)

extractor.0.weight f4 [24, 3, 5, 5]
00000000: dc06 ff3d d9f0 463c 603b 153d e24e e73d
00000010: 0b9e 4bbd 387b 5e3d 4aa6 1dbd ab61 2b3d
00000020: 8ae4 233c c147 e0bc 73f0 e73c 59fa 8a3a
00000030: 82b0 073d 7a14 5cbd 87c3 d8bc 8973 043d
00000040: f69f 703d a07f 393d 04d7 043e f6c8 913d
00000050: ea88 d5bd 3209 febd 8e28 9fbd 9e57 f7bd
00000060: dc0c eabd 7dee 653a ef0e 833d afa7 4e3d
00000070: 0236 ffbd e01b 843d 14f8 74bd eba6 b93c
00000080: 94b3 ffbb c0cf 36be c3ea 3ebe 56d4 12be
00000090: 9b4e 673c 6f33 d8bd 9126 29bd 4b6f 19be
000000a0: 3e7e cc3d 9f80 91bd e78f a63d 037a 00bd
000000b0: ff70 9dbd 65e1 28bd 3c94 23be 897a 6ebd
000000c0: 637a 1abe 25b8 03be b1c0 bbbd cd0b 13bd
000000d0: b999 9c3d 7917 7dbc 7c8c 013e 4d38 113d
000000e0: 56f6 6cbd 16fb 05be 9f87 c13c 9d34 83bc
000000f0: 4215 f6bd 04a9 fb3c fa83 a73c 9b6c 4a3d
00000100: b36d f8bd b029 8e3c 6781 ed3c 35cb 5d3d
00000110: 7a71 95bd 8a21 53bd f16b db3c a36e 6bbd
00000120: c66f b53c 1365 43bd 2ce5 94bc cdc9 75bd
00000130: 244d 45bd c88c aebb 9edc 2dbe d351 cf3c
00000140: c606 4fbe 88b1 53be c4ce 94bd b66c b7bd
00000150: 7b5b 053d 7f20 1fbe 5444 43be 8691 033d
00000160: 0e0d 58bd ded0 9a3d c7e7 83bd bb80 37be
00000170: 4816 3cbd 251e ffbc d08a bebd 91e4 f5bd
00000180: d796 63bc f262 1abd 5416 dcbd 0650 78bd
00000190: ddb9 e63d 917b b8bc 7458 a63d 9df6 843d
000001a0: ffd7 34bd 4e2a c6bd 528c d93d 9103 903c
000001b0: 7695 d93d 66df 643d 1631 473d 5f27 c23d
000001c0: dbf0 063e 3d0f e7bc a3f2 943d 4028 cd3d
000001d0: 381b d73d 1ac4 bb3d f149 76bd 58fa 36bd
000001e0: 39ea e7bd 9557 aabc 9544 ba3d 2cc0 c8bd
000001f0: 3d93 7d3d b428 fcbd b99c 33be 76c9 77bd
00000200: bb01 fe3c 40b4 b53d 1695 09be f9ea 30bd
00000210: f145 8d3d 7438 7f3d 5ec6 923d 09e6 683d
00000220: 9e4f 3a3d ade2 0c3d e048 4fbd 90ba 2dbd
00000230: 2f32 65bd 25c7 38bc 808b 69bd 4afe 6c3d
00000240: 0aef a13d 2da8 cbbc 355b 4e3d cc24 6c3d
00000250: e18e b23d 6e8d fa3d 3d9d b2bd 0b82 783d
00000260: 610f 87bd 692c 8cbd 5818 32be de86 11be
00000270: cddb 11be cbfc fdbd e329 f13b 1f0d d5bd
00000280: ba04 afbd d549 2e3d 4cbf 103d e8f4 9d3d
00000290: 5b32 63bd e6e0 aa3d c1ed b93c e9e3 1b3d
000002a0: 1e82 d4bc 8dff 923c 5385 0d3d 3994 e63d
000002b0: 05a4 b83d 86cb dc3d 3599 4d3e 9f90 e73d
000002c0: 9d0c 983d 2a7c 1ebb 9917 cebd 80e9 803d
000002d0: 5cd0 99bd 6536 8cbd 0de8 28be 2858 b9bd
000002e0: 6365 11be d782 db3d 7966 d1bd 143a d1bd
000002f0: 3c87 3cbc ca57 95bd 8f23 543d d6de e1bc
00000300: 0a51 2dbd a27a ad3c c23d ca3d c6af 7bbd
00000310: 032d 863d 09c9 b13d 7145 0c3e 3dcc 65bd
00000320: b23d ab3c d0a0 c8bd 199e aa3d 5177 91bd
00000330: 875d 2f3d 33a8 59bd f1da 99bd 026d 94bd
00000340: 04be 4dbd f14d 22bb b050 723b c575 8e3c
00000350: 59e1 f7bd 1092 913d a904 c43d be99 c53d
00000360: ff57 bb3d 5920 92bd 4831 e1bc be9c 013e
00000370: 1318 bfbd 6eeb c03d cd29 bebd b236 96bd
00000380: 1241 9b3d d759 eebc 86d6 033d c47a 1f3e
00000390: a9b1 3a3e f517 543e a067 83bd f6db 0bbe
000003a0: cc53 b63d 5236 2abd 2dae 14bd dd21 8dbd
000003b0: 558d 38be 3ee0 9bba 6d8d 023c c15e 0fbe
000003c0: d329 16be 09ef 75bd c8aa 933c bb3c 20bd
000003d0: 1ce3 aabd 76c3 32bd 8e07 1bbe ce61 f0bd
000003e0: 0bc0 febd 6f46 513d 4453 b83d 2e87 33bd
000003f0: fdb5 8b3b b532 9b3d a8df 693d cdac 14be
0.1245248 0.0121423835 0.036433578 0.112943426 -0.04971127 0.05431673 -0.038488664 0.04184119
0.010003218 -0.027377965 0.028312897 0.0010603174 0.033127315 -0.053730465 -0.026460422 0.032336745
0.0587463 0.04528773 0.12972647 0.071184084 -0.10426505 -0.124040976 -0.07771407 -0.120772585
-0.11428234 0.0008771194 0.06399333 0.050452884 -0.12461473 0.06450629 -0.0598069 0.0226626
-0.00780339 -0.17852688 -0.18644242 -0.14338812 0.014117862 -0.10556685 -0.041296545 -0.14983861
0.09985016 -0.07104611 0.08132916 -0.03136636 -0.07687568 -0.041230578 -0.15974516 -0.058222327
-0.1508575 -0.12863214 -0.09167612 -0.035899926 0.07646508 -0.015447491 0.12651247 0.035454083
-0.05785211 -0.13084063 0.02362424 -0.016016299 -0.12015773 0.030720241 0.020448674 0.04941998
-0.121302985 0.017353863 0.028992368 0.05414887 -0.072970346 -0.051545657 0.026784869 -0.05747856
0.022148024 -0.047703814 -0.018175684 -0.060006905 -0.04816927 -0.005326841 -0.1697869 0.025307572
-0.20217428 -0.20673192 -0.07266 -0.08956282 0.032557946 -0.1553974 -0.19069034 0.032121204
-0.052746825 0.075593695 -0.064406924 -0.179202 -0.045919687 -0.031142304 -0.0930382 -0.12006486
-0.0138909435 -0.037692018 -0.10746446 -0.06062319 0.11265919 -0.022519859 0.0812234 0.0649235
-0.044151302 -0.09676038 0.10622467 0.017579826 0.106242105 0.05587711 0.048630796 0.09480166
0.13177817 -0.028205508 0.07272842 0.10017443 0.105032384 0.09168263 -0.06012911 -0.04467234
-0.11323971 -0.020793715 0.09095112 -0.09802279 0.061907995 -0.12312451 -0.17540254 -0.060494862
0.031006685 0.088722706 -0.13435778 -0.043192837 0.06898106 0.062309697 0.07166742 0.056860004
0.045486085 0.034395862 -0.05060661 -0.042414248 -0.055956062 -0.0112779485 -0.057017803 0.057859696
0.07906921 -0.024860466 0.05037995 0.05765228 0.08718658 0.12234007 -0.08721397 0.060670894
-0.0659473 -0.06844408 -0.17392099 -0.14211604 -0.14244004 -0.12401732 0.0073597296 -0.10402893
-0.085458234 0.04255088 0.035338685 0.07712728 -0.055467945 0.08343677 0.022696378 0.03805915
-0.025940951 0.017944122 0.034550976 0.1125874 0.09015659 0.107810065 0.20077975 0.11306881
0.07424281 -0.0024182894 -0.10063095 0.062945366 -0.075104445 -0.068463124 -0.1649477 -0.090500176
-0.14198832 0.10718315 -0.10224623 -0.10216156 -0.011506852 -0.07292135 0.051791724 -0.027572077
-0.042313613 0.02117664 0.098750606 -0.061446927 0.06551554 0.086809225 0.13698365 -0.05610298
0.020903442 -0.097962976 0.08330936 -0.07102836 0.042813804 -0.053138923 -0.07512463 -0.07247354
-0.05023004 -0.0024765695 0.0036974363 0.017390141 -0.121035285 0.07107937 0.09571201 0.096484646
0.09147643 -0.07135076 -0.02748932 0.12657449 -0.09330764 0.09419905 -0.092853166 -0.07334651
0.075807706 -0.029095573 0.032187007 0.15574175 0.18231834 0.20712264 -0.06416249 -0.13658127
0.08902702 -0.04155571 -0.03629892 -0.068912245 -0.18022664 -0.0011892391 0.007968289 -0.1400099
-0.14664392 -0.060042415 0.01802577 -0.039120417 -0.08344099 -0.043643437 -0.151396 -0.11737405
-0.12438973 0.05109256 0.09000257 -0.04383009 0.004263638 0.07578031 0.05709806 -0.14519043

extractor.0.bias f4 [24]
00000000: 2a7a a73d 1d2d 193d 3f90 88bd ddd7 9f3d
00000010: 74eb a4bd c8ba 663d e715 c1bc e089 0c3d
00000020: da3a 4abc 32e7 b03c 99c7 06bd ec4b 443d
00000030: 6f36 5b3d 1448 d2bd 7c9d d13d 412a c0bd
00000040: 26da 56bd 9e65 3f3d add7 d43d 4e9d 203d
00000050: 369f 83bd 7a53 a13c 0735 89bd cbee 573d
0.08177598 0.03739654 -0.06668138 0.078048445 -0.080527216 0.056330472 -0.023570014 0.034311175
-0.012343133 0.021594618 -0.032905195 0.047923967 0.05351871 -0.10267654 0.10235116 -0.09383059
-0.052454136 0.04672777 0.103926994 0.039212517 -0.064268515 0.019693125 -0.06699567 0.052717965

extractor.1.weight f4 [24]
00000000: f8ca 743f 9bd8 603f 2325 653f 6457 5f3f
00000010: 9c6e 873f 60e7 853f 954d 693f 8bb2 7d3f
00000020: 86b8 7e3f 7443 783f 1067 7d3f a9a1 593f
00000030: 5336 683f 5816 813f d535 6d3f 9e56 803f
00000040: 7f60 873f c5c8 813f 7cdc 5b3f e2e9 763f
00000050: 9ded 623f e747 a13f b0b6 3e3f 2a3c 603f
0.95622206 0.87830514 0.8950979 0.8724272 1.058063 1.0461235 0.91134006 0.9910056
0.9950031 0.96977925 0.98985386 0.850123 0.9070789 1.0084944 0.92660266 1.0026433
1.0576323 1.0139395 0.8588331 0.96450627 0.8864382 1.2600068 0.7449751 0.87591803

extractor.1.bias f4 [24]
00000000: b0ce ffbd 2c6f 57be 716b 44be 5657 5bbe
00000010: 9411 e0bc 954d 44bd 1eab 2bbe 61fd b2bd
00000020: 68cc c13d 04fc b33b 8e82 473c 5943 86be
00000030: 5f01 70be b9e1 1bbc 87e2 10be 3844 50be
00000040: 7fc6 7a3d 27e0 5dbd 0e93 49be cb7e d3bd
00000050: 59a7 a6bd 89cb 0b3e 96f5 73be c782 30be
-0.124905944 -0.21038502 -0.1918161 -0.21420035 -0.027352132 -0.04792555 -0.16764495 -0.087397344
0.094628155 0.005492689 0.012177123 -0.26223257 -0.23438023 -0.009514266 -0.14148913 -0.20338523
0.061224457 -0.054168846 -0.19685003 -0.10326918 -0.08137388 0.13651861 -0.23824152 -0.17237388

extractor.1.running_mean f4 [24]
00000000: c2bc dcbe 2b4b b5bd ac91 47be 2343 31bd
00000010: 6619 81be 3cb2 b2be 0c06 41be 8209 20be
00000020: 61d9 033e d50c 4c3e d498 b7be c601 8dbd
00000030: 74d0 45bf 4798 193c 3c70 3a3d 6657 a8be
00000040: 31eb 9e3d 03be ad3c ac1a f4be b5db 543d
00000050: 66bb f3be 4360 97bb c093 58be 821a f53c
-0.4311276 -0.08852228 -0.19489163 -0.043276917 -0.2521469 -0.34901607 -0.18849963 -0.15628627
0.12875892 0.1992677 -0.35858786 -0.06885104 -0.772712 0.009374685 0.04551719 -0.3287918
0.07759703 0.021208769 -0.476766 0.05196734 -0.4760391 -0.0046196296 -0.21150112 0.029919866

extractor.1.running_var f4 [24]
00000000: 54f8 be3d 6aa8 123d 8686 ee3c 6f37 613c
00000010: 39c0 4d3d e03b 5f3d 1403 ea3c a9df 783d
00000020: 9f1d 463d a28c 4a3c 2217 443d a82a 883c
00000030: f1a0 793e d29f ee3c 0535 d43b 137f eb3c
00000040: 170d 143d 57dd 143c b9e5 253e 926b 0c3c
00000050: c90f 9c3d 90f0 843c d57d 893c 5a0f e93b
0.093247086 0.035805143 0.02911688 0.013746127 0.050232146 0.05450046 0.02856592 0.060760174
0.048368093 0.012362631 0.047873624 0.016621903 0.243778 0.029128943 0.006476047 0.028747117
0.036145296 0.009085975 0.16200913 0.008570569 0.07620198 0.01622799 0.016783634 0.0071124258

extractor.3.weight f4 [36, 24, 5, 5]
00000000: 09ed 403a 03c7 a4ba 1477 19bc 83b6 2d3d
00000010: 1cb5 c43d 44a4 8fbd d93a 4bbc c6aa eabc
00000020: 3ebd f93a fb0a a13d dacc 7cbd 0c0e 32bc
00000030: 2f0f fd3c 99dc df3c af6a 43bb 1fb5 603c
00000040: efcd 133d b354 ffbb eea6 c73c 235c 7a3c
00000050: c986 363c 2110 933d 8022 0dbb f9d9 033b
00000060: 3a18 38bb 3817 1b3d a14b 8a3d 05ec 033c
00000070: e556 ba3d 644e fd3c 42c4 a9bd 812d 123b
00000080: 7cda 73bb 00e4 e0bc 0b26 0e3c 5b5a dcbc
00000090: f5ef 8abc 269e 173c 1032 6ebd 605c b3bd
000000a0: d2da a63b 8ff1 9f3c 9850 663c 8bfd 0abc
000000b0: 6bcf 9b3d 054e 96bc c467 7abc d608 87bc
000000c0: 1460 713c 0d8d 873d c196 a1bd 8a20 5e3b
000000d0: fb98 243d f7ef 133d 166c 533d 016d a73d
000000e0: 0d17 003e fba7 113e 1047 733d 3de5 ca3d
000000f0: cb52 7f3d bf56 ad3d d8c1 d73b 6270 e2bb
00000100: 7e68 61bd 24d3 04be 6096 f1bd dd3e e5bd
00000110: 780b cdbd 02cc a2bc e5a2 103c ac58 b63c
00000120: 8e9a 2abc 80cb b6bb bccd b9bb 1619 3f3d
00000130: 70c1 ed3b 6e5e a23c 07f1 813d 1da2 863d
00000140: 5460 b0bd 4a28 0cbd 74a2 0abd cfc3 743d
00000150: a644 283c 7ff3 f6bb c561 85bd f2bc f8bc
00000160: 43b7 cabc 5b6b c4bc 7a52 4ebd 5fd2 253c
00000170: 6340 d6bc be21 02bd 3b42 563d 809a 67bc
00000180: d6d5 70bc 4281 09bd 463f 173d 6b7f 8c3b
00000190: 864a 01bd f545 083d f7ca c1bb c430 b63d
000001a0: 6aa7 ed3c cee1 00be baa1 fdbd 2b90 65bd
000001b0: c7cd f0bc efa7 603d f3b0 6dbd bcb1 8a3c
000001c0: 1c75 1b3c 8274 983a 9036 cabb 5fed 08be
000001d0: 007a aabd fc9d e6bb c060 893a 737e 593d
000001e0: 6f58 f53b f173 403d c1d1 253d d0ca d63c
000001f0: e868 503d 14f5 a7bd c84a 1ebd 9fb6 273c
00000200: 3d02 3ebc 830b 2e3d 9540 91bc f32c b33d
00000210: e502 db3d 3dec 1c3e 1203 283e 9d47 2bbd
00000220: 8c0f efbc a600 293d 9fdf 2dbc 4c96 4e3c
00000230: 75a9 dbbd 984a 8abd e921 0ebd 9b0a 00bc
00000240: 52ba 7b3c 87eb e0bd 5cea f5bd 5df9 b1bd
00000250: 97a5 69bd 7022 95bc dfd7 fbbb 5746 673c
00000260: 454e 59bc 7760 4f3d ad76 eb3c a0e8 d6bd
00000270: a35d acbd d534 d4bb 2c09 573c 824a 6ebc
00000280: 3adf b9bd 5131 65bd 7a1e 513c 020e 593c
00000290: b326 0b3d 5a46 093d 5beb 153d bad8 9d3d
000002a0: 772f db3d 3d23 5d3d ca6c aebd a529 163c
000002b0: ad40 8abc ad71 493d 0d7f 4f3c 897a a1bb
000002c0: 6921 e23c 0fae 7a3d 8220 853d 0c2a e13d
000002d0: 95bd dc3d 44d0 f33d 53fe 803d 256d 083c
000002e0: b08d 9abb 3bc4 2d3d fe2d 2a3d 4590 e6bd
000002f0: 8b92 d5bd 7fa3 1abe e754 25bd e5cb 85bd
00000300: 36df 46bd 0db3 84bd 8ba7 bcbc 30ed 98bc
00000310: a997 533d 625c 313d 38fc d93b 5252 bf3d
00000320: e8fe 3bbc b146 49bd abde 80bd 61b7 99bd
00000330: 82af 81bd e610 ffbc 7619 eabc 83ed f5bb
00000340: db8a 70bd 0009 d1bd 641d 273c ffb5 e63c
00000350: 5590 28bc 6445 ac3c 5203 24bb 8c06 cebd
00000360: d44c b2bd e40e 8abd fd62 b9bd e200 9ebd
00000370: 8954 96bd fb39 21be 944b 3fbe c44a 2ebe
00000380: feb9 bfbd b479 9f3d 2d7e 4e3d a376 823d
00000390: 7b43 dd3b a07b 133d 7839 113d 5b67 1fbd
000003a0: 6daf 4fbc 1ee9 433c 01f7 763c c1f6 9dbd
000003b0: 8f4d 25be 3fa3 0cbe cd03 0bbe f9e1 2ebc
000003c0: 56c2 22bc a6a1 8f3c 5ace a63d bfe1 923d
000003d0: e7e0 70bc 828f 123d bc46 653d f00c 3d3d
000003e0: 01d1 12bd 5ec5 b03c acaf 9cbd 4922 323d
000003f0: 15a4 863d 0f58 893d 9698 463d 8efb f63c
0.000735954 -0.0012571517 -0.009366769 0.042410385 0.09604856 -0.07013753 -0.012404167 -0.028645884
0.0019053591 0.078634225 -0.0617188 -0.010867607 0.03089103 0.027326869 -0.0029818227 0.013715058
0.036085065 -0.0077920794 0.02437159 0.015280756 0.011140534 0.07180811 -0.0021535456 0.0020118935
-0.0028090612 0.03786394 0.06752706 0.008051877 0.09098605 0.030921169 -0.08289386 0.0022304954
-0.0037209084 -0.027452469 0.008676062 -0.026898554 -0.016960124 0.009254014 -0.058153212 -0.087578535
0.0050920034 0.019524364 0.014057301 -0.008483301 0.07607921 -0.01834775 -0.015283529 -0.016483705
0.0147323795 0.066187 -0.07890082 0.0033893907 0.040184956 0.03611752 0.05161675 0.08175088
0.12508793 0.14224236 0.059393942 0.09907005 0.062334817 0.08463811 0.0065843873 -0.0069103697
-0.055031292 -0.12971169 -0.1179626 -0.11193631 -0.10011953 -0.01987267 0.0088279 0.022259079
-0.010412825 -0.0055784583 -0.0056702774 0.046654783 0.0072557256 0.019820418 0.063448004 0.065738894
-0.08612123 -0.03421811 -0.033846334 0.05975705 0.010270273 -0.007536351 -0.06512789 -0.030363534
-0.02474559 -0.023976972 -0.050371625 0.010120957 -0.026153749 -0.03177046 0.052309256 -0.014135957
-0.01469942 -0.033570535 0.036925577 0.0042876503 -0.03156521 0.03326984 -0.005914088 0.0889602
0.029010493 -0.12586138 -0.123843625 -0.056045692 -0.029394997 0.054847654 -0.05803008 0.016930453
0.00948837 0.0011631402 -0.006171055 -0.133718 -0.08324051 -0.007037876 0.0010481104 0.053099107
0.0074873487 0.04698557 0.04048324 0.026219755 0.050881296 -0.08201042 -0.038645536 0.010236411
-0.011597213 0.042491447 -0.01773099 0.08748808 0.106939115 0.15324493 0.16407421 -0.041816343
-0.029182218 0.041260384 -0.010612397 0.012609076 -0.10725681 -0.06752509 -0.034700308 -0.007815029
0.015364246 -0.10982423 -0.12007591 -0.086901404 -0.057042684 -0.018204898 -0.007685646 0.014115891
-0.01326329 0.050629105 0.028743112 -0.104935884 -0.08416297 -0.0064760246 0.013124745 -0.014544131
-0.0907578 -0.055955235 0.012763614 0.013247969 0.033972453 0.033514358 0.036601406 0.07707353
0.107024126 0.053988684 -0.085168436 0.009165202 -0.016876543 0.049180675 0.012664569 -0.0049279374
0.027603822 0.06120115 0.06500341 0.10994348 0.107783474 0.11904958 0.062985085 0.008326803
-0.0047165975 0.042423468 0.041547768 -0.11257986 -0.104283415 -0.15101431 -0.040364172 -0.065330304
-0.048552714 -0.06479464 -0.02302911 -0.018667787 0.051658306 0.043300994 0.0066523813 0.09341873
-0.011474349 -0.049139682 -0.062924705 -0.0750568 -0.063323036 -0.031135987 -0.028576594 -0.0075051202
-0.058726173 -0.10206795 0.010199878 0.028162954 -0.010288318 0.021029182 -0.0025026393 -0.100598425
-0.0870606 -0.067411214 -0.09052084 -0.07715012 -0.073403426 -0.15744774 -0.18681175 -0.17020708
-0.09361647 0.07786885 0.0504133 0.063702844 0.006752429 0.03600657 0.035455197 -0.038916927
-0.012676102 0.011957435 0.015073539 -0.0771308 -0.16142868 -0.13734148 -0.13575669 -0.010673993
-0.009934029 0.017533135 0.08144827 0.07171964 -0.014702058 0.03578139 0.05597566 0.046154916
-0.035843853 0.021578487 -0.07650694 0.043489728 0.06574265 0.06706249 0.04848536 0.030149247

extractor.3.bias f4 [36]
00000000: 09f7 84bc 78d3 0ebd 2127 bf3c 447b b5bc
00000010: ece5 d7bc bf38 edbc c0ad a8bb a2f2 793c
00000020: be46 0c3c 8426 a0bc 49b1 9fbc 83c2 2b3b
00000030: 82db 9abb d3a4 d4bc a081 05bd 8357 65bb
00000040: d902 47bc c538 0dbd 44f9 c93c 1c34 fc3c
00000050: b5ab cf3c adea c63c b09b 07bd e8cd 1a3c
00000060: 4563 193d 7df0 14bd c2e7 fbbc a8c3 a33c
00000070: d967 9c3c 737c c4bc b7c0 263d 2b32 1e3d
00000080: 5f8d e1bc 59a3 b2bb 609a b5bc 11dd 0c3c
-0.016231077 -0.03486964 0.023334088 -0.022153504 -0.026354752 -0.028957723 -0.0051476657 0.015255602
0.008561788 -0.019549616 -0.019493716 0.0026208467 -0.0047258744 -0.0259575 -0.032594323 -0.0034994788
-0.012146675 -0.034477968 0.024654992 0.030786566 0.025350431 0.024281824 -0.03310746 0.009448506
0.037448186 -0.03636216 -0.03075016 0.019990757 0.019092487 -0.023985123 0.04071113 0.038622063
-0.027533231 -0.0054516015 -0.022168338 0.008597628

extractor.4.weight f4 [36]
00000000: 6d6f 7c3f b00a 803f cca9 4d3f 6e36 7c3f
00000010: 8439 6d3f 0725 813f 61ca 7c3f d44f 543f
00000020: 7279 7d3f 57e8 6f3f 3e28 803f 075b 523f
00000030: f34d 733f e06d 6f3f bf5e 573f 790a 763f
00000040: a6b8 703f 26f0 823f bc26 933f 68c0 7f3f
00000050: 3039 6c3f 9f68 663f 12c7 8c3f 7f53 6f3f
00000060: f230 853f 8f9a 743f e340 813f efce 6c3f
00000070: e401 803f 24d3 4f3f 9666 6c3f 5465 753f
00000080: 27b0 853f 2f61 713f b836 7a3f 3928 783f
0.9860752 1.0003262 0.80337214 0.98520553 0.92665887 1.0089425 0.98746306 0.8293431
0.99013436 0.937139 1.0012281 0.82170147 0.95040816 0.9352703 0.84128946 0.9610973
0.9403175 1.0229537 1.1496196 0.99902964 0.9227476 0.9000339 1.0998251 0.9348678
1.0405562 0.9554834 1.0097927 0.92503256 1.0000577 0.8118155 0.92344034 0.9585774
1.0444382 0.94288915 0.97739744 0.96936375

extractor.4.bias f4 [36]
00000000: 025e 08be 0435 63bd 62a6 71be e73d 42be
00000010: d175 48be 191a 203d 0c31 18be 8a8b 2dbe
00000020: 1011 1dbe 05c1 aebd 96b0 b9bd 556f 28be
00000030: 18a9 96be 8c3d a9bd c5b0 61be cc81 dcbd
00000040: e403 55be 17d0 37bd 286e 52be 3a15 4cbe
00000050: 762f 35be 5d16 05be 8e35 3fbe 7519 0fbe
00000060: d44a 90bc 8661 f0bd 3ec9 4dbe c6d5 f7bd
00000070: 6e75 7cbd db03 abbe f358 f3bd 9b46 b1bd
00000080: 93ed 53be 4aa6 f8bd fe54 75be ab89 bfbd
-0.13317111 -0.05547048 -0.23598626 -0.18968926 -0.19576193 0.03908739 -0.1486246 -0.16947761
-0.1533854 -0.08532909 -0.09066884 -0.1644872 -0.29425883 -0.08263692 -0.22040088 -0.10766944
-0.20802265 -0.044876184 -0.20549834 -0.19929972 -0.17693886 -0.12996812 -0.18672773 -0.13974555
-0.017613806 -0.11737351 -0.20096299 -0.12101321 -0.061635427 -0.3340138 -0.118822 -0.08656045
-0.20696096 -0.12141092 -0.23958203 -0.0935243

extractor.4.running_mean f4 [36]
00000000: 1305 abbf db1f c4bf ad80 1ac0 7b3b 47c0
00000010: bff6 85be 593e e5bf aff1 9e3d dbcd dfbf
00000020: f829 7f40 b6c8 8fc0 910e 4abf 16a1 3f3f
00000030: b7c7 80bf 0f5a 28c0 d7fe 04c0 ab77 67bf
00000040: 1020 06c0 5363 0fc0 1e27 693c 1d51 ab3f
00000050: 2a13 f1be 689e 93bf 1211 083e 4305 1e40
00000060: ecda c1bd 06f3 90bf 4fe8 e63e 1c5d c2c0
00000070: ac76 04c0 d05e dbbf 3e82 38c0 55e6 4ec0
00000080: d4de d7bf 5200 40c0 8f53 9cbf 8f37 80bf
-1.3360924 -1.5322222 -2.4141037 -3.1130054 -0.26164815 -1.7909652 0.07760941 -1.7484697
3.9869366 -4.493251 -0.78928477 0.7485517 -1.0060948 -2.6304967 -2.0780542 -0.90416974
-2.095707 -2.2404373 0.014230518 1.3384129 -0.47084934 -1.1532717 0.13287762 2.4690711
-0.09465584 -1.1324165 0.45099112 -6.073866 -2.0697432 -1.713831 -2.8829494 -3.2328084
-1.6864877 -3.0000196 -1.2213 -1.0016955

extractor.4.running_var f4 [36]
00000000: a702 a840 a219 d740 b5d8 8941 58d1 2e40
00000010: 4417 9640 9729 c140 83b2 1140 c389 7b40
00000020: 5d04 ca41 6d4e bc41 c4d2 2e40 b559 8340
00000030: bfd8 3e41 bcc7 7c40 c20f 6940 30fd fe40
00000040: 8857 1a40 553f 7040 6493 c440 2cb1 1040
00000050: 32a7 0740 e969 b640 14c4 843f 6a27 cd41
00000060: d442 3441 a201 2f40 f69d 1140 19fc 9041
00000070: 0f15 7040 c408 0541 5b2e d440 7a9b b940
00000080: 3576 1740 8b3e 9e40 841d 6540 0091 0641
5.250324 6.721879 17.230814 2.7315273 4.69034 6.036327 2.2765205 3.9302833
25.25213 23.538294 2.731614 4.1047006 11.927917 3.9496908 3.6415868 7.9684067
2.4115925 3.7538655 6.142992 2.2608137 2.1195798 5.7004285 1.0372338 25.644245
11.266315 2.7344747 2.2752662 18.123095 3.7512853 8.31464 6.6306586 5.800229
2.3665898 4.9451346 3.5799265 8.4104

extractor.6.weight f4 [48, 36, 3, 3]
00000000: 5fba 80bd 763d 02bb f9f7 4abd 7dda 11bb
00000010: 6d18 6cbd d56b fdbc 678b 193a 557b 07bc
00000020: f049 fb3c 0255 0c3d 7681 5dbb fed1 dcbd
00000030: 8417 cb3d 00ef 7c3c e2d6 293d 5202 e4bc
00000040: 497a 60bd a68a f13c f4bf e3bb b250 8f3d
00000050: 9d89 abbc 0742 86bd d4e3 a03d 49db d8bc
00000060: 0b7b 423d 484a 95ba a4f8 dcbb c10a 853d
00000070: e797 c13d 6c08 493d 9b75 783c 9b84 3e3d
00000080: f66c 643d 1e09 2cbd 9e61 2ebd a879 bf3c
00000090: f7fa 463c b828 163d 7297 4dbd 30ce 2739
000000a0: 89b5 603d debd 3d3c d649 7fbd eb04 05bd
000000b0: c1e1 6bbd 54c4 9fbc e164 9c3a f13d bebd
000000c0: 2722 9bba cf29 803c e6cd 1c3d 6bf5 1d3c
000000d0: b487 803d 70cf 953d fe86 083d a230 543d
000000e0: 50ee a8bd c2d7 cabd f78a 07bd 902b a4bd
000000f0: 2ab0 533d 77eb 133d aa5d 333d 2367 58bd
00000100: 9ba8 d1bc d9a2 053d 0852 9b3c b432 eebc
00000110: f444 7cbd caee 43bc 955c bcbc 52d4 c4bc
00000120: de5a ba3d 8edb e53a 68ce 933d 6059 ee3b
00000130: 1e53 603d 50cc 813d ab8d ce3c f177 343d
00000140: fcd8 fa3c 2193 043b da25 813d 2594 383d
00000150: 1156 61bc c1fc c4bb 64b8 863d 8017 693d
00000160: fb60 903d 4e9a 2e3d 82ca ca3d c7e7 d63d
00000170: 4b39 d33d 71f7 593d 54d1 9bbb 8d2f 8abd
00000180: 1a2f 8b3c 6dac 903d 79b7 c13c 4c07 4abd
00000190: 588b 2b3c 402d 3abd 1a4f 393d 2b9a d83c
000001a0: 9de4 32bd f3be a73c 1929 603d ae4b 0c3d
000001b0: 11bf c73c c64a 633d 69d1 bdbc f060 b1bc
000001c0: 318f 9fbd af64 8abd 2a44 e93d ae3f 8d3d
000001d0: 7639 a03c fe83 913d 45a5 f0bb a8d2 5c3d
000001e0: 5476 183d a284 c53d 09f2 7c3d 427b b63b
000001f0: c2e2 023d e12f 823d 29a1 6e3c fb65 673c
00000200: 4966 de3c a68f b33d b7da 6d3a 1571 7e3d
00000210: 7712 00bd f637 91bc b677 7e3d 70af 87bd
00000220: 3c2a babd 0de8 e3bd 67dd 5c3d 3940 923d
00000230: f8bc aa3c 32eb 2c3d d5ea 9dbd c485 e7bd
00000240: 25b7 b93c e4bf 4bbd 9d13 9fbc a033 a9bd
00000250: 9860 c5bd 764c f1bd ec6f e13c ce17 8dbd
00000260: 2c3e 03bd 6d9b b3bd 3983 073d 4e61 ffbc
00000270: a136 203d be68 8d3d 1565 893d c338 ac3d
00000280: c192 463d 498e 02bd d36c 943d 6217 e5bc
00000290: 7e72 bcbc 678f 0abe 4560 1fbe ed3a 05be
000002a0: fd69 563e f8e4 89bd 19b0 693d 1a65 243d
000002b0: bfab f6bc a47b b9bc 5861 cbbd e541 dfbd
000002c0: d84a c0bd 977e 8e3d d2eb 043d cc60 883d
000002d0: 8a8f b5bd 2ddb a7bd c919 bbbc 67d0 bb3b
000002e0: 9899 6e3d ab09 213d 0e7d 923c 5c51 f8bc
000002f0: a7ab c73c dcf4 bdbc 3e77 c83c bacd 333d
00000300: eeea d23b 0b9f c43c bc91 d13d 8607 a6bd
00000310: 3a7e c8bc 7242 1fbd ee94 933d 0b88 2abd
00000320: e2f3 f93b ad33 bebd d073 ccbd d758 81bd
00000330: a68f 343e 2b39 f43c dd23 c43d 0763 353d
00000340: 4b4e c93c 6550 953d 1f35 a1bb 63f3 853d
00000350: c96e 8d3d 5fd2 e23c 503b 053c 5eed a43d
00000360: d2cb f2bc f877 14bd 827f f5bd 7987 0c3c
00000370: ad6f 58bb 06b9 123b 584a 883d 1ec1 473c
00000380: d489 6b3d 2458 19bd 1261 213d d569 84bd
00000390: dc70 1e3d 5d1b 09bd 6cb8 8a3d 780b d8bc
000003a0: 425d aebd a599 9ebd 30a0 e5bd 379d c2bd
000003b0: 3d88 d8bd 5d5c fc3d f6ae ef3d 9616 dc3d
000003c0: edb6 89bd e563 90bd 2a6b eabd 1d39 533c
000003d0: 126b 8e3c fa41 0e3d f6c9 123d 3cb2 cb3a
000003e0: 610e d63d 2eb9 d4bc 0530 553d 0c8c 90bc
000003f0: d9fe 9cbd efe0 79bc 04a9 37bc e2a9 d83c
-0.062855475 -0.001987306 -0.04955289 -0.0022255473 -0.05764048 -0.030935207 0.00058572594 -0.008269151
0.030674905 0.034260757 -0.0033799089 -0.1078224 0.099165946 0.015437841 0.041464694 -0.027833138
-0.05480412 0.029485058 -0.006950373 0.06997813 -0.020939643 -0.065555625 0.07855955 -0.02647175
0.047480624 -0.0011389935 -0.0067435075 0.06496192 0.09452801 0.049080297 0.015164758 0.04651318
0.055767976 -0.042000882 -0.042573564 0.02337344 0.012144796 0.036659926 -0.050193258 0.00016003172
0.054860625 0.011580912 -0.062326275 -0.032475393 -0.057588343 -0.019502796 0.001193192 -0.09289158
-0.001183574 0.015644936 0.038282298 0.009641032 0.06275883 0.07314956 0.033331864 0.051804192
-0.082485795 -0.09904434 -0.03309151 -0.080161214 0.051681675 0.03611323 0.043790497 -0.052832734
-0.025593093 0.032626007 0.018960014 -0.029076912 -0.061589196 -0.011958787 -0.022993365 -0.024027023
0.09099363 0.0017536746 0.07217103 0.007273838 0.054766767 0.06337798 0.025214037 0.044059698
0.030621044 0.0020229297 0.06306048 0.045063157 -0.01375343 -0.006011576 0.065781385 0.056907177
0.070497476 0.042627625 0.099019065 0.10493427 0.10313662 0.053214494 -0.0047551785 -0.06747351
0.016990233 0.070641376 0.023647057 -0.049323365 0.010470234 -0.04545331 0.045241453 0.0264407
-0.043675054 0.020476794 0.054726694 0.03425186 0.0243831 0.05549123 -0.023171144 -0.021652669
-0.077909835 -0.06757485 0.113899544 0.068969116 0.01955865 0.07105254 -0.0073439204 0.053911835
0.03722222 0.09644438 0.06175426 0.0055688927 0.031954534 0.063567884 0.014564791 0.014123435
0.027148383 0.08767633 0.00090734236 0.062119562 -0.03126761 -0.01772688 0.062125884 -0.06625259
-0.09090087 -0.111282445 0.053922083 0.07141156 0.02084206 0.042216487 -0.07710806 -0.11304811
0.022670338 -0.049743548 -0.019418532 -0.082618 -0.096375644 -0.11782162 0.027519189 -0.06889306
-0.032041714 -0.087698795 0.033084128 -0.031174328 0.0391146 0.069047436 0.06708733 0.08409264
0.0484798 -0.031873975 0.07247319 -0.027965251 -0.023003813 -0.13531266 -0.15564068 -0.1301076
0.20938869 -0.067331254 0.057052705 0.04013548 -0.030111192 -0.022641964 -0.09930676 -0.1090124
-0.09389275 0.06957739 0.03245146 0.066590875 -0.088652685 -0.08196101 -0.022839444 0.0057316306
0.058251947 0.03931586 0.017881896 -0.030312233 0.024373842 -0.023188047 0.024470922 0.043897368
0.006436697 0.024001619 0.10232875 -0.08106904 -0.024474252 -0.038881727 0.072061405 -0.041633647
0.00762795 -0.092872 -0.09983027 -0.06315773 0.17632923 0.029812416 0.09577153 0.044283893
0.024573466 0.07290725 -0.0049196626 0.06540563 0.06905896 0.027688203 0.008131817 0.08053087
-0.029638205 -0.036247224 -0.11987211 0.008577221 -0.0033025548 0.0022388115 0.06654805 0.012192039
0.05750449 -0.037437573 0.039399214 -0.06465498 0.03868185 -0.03347336 0.06773457 -0.026372656
-0.08513881 -0.07744149 -0.11212194 -0.095026426 -0.105728604 0.123223044 0.11703293 0.107464954
-0.067243434 -0.07050303 -0.11446221 0.012892035 0.01738504 0.03473089 0.035837136 0.0015540789
0.10451961 -0.025967207 0.052047748 -0.017644905 -0.07665796 -0.015251382 -0.01120973 0.026448194

extractor.6.bias f4 [48]
00000000: ca16 d53b afa0 3fbd 4b25 5bbb 40dc 2ebd
00000010: 10a5 323d 20dd 1fbc ed50 84bb d823 633d
00000020: 35be 1f3c b09e d13c 5877 42bd dc39 35bd
00000030: 1ca8 f03c 0d98 e23c 4929 4fbd a6f2 2c3d
00000040: 1194 60bc 556e 113d 33c2 5a3d 53af 2bbd
00000050: 8351 cf3b e257 54bd 7211 d3bc 05f8 94bc
00000060: e840 bcbc 0c43 073d fc4c 773c da25 dc3c
00000070: 65de d13c 4ef3 7d3c 8e8f b73c 67f6 abbc
00000080: 2288 373d 0d05 273c 5cb9 3abc 538d 203a
00000090: 7d1c 8bbc 21da 243c ec8d 403d 75af 35bd
000000a0: 971e 39bd cda3 afbc 98cb 173b 9cf0 273d
000000b0: 82ab 083d cbc3 4a3d 781f ab3c 91c9 25bd
0.006502961 -0.0467841 -0.0033438976 -0.042690516 0.043614447 -0.00975731 -0.0040379674 0.055454105
0.009749939 0.025588363 -0.047477096 -0.044244632 0.029377036 0.027660394 -0.050576482 0.042223595
-0.013707177 0.03550561 0.05340786 -0.04191525 0.0063268556 -0.051841624 -0.025765155 -0.018184671
-0.022980168 0.033022925 0.015094038 0.026873518 0.025618741 0.015499903 0.02240732 -0.020991517
0.04480756 0.010194075 -0.011396732 0.00061245746 -0.016981358 0.010061772 0.047010347 -0.044356782
-0.04519519 -0.021440411 0.0023162123 0.041000947 0.033366688 0.04950313 0.020889029 -0.04047543

extractor.7.weight f4 [48]
00000000: 8271 823f 206b 743f 9054 7e3f 609e 743f
00000010: 8fe7 803f cbc2 703f 9a5f 803f eb62 763f
00000020: c8a1 7e3f 925d 6c3f fdf0 6c3f c3ed 7c3f
00000030: 53f4 623f e0fb 843f b147 8d3f 4645 853f
00000040: 1d0a 813f 6e3a 7d3f 2b0b 823f 7297 763f
00000050: 037e 7d3f 7977 793f 6a71 7c3f d45a 7e3f
00000060: b720 813f 0af8 853f 181b 7f3f 2d01 783f
00000070: c28a 753f aa21 863f beac 723f 5beb 803f
00000080: eec4 8c3f 277b 743f f6ae 733f aeb7 7b3f
00000090: 6b8e 853f 6eb0 6c3f 5ce9 8c3f 5892 693f
000000a0: 3401 7b3f 31d5 6b3f 9516 893f 0159 883f
000000b0: 3db0 813f 764c 723f 176c 723f c23b 803f
1.019089 0.9547596 0.9934778 0.9555416 1.0070666 0.9404723 1.0029175 0.96244687
0.9946561 0.92330277 0.9255522 0.98800296 0.8865406 1.0389366 1.1037503 1.0411766
1.0081211 0.9891728 1.0159658 0.9632484 0.99020404 0.97447926 0.98610556 0.9935734
1.0088109 1.046632 0.99650717 0.96876794 0.9591485 1.0479023 0.94794834 1.0071825
1.0997598 0.95500416 0.95188844 0.9832715 1.0434088 0.9245671 1.1008716 0.9123893
0.9804871 0.9212218 1.0710016 1.0652162 1.0131909 0.9464792 0.9469618 1.0018237

extractor.7.bias f4 [48]
00000000: 1d41 7abe 0304 c6be e080 ae3c 5b2f acbd
00000010: feae 59bc ee11 a5be 57e8 b5bd 31ef dabd
00000020: c01f e3bd a880 d6be 33be 35bd 57a6 dbbd
00000030: 0c83 d7be b2f7 21be c887 0e3c f968 17be
00000040: 165c f5bc 4ea4 8abd 2374 1bbd 2eca 09be
00000050: cd59 93bd fc6c f9bd 7d24 b0be 3427 c7bd
00000060: 44f5 dcbd 929b d7bc 8a58 0fbb bab6 a2be
00000070: 34da 79be 283a 17be 72ac c3bd a5d0 1cbe
00000080: abee 18be 8e44 97bd 4b0d f8be cced 9ebe
00000090: 344f d0bd 48ef dabe a53d fcbc f703 26be
000000a0: 6e81 a2bd 88f3 15be e779 b5bd 9718 cebc
000000b0: f024 4ebd 0185 26be 73a6 90be 221d 88be
-0.24438901 -0.38674936 0.021301687 -0.0840747 -0.01328635 -0.32240242 -0.08882206 -0.106901534
-0.1109004 -0.41895032 -0.04437084 -0.10725086 -0.42092168 -0.15817145 0.008699365 -0.14786138
-0.029951137 -0.0676962 -0.037952553 -0.13456032 -0.071948625 -0.1217899 -0.34402838 -0.09724274
-0.10788968 -0.026319299 -0.0021872842 -0.31780034 -0.24399644 -0.14768279 -0.09554376 -0.15313967
-0.14934795 -0.07386123 -0.48447642 -0.310408 -0.10171357 -0.42760682 -0.030791113 -0.1621245
-0.07934843 -0.14643681 -0.08861142 -0.02515821 -0.050328195 -0.16261674 -0.2825199 -0.26584727

extractor.7.running_mean f4 [48]
00000000: aad9 1d3f c721 243e 086c 1e3f b1b9 643e
00000010: c4db 613c f23e debf c9bd e53e 2ec2 5abd
00000020: 5295 17bf 3cf3 aa3e 9475 16c0 a7c5 3ebf
00000030: aff5 60bc 5bc8 5bbf 3e7e a3bd da8d febe
00000040: 711a 27c0 db58 f7bf 5fda 16bf 9c73 15bf
00000050: 9aa6 66bf c95a 98bf ce21 0d3e c389 ea3f
00000060: 8740 2540 2e8a 293d c677 aebf 2a60 3dbe
00000070: a3d8 f0bf c6e0 323f b146 92bf 8463 2d3f
00000080: 19e5 013f f60a e6be 4c54 3e3d 2cbf ba3d
00000090: 2460 753f 56b3 cd3d ea90 d8be cf96 d5bf
000000a0: b0df 9ebf c82b 163e 7de9 1c3f 4ba4 fa3e
000000b0: 7830 133e f4ff e8bf 0e7a b3bf 6636 d53e
0.61660254 0.1602851 0.6188359 0.2233646 0.013785306 -1.7362959 0.44871357 -0.05340784
-0.5921222 0.33388698 -2.3509264 -0.74520344 -0.0137304505 -0.85852593 -0.07983063 -0.497176
-2.6109889 -1.9323992 -0.5892696 -0.5837953 -0.90097964 -1.1902705 0.13782427 1.8323292
2.5820634 0.041391544 -1.3630302 -0.18493715 -1.8816112 0.6987423 -1.1427823 0.67729974
0.507402 -0.44930238 0.04646711 0.091184944 0.95849824 0.10043971 -0.4229806 -1.6686648
-1.2412014 0.14665139 0.61293775 0.4895347 0.14373958 -1.8203111 -1.4021623 0.41643065

extractor.7.running_var f4 [48]
00000000: 8f04 4f3f 73dc ba3f 03d9 693f 498b 1b40
00000010: 15b8 4e3f aa0e 9d3f 0294 0040 280b 2f3f
00000020: 5b31 803f e53d 463f 2224 f03f fd82 ec3e
00000030: bf2d 7f3f 0a0d ee3e c6a2 ba3f bd9d 1c3f
00000040: b6fd 0940 3f66 4640 e151 933f 6c5b fa3e
00000050: daf7 3a3f 7734 ab3f c723 7f3f 76ed 0e40
00000060: abf6 833f 07c2 2c40 68d5 a840 581b 6f3f
00000070: 19e3 743f d35e 8e3f 2643 e43f 15d7 403f
00000080: 296b 2e3f 6daa f53f ea93 113f 3266 8a3f
00000090: b20f 883f e7e8 623f 009b 323f 259c 9140
000000a0: fb53 0e40 2ebd 8f3f 9723 753f 32a8 1e3f
000000b0: cfd2 2640 a765 0740 ddbe 3f3f 422d b43e
0.8086633 1.4598526 0.9134676 2.4303763 0.80749637 1.22701 2.0090337 0.683764
1.0015062 0.77438194 1.8761027 0.46193686 0.9967918 0.46494323 1.4580925 0.6117819
2.1561103 3.0999906 1.1509362 0.48897874 0.7303444 1.3375386 0.99663967 2.2332435
1.0309652 2.6993425 5.2760506 0.934011 0.95659024 1.1122688 1.7832992 0.7532819
0.68132263 1.9192635 0.56866324 1.0812438 1.062979 0.8863663 0.6976776 4.5503106
2.2238758 1.1229608 0.9575743 0.61975396 2.6066167 2.1155794 0.7490061 0.3519078

extractor.9.weight f4 [64, 48, 3, 3]
00000000: f646 cfbc 9490 063d 6b3f e53c 7c81 d33b
00000010: b901 86bd 7149 a7bd e121 51bc 76ef f7bd
00000020: f934 4abd 04cf 4bbc f374 21bd 8574 0ebd
00000030: 5974 33bb ad4d 0c3b b120 00bd 3566 82bd
00000040: 1f2e 13be f7ce 14be f33a 38bd f7b0 d23d
00000050: 1ed4 c9bb 108f 21bd d099 05bd f9bf d2bb
00000060: 8dd2 a0bd 6923 20bd 359a a93c dfb0 353d
00000070: d4b4 82bd b9f0 aebd b207 553d 87ec 613b
00000080: fe9c f9bd 879e a7bd ef4d 83bd 28b2 70bd
00000090: dc9f b33b 17e7 05bd 71f9 893d cdb8 51bd
000000a0: 55ea 13bd 7d3e 58bd 62b4 e9ba b371 30bc
000000b0: c3a3 0cbd a45c 13be bcc9 f7bd 8d84 4ebd
000000c0: 5e9e 35bd a424 dfbb c0cc 003c 468e c3bd
000000d0: 1071 08bd 2c62 27bd c002 bcbd cd87 bbbd
000000e0: 910b 6abd 9008 89bc 704c 083d fca9 84bd
000000f0: 5474 cabd 1724 8dbd 905c 14be 822e 6d3d
00000100: 1067 b03c c353 913d 2da7 72bc 60ff b3bc
00000110: a07c 013d 1454 183c 29f9 a03d 4f1e a03d
00000120: 0cf4 e4b9 9f3a ac3d 23be c43d f907 4c3d
00000130: acce c13b 84f8 6e3d 1da2 30bb 4e97 14bd
00000140: 13dd 52bd 6c85 84bd 9b67 8cbb b9c5 d6bb
00000150: 3ca2 e63b 191d 9ebb d977 cabd 5216 6abc
00000160: d464 3fbb b9ec 23bd ad08 b43b 654d 1abd
00000170: 9e1a 3dbb 97c5 08bd 8370 17bc 0329 8f3d
00000180: 4d91 9dbc 1769 ef3c 61db 96bc 670e 0bbd
00000190: 45f5 dabd bd11 7339 638a 0f3c fd29 96bd
000001a0: 104b 49bd 9503 ac3c c8eb 61bd e12b 8e3d
000001b0: ed90 a2bd 455e 34bd f297 03bd 9555 74bd
000001c0: 97b9 3cbd 926a 88bd 9657 513c 614a 69bd
000001d0: c7d5 a2bd ce80 5dbd 8883 8cbd bbe3 adbd
000001e0: 1f78 f23d c130 3d3d f7a1 a83c cc2d a93d
000001f0: 5229 783d 789c 113d 0d63 e7bd d54f d7bd
00000200: acef ac3c 1d99 5fbd 16d8 11bc 4d60 a23d
00000210: b00d d3bd bca8 a7bd 2c64 103d 62b2 9b3b
00000220: 6383 7bbd dfbd fa3c 9e96 9d3d 868f 653d
00000230: d523 0b3d 9b0a 2a3d 657e dc3d 17fe d73d
00000240: 8fd8 333d bc19 043b 17bb cb3d 6a90 783d
00000250: a406 b63d 675f 8a3d f2f4 aebc 4c82 853d
00000260: 64d7 1abd 05bb 87bd d9d0 b5bd 6608 f4bd
00000270: 48b6 603d 3e85 15bd f067 5cbd 7137 073d
00000280: 446d eabc 4a86 41bc 8502 a7bc a9f4 4b3d
00000290: 784e 363c 1547 7bbd 1fe2 3ebd eebc 15bc
000002a0: 7eb9 69bd 1eb8 083c 8cd3 c63c 80f4 85bc
000002b0: 5e53 15bd a701 17bc 8e9c ea3c 5762 b3bd
000002c0: 5765 433c 3304 563d b063 963b 4840 9cb9
000002d0: 4f4c 3c3d 3759 e2b5 88c3 9e3b 6c5d 63bc
000002e0: 7e6e c63b 9fe6 96bc 08f0 3dbc 2edb 9bbd
000002f0: 7c65 643d f102 cb3c d336 0e3b a521 d53c
00000300: 1e89 a13d ba0d c53d 1a37 eebc 4547 db3c
00000310: ac17 d03c 6fe7 dcbc d028 04be ebc0 aebd
00000320: 7e15 47bc a807 213c 50c7 b83c 42fd 0dbd
00000330: ce55 54bd c98c e6bd 7ae0 a7bd 6402 50bd
00000340: ad49 03be 43ac bfbd 9a0c f0bc 83a5 6bbd
00000350: 2c1e cebd d77b f33d a1ef c73c 5071 593d
00000360: 2de8 123d 8c1d a0bd 6289 5ebd 718d 9abd
00000370: 980b 95bd 4ac6 b9bd a5d6 a0bd 17a9 ffbd
00000380: 4648 d0b9 1245 143d 9736 c03d fa64 a53c
00000390: 69c9 9c3b c8ff c2ba cce9 84bd efba 24bd
000003a0: 5297 e9bc f055 b8bc d246 5abc f1bd 003d
000003b0: 304a 72bd b758 7b3d e5b7 843d 911e a4bc
000003c0: 2069 42bc 9b7d afbb da21 f3bc b2fa d7bd
000003d0: ec64 92bd ce84 00bd bde0 33bd f319 acbb
000003e0: 2545 0dbc 6b96 5fbb 2218 f5bc 5868 8abd
000003f0: fcbc 0cbe fd84 7ebd b4bc 363d 0659 5b3b
-0.025302391 0.032852724 0.027984342 0.0064546447 -0.06543297 -0.08168305 -0.012764425 -0.121062204
-0.049366925 -0.012439493 -0.039418172 -0.03477909 -0.002738258 0.0021408603 -0.031281177 -0.06367151
-0.14373063 -0.14532076 -0.044978093 0.102876596 -0.0061593195 -0.039443076 -0.03261739 -0.0064315763
-0.078526594 -0.03909627 0.020703414 0.04435813 -0.063821465 -0.08542008 0.052009292 0.0034473257
-0.12188147 -0.081845336 -0.06411349 -0.058763653 0.005481703 -0.032691088 0.0673703 -0.05120163
-0.03611215 -0.05279397 -0.0017830248 -0.0107692955 -0.034335863 -0.14390808 -0.12099025 -0.05041938
-0.044340484 -0.006809788 0.007861316 -0.09548621 -0.03331095 -0.04086511 -0.09180212 -0.09156761
-0.057139937 -0.016727716 0.03327602 -0.064777344 -0.09885469 -0.06891649 -0.14488435 0.05790568
0.021533519 0.070960544 -0.014810366 -0.021972358 0.031612992 0.00929739 0.078600235 0.07818281
-0.00043669378 0.084096186 0.09606578 0.04981229 0.00591453 0.05834247 -0.0026952096 -0.036277108
-0.051480364 -0.06470761 -0.0042848117 -0.006554332 0.007038383 -0.004825246 -0.098861404 -0.014287548
-0.0029204385 -0.04002068 0.0054941983 -0.037671465 -0.0028854976 -0.03339156 -0.0092431335 0.06990244
-0.019234324 0.029224915 -0.018415155 -0.033949282 -0.10691313 0.00023180894 0.008761021 -0.073322274
-0.04914385 0.020997802 -0.0551565 0.06941963 -0.07937799 -0.044035215 -0.03212733 -0.05965193
-0.04607543 -0.06660952 0.01277723 -0.0569557 -0.07950931 -0.054077916 -0.06861025 -0.08490702
0.118393175 0.046189073 0.020585043 0.08260688 0.06058628 0.03554961 -0.11298189 -0.105132736
0.021110378 -0.05458938 -0.008901617 0.07928524 -0.10305345 -0.081864804 0.03525178 0.0047514895
-0.061404597 0.030608116 0.076947436 0.056045078 0.03396972 0.04151402 0.10766295 0.10546511
0.0439077 0.002015694 0.09947794 0.0606846 0.08887985 0.06756478 -0.021357033 0.06518993
-0.03780307 -0.06627468 -0.08877725 -0.119156644 0.054861337 -0.036504023 -0.05381006 0.033011857
-0.028616555 -0.011811802 -0.020386944 0.049793873 0.011127107 -0.061347086 -0.046602365 -0.009139283
-0.057061665 0.008344678 0.024270795 -0.016351938 -0.03645646 -0.009216703 0.028639104 -0.08758991
0.011926017 0.0522501 0.0045895204 -0.00029802532 0.04597121 -1.6864277e-06 0.0048450865 -0.013877254
0.006055652 -0.018420516 -0.011592872 -0.076101646 0.055760846 0.024781676 0.0021700158 0.02601702
0.07887481 0.09621759 -0.029079009 0.026767382 0.025401913 -0.026965825 -0.12906194 -0.0853289
-0.01215112 0.009828486 0.022555977 -0.034665354 -0.051839642 -0.112573214 -0.081971124 -0.05078353
-0.12821074 -0.09359028 -0.029302884 -0.05753089 -0.100643486 0.11888855 0.024406256 0.05308658
0.03586595 -0.078181356 -0.054330237 -0.07546509 -0.07277602 -0.09071024 -0.0785344 -0.12483423
-0.000397267 0.036198683 0.09385412 0.020189751 0.004784752 -0.0014877254 -0.06489906 -0.040217336
-0.028514538 -0.022501916 -0.013322549 0.031431142 -0.059152782 0.061363902 0.064803876 -0.020034106
-0.011865884 -0.0053555495 -0.029679228 -0.10545863 -0.071481556 -0.031376652 -0.0439155 -0.005252117
-0.008622442 -0.0034116756 -0.029918734 -0.06758183 -0.13743967 -0.062138546 0.044613555 0.003346981

extractor.9.bias f4 [64]
00000000: e08e c2bb f442 85bc 6bf2 08bc 43b8 14bc
00000010: 4f50 163d 9623 4dbc 74be c03c acbf 813c
00000020: 4f8a e3bc ed2c 05bd 51b1 a7bc f139 e4bc
00000030: b946 c53c 7e08 033d 5f20 253d 3dd0 b2bc
00000040: 037a 333d 569c 99bc 7ef3 9c3b 0a54 3c3d
00000050: a409 a73c 47fa 4fbc 5896 11bd 4679 16bd
00000060: a883 aebb 2240 3c3d cb01 c13c 397e 1d3d
00000070: 2823 39bc 1add 053d a32b b53c ed51 883c
00000080: 6c66 843c 3afc d03b a7f7 babc 34b8 913c
00000090: 5f99 37bc dc86 e03c e4eb ef3c 9a1e 13bd
000000a0: 7d14 38bd 6b77 f4bc dc7e 093d 2323 d8bc
000000b0: a14c 1e3d b9de febc 372e 37bd f5b1 d93c
000000c0: 2b04 1bbd 0e0c e53c e77f 6ebc 7d97 383d
000000d0: e936 e33c 9788 6b3c 67ad f23c 1b74 39bd
000000e0: db0e 353d da9c 1cbd e575 2dbd e5f3 bebb
000000f0: f9b7 bb3c 79de 0cbd 14f7 44bc fd51 13bd
-0.005937442 -0.016267277 -0.008358578 -0.009077135 0.036697682 -0.012520691 0.023528315 0.015838467
-0.027775912 -0.032513548 -0.020470293 -0.02785966 0.024081575 0.03199052 0.040314075 -0.021827811
0.04381753 -0.018751305 0.0047897687 0.045978583 0.02039034 -0.012693948 -0.03554377 -0.03673675
-0.0053257532 0.0459596 0.023560425 0.038450453 -0.011299886 0.032681562 0.022115534 0.016640628
0.01616212 0.006377724 -0.022823168 0.01778803 -0.011206 0.027408056 0.029287286 -0.035917856
-0.044941414 -0.0298421 0.03356825 -0.026383942 0.038647298 -0.031112062 -0.04472181 0.026574114
-0.03784577 0.02795985 -0.0145568615 0.045066345 0.027736144 0.014375827 0.0296237 -0.045276742
0.04420362 -0.038235523 -0.04234876 -0.0058274143 0.022914873 -0.034391854 -0.012021799 -0.035966862

extractor.10.weight f4 [64]
00000000: 98bd 833f 1e5c 813f ab61 703f 95f4 893f
00000010: 7d7a 743f ee0a 763f 91e1 813f d16f 7a3f
00000020: 2faf 653f 6f9d 823f 1188 723f fe51 823f
00000030: 5793 903f c708 863f 254d 673f ae76 693f
00000040: f7a3 813f 47c6 693f 5ac5 903f 808d 823f
00000050: e0f9 703f 17a4 8a3f 1ecc 6d3f 2fd6 633f
00000060: 5f45 7f3f 9c9c 843f 25cf 773f d941 863f
00000070: 02d5 8d3f ae54 843f e7e0 813f 8959 793f
00000080: 447c 7c3f ba4b 7c3f 7575 723f 9087 743f
00000090: 422a 733f f381 783f 265b 673f 87f6 7e3f
000000a0: 833a 653f c9fb 773f 4968 7b3f a1aa 743f
000000b0: b6e3 7e3f 8c1d 693f 3286 7e3f e1d5 7e3f
000000c0: e8e7 933f 2378 8b3f 743b 813f 82c6 7b3f
000000d0: 9bc5 833f 5d96 733f 9e7d 873f 41d7 8c3f
000000e0: 3914 6d3f 2f60 853f b238 663f 9de7 823f
000000f0: 22c0 803f d9ea 873f e3fc 7a3f 8a54 723f
1.0292234 1.0106237 0.9389903 1.0777766 0.954994 0.9611043 1.0146962 0.9782687
0.89720434 1.0204295 0.9473887 1.0181272 1.1294965 1.0471429 0.9035209 0.91196716
1.0128163 0.9131817 1.1310227 1.0199432 0.9413128 1.0831326 0.92889583 0.88998693
0.99715227 1.0360293 0.9680045 1.0488845 1.108063 1.0338342 1.014676 0.97402245
0.98627114 0.9855305 0.94710475 0.9551935 0.94986355 0.97073287 0.90373456 0.9959492
0.89542407 0.9686857 0.98206 0.9557286 0.9956621 0.9106071 0.99423516 0.99545103
1.1555147 1.0896038 1.0096269 0.98349774 1.0294679 0.9515131 1.058521 1.100319
0.9260898 1.0419978 0.8993026 1.0226933 1.0058634 1.0618545 0.98042125 0.94660246

extractor.10.bias f4 [64]
00000000: 1481 d5bc 45a0 55bd cc4e b6be 51bb 03be
00000010: e400 cdbd 8d78 5bbd c1d3 47bd 1250 1dbd
00000020: 2f4a dabe 79d1 27be 4fa4 fcbe 65ec b0bd
00000030: 3d81 c3bd a08c 2bbe 7d46 28be 3642 15bf
00000040: 38ad 00be d710 99be 868d 0dbe f796 5abd
00000050: 0121 0bbf b16c 5cbd b328 6cbe e822 0ebf
00000060: e9fb 71bd 8759 d8bb a6ed 01be feb9 15be
00000070: aa1f f7bd 0e16 c2bd 66d6 ddbd 8f28 53be
00000080: 705f f5bd 7146 ddbe 6946 86bd 4b42 e4be
00000090: 13e1 0abf 2294 0ebe e6ff 01bf 692a 89bd
000000a0: c60b 26be 1074 83bd 36b7 fdbd 76bb 45bd
000000b0: 6751 c9bd 8fc9 b9be 4b7e 27be b651 46be
000000c0: 1ba4 b3bc d23f 2ebd fd95 3abe 7d8d e3bd
000000d0: 9cf4 59bd b76d abbe 5e52 b0bc bafd 54be
000000e0: fca6 e9bd 606c cabd 8b0d 06bf b6fd 6e3c
000000f0: 8b39 98be 32e7 17be b56e a3bd 88f8 21be
-0.026062526 -0.052154798 -0.35606992 -0.12864424 -0.100099355 -0.053581763 -0.04878593 -0.03840644
-0.42634723 -0.16388501 -0.49344108 -0.08638839 -0.095461346 -0.16752863 -0.16433139 -0.58304155
-0.12566078 -0.2989566 -0.13823518 -0.053366628 -0.54347235 -0.053814594 -0.230624 -0.5552201
-0.05907813 -0.0066024694 -0.12688312 -0.14621732 -0.12066586 -0.09476863 -0.10831909 -0.2062094
-0.11981094 -0.43217805 -0.065563984 -0.44581828 -0.54249686 -0.13923696 -0.50781095 -0.06697542
-0.16215429 -0.064186215 -0.1238846 -0.04827448 -0.098299794 -0.3628659 -0.1635677 -0.19367108
-0.021928838 -0.042541333 -0.18221278 -0.11110971 -0.053211793 -0.33482143 -0.02152365 -0.20799914
-0.11408803 -0.09883952 -0.52364415 0.014586857 -0.29731402 -0.14834288 -0.079801 -0.15817463

extractor.10.running_mean f4 [64]
00000000: ae30 96bf 3e63 3e3f 8693 013f 7865 d43e
00000010: ccb5 c2bf 0ee5 f5bf ddf6 dcbf 5b50 e0bf
00000020: be5b 02bf 6d31 07c0 2b2d 333f 729e 0dc0
00000030: 1a4f 5f3e e23e e9bf 4198 7dc0 8f4e 6abe
00000040: ed6d 1bc0 c81d a1be cb90 0fc0 3060 2a3f
00000050: 383e a93e 5f62 563f f656 30c0 b7d8 893e
00000060: 257f 00c0 074f 12c0 4b16 20c0 4e52 1bc0
00000070: f9f0 85bf eb4d 05c0 6168 36c0 681e a6be
00000080: ca53 74bf d270 c63e 9dc3 dfbf ac1b 01bf
00000090: ca52 fd3e cae0 66c0 ef34 b8bd 75e5 b8bf
000000a0: d97c d33e 61b6 c2bf 6e4f 19c0 54b4 8dbf
000000b0: 190d 3cc0 d2f8 6fbf ab2b f8be 6733 9bbe
000000c0: b803 9ebe 5569 c4bf cb50 a2bf fdbe 6bbf
000000d0: 0625 49c0 6919 21bf 6ea7 bbbf f50f bbbf
000000e0: 5c31 2ac0 efa9 62bf 90eb debe 5634 3bc0
000000f0: 676f 70be ce68 8bbf 00e2 c63f a9e2 7ac0
-1.1733606 0.7437018 0.5061573 0.41483665 -1.521173 -1.9210527 -1.7262837 -1.7524523
-0.5092124 -2.1123917 0.69990796 -2.2127957 0.21807519 -1.8222315 -3.9624178 -0.2288153
-2.4285843 -0.31468034 -2.2432125 0.6655302 0.33055282 0.8374385 -2.7553077 0.26923153
-2.0077603 -2.2860734 -2.5013607 -2.4268985 -1.0464164 -2.0828807 -2.8501208 -0.32445073
-0.9544035 0.3875795 -1.7481571 -0.5043285 0.49477226 -3.60747 -0.08994471 -1.4445025
0.4130619 -1.5211908 -2.395473 -1.1070657 -2.9382994 -0.93739045 -0.48470816 -0.30312654
-0.30862212 -1.5344645 -1.2680906 -0.920883 -3.1428847 -0.629294 -1.466047 -1.4614245
-2.6592627 -0.8854055 -0.43539095 -2.9250693 -0.23479997 -1.0891359 1.553772 -3.9200842

extractor.10.running_var f4 [64]
00000000: 343e 5d40 068b 4440 31dd db3f d608 f93f
00000010: c992 9540 ec12 7540 9e68 2340 bd53 9f40
00000020: 2166 0140 cc49 d33f bc7d d73f 372a 9640
00000030: 7e08 4c40 1224 3d40 0ede 7b40 2279 d13f
00000040: 8cc2 7340 0ced 0040 2522 1640 887a 2640
00000050: 4762 cf3f 8edd 4140 422c 8840 e649 bc3f
00000060: 58ca 6740 0107 7740 2204 7040 3f18 5b40
00000070: d542 1340 1943 3840 4cda 6e40 049e cd3f
00000080: 632c 5140 2880 d33f f37d 4c40 f086 1640
00000090: 91d0 de3f 3e67 7d40 7afb dd3f 0beb 0840
000000a0: bae1 2e40 c9e4 ad40 41c8 6340 3b61 f340
000000b0: 185b 2640 6dd6 1d40 bf66 4140 0c91 8d3f
000000c0: d6f3 3140 b6e8 3740 0afc 3240 2414 1240
000000d0: 7725 6b40 4027 3140 9276 1240 61de 3140
000000e0: 7d6c a340 0a45 1140 58e3 c43f ea19 1640
000000f0: 875f 1040 63af 5040 add1 5b40 16cb 8f40
3.4569216 3.0709853 1.7176877 1.9455822 4.674168 3.82928 2.5532603 4.978972
2.0218585 1.6506896 1.6835246 4.692653 3.1880183 2.9553266 3.9354281 1.6365092
3.8087492 2.0144682 2.345834 2.6012287 1.6201867 3.0291476 4.2554026 1.4710052
3.621725 3.8598025 3.7502522 3.4233549 2.300954 2.8790953 3.7320738 1.6063848
3.2683342 1.6523485 3.1951873 2.351986 1.74074 3.9594264 1.734237 2.139346
2.7325273 5.434178 3.5590975 7.605619 2.59931 2.4662125 3.0218961 1.105989
2.7805076 2.8735785 2.7966332 2.2824793 3.6741617 2.7680206 2.288487 2.779198
5.106993 2.2698388 1.538188 2.3453317 2.2558305 3.2607048 3.4346726 4.493541
