gpl/results/il/ep_080.ckpt (torch, 773626 bytes, 43 tensors)

extractor.0.weight f4 [24, 3, 5, 5]
0.12894829 0.01737255 0.045225468 0.12619093 -0.03653622 0.045525167 -0.045095354 0.037426826
0.012102662 -0.0244506 0.030855205 0.0030883807 0.04129979 -0.04246309 -0.013228389 0.01687514
0.04604099 0.034387138 0.12721437 0.06574166 -0.10773376 -0.12920533 -0.07751364 -0.11601682
-0.10447721 0.010738669 0.07467839 0.0680281 -0.10145034 0.09030499 -0.059161082 0.025877245
0.0017979955 -0.16046967 -0.16373964 -0.13183653 0.025007216 -0.07989597 -0.00892321 -0.10930434
0.08758282 -0.08012791 0.07634814 -0.021753768 -0.06935897 -0.037597828 -0.15944374 -0.051407583
-0.13373098 -0.106378525 -0.08581496 -0.02918476 0.08929341 0.0021052144 0.14623867 0.027436135
-0.06375321 -0.13001469 0.031680238 -0.0035496633 -0.122865826 0.0273947 0.029245067 0.06291412
-0.10085747 -0.019419549 -0.0058424748 0.026559653 -0.08852399 -0.066496074 0.0036789547 -0.085570075
0.0029228614 -0.058463033 -0.022138586 -0.04644061 -0.038191635 -0.003964028 -0.16805096 0.020930892
-0.19322686 -0.20291561 -0.07530908 -0.09130269 0.026738854 -0.15120457 -0.18824613 0.028619843
-0.055440243 0.066693746 -0.05933772 -0.17672312 -0.046162825 -0.03013265 -0.096828066 -0.11326966
-0.0113000125 -0.037482366 -0.107332185 -0.06388833 0.12271781 -0.014455655 0.08494773 0.068451144
-0.04144778 -0.093456484 0.1067013 0.013171895 0.10191597 0.051732443 0.046510875 0.09177035
0.1260971 -0.033720464 0.06592898 0.09740677 0.10085492 0.08730005 -0.06398043 -0.049396977
-0.111678265 -0.021730443 0.08814365 -0.10117148 0.057073474 -0.10763581 -0.1618428 -0.05185713
0.039436776 0.094992444 -0.12620609 -0.037730508 0.06944842 0.06290335 0.071890965 0.058235943
0.045983814 0.030515986 -0.05423814 -0.048120577 -0.05774306 -0.014335748 -0.061968163 0.05355983
0.07322215 -0.02591715 0.047131374 0.050789993 0.080348946 0.11404596 -0.08867549 0.05999539
-0.06532082 -0.067162886 -0.17424184 -0.1283052 -0.1277691 -0.10858656 0.020981347 -0.094862364
-0.07223872 0.057386246 0.051190652 0.09054927 -0.044505898 0.07701446 0.01630178 0.03488483
-0.03013193 0.012438431 0.031397693 0.11070097 0.08816717 0.106827 0.20070545 0.09329555
0.055238243 -0.019719103 -0.117011726 0.045682352 -0.074102685 -0.066533715 -0.16209331 -0.08963945
-0.1441617 0.109678134 -0.09771475 -0.09488375 -0.006935574 -0.07034784 0.040924676 -0.038227055
-0.049060382 0.013604926 0.08748265 -0.06808485 0.060510967 0.08172503 0.13339214 -0.059911735
0.005519084 -0.112636596 0.070954666 -0.082651936 0.029228548 -0.04996043 -0.071174055 -0.068529025
-0.04803506 -0.005675073 0.0066201263 0.021823082 -0.11530045 0.07461751 0.095749274 0.08484737
0.07999352 -0.07987601 -0.036735643 0.11444312 -0.09948528 0.08937234 -0.097501196 -0.07685894
0.0716918 -0.040182464 0.022288438 0.14538732 0.16526613 0.18928961 -0.06712091 -0.13840489
0.08550519 -0.050012782 -0.04794101 -0.06911663 -0.18187536 -0.00069454435 0.0033025823 -0.14532374
-0.14354713 -0.061052766 0.020630056 -0.037251215 -0.07938266 -0.0443079 -0.15377049 -0.114839874
-0.12840062 0.047041763 0.09969722 -0.033920124 0.016659291 0.080548845 0.058850236 -0.12817124
00000000: 050b 043e e150 8e3c 573e 393d 3238 013e
00000010: 01a7 15bd 9978 3a3d e8b5 38bd df4c 193d
00000020: 3e4a 463c a04c c8bc 0ec4 fc3c 6e66 4a3b
00000030: f829 293d c7ed 2dbd e3bb 58bc bc3d 8a3c
00000040: 7a95 3c3d 87d9 0c3d 7c44 023e 90a3 863d
00000050: 84a3 dcbd 674e 04be 79bf 9ebd 3a9a edbd
00000060: 26f8 d5bd 3ef1 2f3c fcf0 983d 5152 8b3d
00000070: 32c5 cfbd d3f1 b83d e452 72bd 84fc d33c
00000080: b8aa eb3a 2952 24be 5dab 27be 2800 07be
00000090: efdb cc3c 80a0 a3bd a832 12bc f4da dfbd
000000a0: 9f5e b33d 1a1a a4bd 6a5c 9c3d f534 b2bc
000000b0: 130c 8ebd 2e00 1abd 3845 23be c290 52bd
000000c0: c6f0 08be fcdc d9bd c1bf afbd e114 efbc
000000d0: 77df b63d a3f7 093b 97bf 153e bfc1 e03c
000000e0: 0b91 82bd 9222 05be 23c3 013d 78a1 68bb
000000f0: 14a1 fbbd da6a e03c 5a93 ef3c 1ed9 803d
00000100: 5c8e cebd bf15 9fbc 3b72 bfbb a193 d93c
00000110: 114c b5bd 182f 88bd 9e1a 713b 5d3f afbd
00000120: 7a8d 3f3b ef76 6fbd fb5b b5bc 8238 3ebd
00000130: d56e 1cbd ade4 81bb 8d15 2cbe 4377 ab3c
00000140: 43dd 45be 1cc9 4fbe a63b 9abd e8fc babd
00000150: 710b db3c 5fd5 1abe 98c3 40be 2974 ea3c
00000160: 4f15 63bd bb96 883d 1c0c 73bd e8f6 34be
00000170: 3b15 3dbd bfd8 f6bc cb4d c6bd ecf9 e7bd
00000180: b023 39bc 1c87 19bd fad0 dbbd e2d7 82bd
00000190: 7a53 fb3d 69d7 6cbc 13f9 ad3d 1d30 8c3d
000001a0: 26c5 29bd 1d66 bfbd 3686 da3d efce 573c
000001b0: 52b9 d03d 66e5 533d 3082 3e3d 18f2 bb3d
000001c0: 991f 013e 781e 0abd c605 873d 337d c73d
000001d0: 068d ce3d 5eca b23d 2c08 83bd 7c54 4abd
000001e0: 93b7 e4bd 0b04 b2bc a884 b43d fe32 cfbd
000001f0: e0c5 693d 2a70 dcbd 1eba 25be 2468 54bd
00000200: 7588 213d 668b c23d 2b3c 01be 4e8b 1abd
00000210: f93a 8e3d 79d3 803d 923b 933d d088 6e3d
00000220: 8659 3c3d a9fc f93c d028 5ebd 151a 45bd
00000230: fd83 6cbd 7ce0 6abc 54d2 7dbd 8d61 5b3d
00000240: 7ff5 953d 3450 d4bc d40c 413d 2b09 503d
00000250: fd8d a43d ee90 e93d 7f9b b5bd babd 753d
00000260: ecc6 85bd b28c 89bd 746c 32be 7062 03be
00000270: e7d5 02be a162 debd 13e1 ab3c 3347 c2bd
00000280: e5f1 93bd d70d 6b3d 4aad 513d e571 b93d
00000290: d14b 36bd c2b9 9d3d 4f8b 853c 65e3 0e3d
000002a0: 3dd7 f6bc 90ca 4b3c de9a 003d 31b7 e23d
000002b0: fd90 b43d 1dc8 da3d bb85 4d3e bd11 bf3d
000002c0: 7f41 623d f589 a1bc d8a3 efbd 6b1d 3b3d
000002d0: 26c3 97bd d442 88bd cafb 25be e394 b7bd
000002e0: 209f 13be ee9e e03d ac1e c8bd 6952 c2bd
000002f0: d043 e3bb 8712 90bd a2a0 273d f993 1cbd
00000300: 8af3 48bd 32e7 5e3c 1b2a b33d 1270 8bbd
00000310: 59da 773d 745f a73d f397 083e 0266 75bd
00000320: 6fd9 b43b 04ae e6bd ae50 913d 6b45 a9bd
00000330: b570 ef3c 4fa3 4cbd b4c3 91bd f258 8cbd
00000340: 69c0 44bd f6f5 b9bb a5ed d83b 52c6 b23c
00000350: a422 ecbd 11d1 983d 3218 c43d 75c4 ad3d
00000360: a5d3 a33d 0996 a3bd 1d78 16bd 2861 ea3d
00000370: f0be cbbd d808 b73d b5ae c7bd 3868 9dbd
00000380: 27d3 923d 5e96 24bd 3e96 b63c 6ae0 143e
00000390: 863b 293e 23d5 413e b076 89bd 03ba 0dbe
000003a0: 581d af3d 34da 4cbd cb5d 44bd 058d 8dbd
000003b0: 893d 3abe 1512 36ba 2370 583b bfcf 14be
000003c0: 05fe 12be 7712 7abd 5d00 a93c bb94 18bd
000003d0: 6093 a2bd 337c 35bd 0376 1dbe 2b31 ebbd
000003e0: 747b 03be ddae 403d 0e2e cc3d d4ef 0abd
000003f0: 1179 883c cbf6 a43d f20c 713d 523f 03be

extractor.0.bias f4 [24]
0.081776895 0.037393015 -0.0666881 0.078038715 -0.080522165 0.056313027 -0.023572568 0.034301423
-0.0123009365 0.02163543 -0.032909546 0.047924098 0.053517908 -0.102719545 0.10234796 -0.09382892
-0.05242678 0.046726543 0.103924155 0.03922777 -0.064270906 0.01949653 -0.06699593 0.052714672
00000000: a57a a73d 6b29 193d c593 88bd c3d2 9f3d
00000010: cee8 a4bd 7da8 663d 421b c1bc a67f 0c3d
00000020: de89 49bc c93c b13c 29cc 06bd 0f4c 443d
00000030: 9835 5b3d a05e d2bd cf9b d13d 6029 c0bd
00000040: 77bd 56bd 5564 3f3d 30d6 d43d 4cad 203d
00000050: 77a0 83bd 30b7 9f3c 2a35 89bd 57eb 573d

extractor.1.weight f4 [24]
0.9879169 0.87811774 0.9063477 0.8741946 1.0647022 1.0577918 0.9353995 0.99325633
0.99097186 0.9628664 0.98316634 0.87430507 0.91510403 0.9681872 0.90975815 1.0703254
1.0720443 1.0249978 0.8991536 0.9162829 0.8999461 1.2318538 0.74786866 0.88904846
00000000: 1fe8 7c3f 53cc 603f 6706 683f 38cb 5f3f
00000010: 2948 883f b965 873f 5776 6f3f 0c46 7e3f
00000020: 55b0 7d3f 6a7e 763f cab0 7b3f 75d2 5f3f
00000030: 4244 6a3f 1edb 773f e9e5 683f 6c00 893f
00000040: bf38 893f 2133 833f ee2e 663f 8491 6a3f
00000050: de62 663f 63ad 9d3f 5274 3f3f ae98 633f

extractor.1.bias f4 [24]
-0.075614035 -0.20267823 -0.18566824 -0.19976678 -0.0186575 -0.023554005 -0.12536328 -0.0691906
0.07927508 -0.00551508 0.029302636 -0.24974072 -0.22135982 -0.041357696 -0.15194258 -0.15993817
0.06232081 -0.016280128 -0.15470955 -0.11412798 -0.064325266 0.13595909 -0.22546425 -0.1532958
00000000: 88db 9abd e28a 4fbe d11f 3ebe aa8f 4cbe
00000010: 9dd7 98bc 54f4 c0bc 3b5f 00be cdb3 8dbd
00000020: f95a a23d d8b7 b4bb 150c f03c 08bc 7fbe
00000030: 26ac 62be b066 29bd d696 1bbe d5c6 23be
00000040: 1b44 7f3d e75d 85bc 2e6c 1ebe eebb e9bd
00000050: f7bc 83bd dc38 0b3e 1ae0 66be 93f9 1cbe

extractor.1.running_mean f4 [24]
-0.35228664 -0.2102355 -0.26453555 -0.10449025 -0.29724434 -0.21796146 0.2626123 -0.17769322
0.24871059 0.13270284 -0.007179708 -0.01815302 -0.6332232 0.024447784 0.16866504 -0.44726428
0.054827295 0.07734455 -0.3452058 0.16386083 -0.49344456 0.08935352 -0.36971694 -0.15561485
00000000: ea5e b4be fa47 57be 3471 87be fcfe d5bd
00000010: 6930 98be 4a31 5fbe 1f75 863e 36f5 35be
00000020: fdad 7e3e 41e3 073e c243 ebbb a4b5 94bc
00000030: ea1a 22bf b846 c83c 87b6 2c3e d3ff e4be
00000040: 9692 603d d266 9e3d d1be b0be 22cb 273e
00000050: c4a4 fcbe fafe b63d 8a4b bdbe 8059 1fbe

extractor.1.running_var f4 [24]
0.10656711 0.08218145 0.059407525 0.033563092 0.08670274 0.043134775 0.06077401 0.08476581
0.10178125 0.015161699 0.03093709 0.023388218 0.24010672 0.049884837 0.017000481 0.07684842
0.037401617 0.012917002 0.13538066 0.036002617 0.112640016 0.04334233 0.068450585 0.047751084
00000000: db3f da3d c04e a83d 4e55 733d 7479 093d
00000010: 3591 b13d 17ae 303d 2bee 783d b299 ad3d
00000020: b072 d03d c668 783c c86f fd3c a698 bf3c
00000030: 89de 753e 0b54 4c3d 9844 8b3c b462 9d3d
00000040: 7032 193d d5a1 533c 3aa1 0a3e 7b77 133d
00000050: cfaf e63d ba87 313d d22f 8c3d a496 433d

extractor.3.weight f4 [36, 24, 5, 5]
-0.007228284 -0.013275406 -0.024215933 0.029290417 0.080834895 -0.055534113 -0.0014210192 -0.02211507
0.00836098 0.07922129 -0.054462317 -0.006519066 0.029637864 0.023928022 -0.003824833 0.0068127853
0.030871933 -0.00976154 0.027233036 0.014414935 0.0044009974 0.06453407 -0.008587131 0.0009752334
-0.0060215406 0.03135217 0.0612703 0.008454594 0.08059813 0.021539114 -0.08164711 0.004982311
0.001625584 -0.029678669 0.005745874 -0.026613522 -0.012283963 0.01041828 -0.055530686 -0.085891224
0.0015670003 0.014665285 0.0048432862 -0.010641466 0.06939199 -0.022031473 -0.015266918 -0.022661936
0.007820957 0.052085575 -0.07402662 -0.0033338459 0.03715635 0.023344303 0.04439765 0.065681964
0.11607376 0.12690923 0.047155205 0.0744256 0.047543388 0.06291 -0.010986799 -0.021401662
-0.065281235 -0.11859726 -0.11776479 -0.11754383 -0.104756564 -0.019838253 0.005776577 0.01668701
-0.009496854 -0.006660169 -0.0065693078 0.04025002 -0.0044568926 0.010444451 0.050697956 0.056318086
-0.080961816 -0.019738654 -0.022227203 0.064988516 0.012175947 -0.0049536256 -0.05260507 -0.020738443
-0.009674111 -0.0058271796 -0.047646433 0.01870133 -0.031226914 -0.02811841 0.0476544 -0.017076388
-0.021019831 -0.06002006 0.024430647 -0.015000459 -0.030335354 0.0342229 -0.001722735 0.09252521
0.0363144 -0.12836574 -0.12499364 -0.05031808 -0.016868152 0.062135745 -0.038349107 0.0214377
0.016605705 0.010668967 0.0058517577 -0.12736513 -0.0786056 -0.007652168 -0.0040601897 0.052163802
-0.0069250516 0.028459735 0.024823321 0.012640095 0.04290776 -0.07862809 -0.04077922 0.009524761
-0.016478019 0.032695968 -0.015659967 0.077042416 0.08706381 0.13615389 0.14558595 -0.03580527
-0.031778533 0.025647404 -0.028318878 -0.004255888 -0.08642246 -0.053780846 -0.03248667 -0.0054621827
0.013021568 -0.07876217 -0.09889535 -0.074394755 -0.04697668 -0.009649002 -0.022589142 0.009227552
0.009311239 0.06721725 0.033234656 -0.11039221 -0.0939177 -0.009836638 0.011961581 -0.01697489
-0.07775572 -0.053338874 0.019312954 0.022227898 0.039450016 0.033430688 0.033175763 0.067507885
0.09790662 0.04340908 -0.088093646 0.008267788 -0.029190708 0.024436694 -0.014332171 -0.009409848
0.020175178 0.050177775 0.046435047 0.08765049 0.09756859 0.11004636 0.051719073 -0.0019979766
-0.015505442 0.04002658 0.036337465 -0.10887174 -0.09823866 -0.14629392 -0.03991598 -0.060363103
-0.040882736 -0.062019054 -0.022966623 -0.025553744 0.04141244 0.032159973 0.0022765987 0.08846727
-0.015317653 -0.051330484 -0.060721815 -0.06988117 -0.059459385 -0.026143221 -0.024044765 -0.0036166245
-0.049696818 -0.09303109 0.010879715 0.027502969 -0.00891339 0.023689058 0.004952243 -0.0973119
-0.08164886 -0.060141303 -0.07917192 -0.06615068 -0.07109772 -0.15020312 -0.17285222 -0.15620714
-0.08394185 0.066817 0.04556564 0.049998857 -9.075204e-05 0.022815231 0.031937502 -0.049999185
-0.025040634 -0.00092282775 0.009511559 -0.09115372 -0.17052154 -0.14551152 -0.14184976 -0.017492969
-0.008382016 0.018914508 0.08134424 0.06716459 -0.026665365 0.03246346 0.055122692 0.043591082
-0.024653478 0.032601345 -0.080609195 0.031934842 0.05701318 0.054052792 0.033733785 0.025432682
00000000: 3edb ecbb 1781 59bc 7e60 c6bc 75f2 ef3c
00000010: c48c a53d bd77 63bd 7e41 baba aa2a b5bc
00000020: 7efc 083c c63e a23d e113 5fbd e49d d5bb
00000030: 1bcb f23c b304 c43c 0daa 7abb c93d df3b
00000040: 23e7 fc3c deee 1fbc d117 df3c 9f2c 6c3c
00000050: 3e36 903b 702a 843d 0ab1 0cbc cea6 7f3a
00000060: 5850 c5bb 226b 003d 91f6 7a3d 2385 0a3c
00000070: a210 a53d cc72 b03c 9a36 a7bd a742 a33b
00000080: 8c11 d53a ae20 f3bc e247 bc3b 9a04 dabc
00000090: ad42 49bc 6fb1 2a3c 2574 63bd bde7 afbd
000000a0: ce63 cd3a aa46 703c 6eb4 9e3b 8b59 2ebc
000000b0: 631d 8e3d 597b b4bc 1822 7abc 86a5 b9bc
000000c0: 7923 003c af57 553d 459b 97bd a77c 5abb
000000d0: 4231 183d 8d3c bf3c 4fda 353d 4484 863d
000000e0: 14b8 ed3d 7ef4 013e d125 413d 736c 983d
000000f0: dbbc 423d f5d6 803d fa01 34bc 8a52 afbc
00000100: 2bb2 85bd 1fe3 f2bd ab2e f1bd d2ba f0bd
00000110: 9c8a d6bd d583 a2bc 7149 bd3b 32b3 883c
00000120: b198 1bbc 8c3d dabb 5943 d7bb 34dd 243d
00000130: 200b 92bb 341f 2b3c a9a8 4f3d cbad 663d
00000140: 4fcf a5bd f5b2 a1bc d315 b6bc b318 853d
00000150: a07d 473c 0652 a2bb 6a78 57bd abe3 a9bc
00000160: 2a80 1ebc edf1 bebb e828 43bd 8833 993c
00000170: 96cf ffbc 9458 e6bc 4331 433d c8e3 8bbc
00000180: c831 acbc 98d7 75bd c822 c83c 7cc4 75bc
00000190: d981 f8bc 502d 0c3d 65cd e1ba db7d bd3d
000001a0: 69be 143d 4f72 03be aafc ffbd 551a 4ebd
000001b0: 142f 8abc 0d82 7e3d f413 1dbd 1e9e af3c
000001c0: b008 883c e4cc 2e3c 1ac0 bf3b 016c 02be
000001d0: f9fb a0bd 0abf fabb 570b 85bb b6a9 553d
000001e0: 8beb e2bb 6424 e93c 475a cb3c 6718 4f3c
000001f0: 0cc0 2f3d c407 a1bd 1d08 27bd be0d 1c3c
00000200: e9fc 86bc 35ec 053d 5549 80bc 6ac8 9d3d
00000210: 834e b23d ed6b 0b3e 7c14 153e 8ca8 12bd
00000220: 352a 02bd 811a d23c fefc e7bc fa74 8bbb
00000230: 42fe b0bd 4e49 5cbd be10 05bd 1cfc b2bb
00000240: 6a58 553c 104e a1bd a589 cabd 475c 98bd
00000250: 9f6a 40bd d916 1ebc dd0c b9bc 292f 173c
00000260: 2b8e 183c 33a9 893d 1021 083d 5015 e2bd
00000270: ec57 c0bd da29 21bc 82fa 433c ed0e 8bbc
00000280: 643e 9fbd dd79 5abd 3336 9e3c 4817 b63c
00000290: 5796 213d 9eee 083d 4fe3 073d 9341 8a3d
000002a0: 4483 c83d b8cd 313d 716a b4bd 9e75 073c
000002b0: 5a21 efbc 762f c83c 7bd1 6abc c32b 1abc
000002c0: 6a46 a53c 3687 4d3d ad32 3e3d 1a82 b33d
000002d0: 0ad2 c73d fc5f e13d 61d7 533d 7cf0 02bb
000002e0: 8a0a 7ebc e9f2 233d 98d6 143d 26f8 debd
000002f0: 5a31 c9bd 13ce 15be f07e 23bd 4d3f 77bd
00000300: a874 27bd b107 7ebd 8024 bcbc 1656 d1bc
00000310: 17a0 293d 2dba 033d fd32 153b 542e b53d
00000320: e5f6 7abc ea3f 52bd 70b7 78bd dc1d 8fbd
00000330: af8b 73bd 4f2a d6bc 87f9 c4bc e404 6dbb
00000340: e48e 4bbd 1687 bebd d540 323c e84d e13c
00000350: 7809 12bc 8e0f c23c 6d46 a23b 764b c7bd
00000360: 8437 a7bd ba56 76bd e324 a2bd 027a 87bd
00000370: ae9b 91bd d9ce 19be 2c00 31be c4f4 1fbe
00000380: b4e9 abbd 5ad7 883d 09a3 3a3d 9acb 4c3d
00000390: 2152 beb8 02e7 ba3c e6d0 023d f2cb 4cbd
000003a0: 0422 cdbc ece9 71ba 5fd6 1b3c cdae babd
000003b0: 339d 2ebe f900 15be 1041 11be 6a4d 8fbc
000003c0: b954 09bc 99f2 9a3c cf97 a63d 978d 893d
000003d0: 5371 dabc 68f8 043d 55c8 613d 908c 323d
000003e0: 17f6 c9bc fd88 053d 6f16 a5bd 1cce 023d
000003f0: a786 693d 7666 5d3d 702c 0a3d 3358 d03c

extractor.3.bias f4 [36]
-0.01623072 -0.03486947 0.02333405 -0.022152325 -0.026355142 -0.028957935 -0.005145533 0.015255484
0.008562293 -0.019549672 -0.019493889 0.002620657 -0.0047259466 -0.02595748 -0.032594368 -0.0034996923
-0.012146564 -0.03447815 0.02465498 0.030786278 0.02535043 0.02428156 -0.033113174 0.009448054
0.037448194 -0.03636232 -0.030750398 0.019991407 0.019092524 -0.023985168 0.040711306 0.038621906
-0.02752987 -0.0054512187 -0.022168506 0.008597876
00000000: 49f6 84bc 4ad3 0ebd 0d27 bf3c cb78 b5bc
00000010: bde6 d7bc 3139 edbc dc9b a8bb 23f2 793c
00000020: dc48 0c3c a226 a0bc a6b1 9fbc 54bf 2b3b
00000030: 1ddc 9abb c8a4 d4bc ac81 05bd 185b 65bb
00000040: 6202 47bc f638 0dbd 3ef9 c93c 8133 fc3c
00000050: b4ab cf3c 1fea c63c aea1 07bd 03cc 1a3c
00000060: 4763 193d a8f0 14bd 42e8 fbbc 05c5 a33c
00000070: ed67 9c3c 8b7c c4bc e6c0 263d 0132 1e3d
00000080: 5286 e1bc 23a0 b2bb ba9a b5bc 1bde 0c3c

extractor.4.weight f4 [36]
0.97392255 1.0232854 0.8138053 0.9878148 0.93430537 1.0187154 0.9568146 0.840572
0.99116933 0.9351738 0.99228024 0.83865184 0.96061367 0.9189981 0.84497166 0.9809585
0.95183915 1.0157676 1.2606831 0.9778652 0.92137325 0.91084474 1.074074 0.9377433
1.0302129 0.96216816 0.98978823 0.92664164 0.9960767 0.83595073 0.92100215 0.96516764
1.0373452 0.94353384 0.9637772 0.94478494
00000000: fd52 793f 04fb 823f 8b55 503f 6ee1 7c3f
00000010: a32e 6f3f 4465 823f cdf1 743f ba2f 573f
00000020: 46bd 7d3f 8d67 6f3f 1406 7e3f e3b1 563f
00000030: c7ea 753f 7643 6b3f 1050 583f 1920 7b3f
00000040: bbab 733f ac04 823f 105e a13f 6055 7a3f
00000050: 1edf 6b3f 1f2d 693f 427b 893f f20f 703f
00000060: 04de 833f a750 763f c362 7d3f 6338 6d3f
00000070: e2fe 7e3f de00 563f ccc6 6b3f 3a15 773f
00000080: bac7 843f 6f8b 713f 1aba 763f 6ddd 713f

extractor.4.bias f4 [36]
-0.12783422 -0.051494706 -0.2148075 -0.16025986 -0.18345329 0.056477632 -0.1386619 -0.15612818
-0.15235862 -0.07682714 -0.08783113 -0.13959065 -0.27825415 -0.08372236 -0.1963003 -0.09576463
-0.20079117 -0.03330732 -0.15527946 -0.17947224 -0.13408509 -0.13346495 -0.16216616 -0.13706292
-0.011454045 -0.10350362 -0.1935719 -0.12039486 -0.045624945 -0.30916598 -0.09249275 -0.07391186
-0.17498355 -0.093528934 -0.21428248 -0.101471335
00000000: f9e6 02be 1dec 52bd 7ff6 5bbe 291b 24be
00000010: 2edb 3bbe 1755 673d 63fd 0dbe 11e0 1fbe
00000020: e603 1cbe 8c57 9dbd cfe0 b3bd daf0 0ebe
00000030: 5477 8ebe a176 abbd f202 49be 3f20 c4bd
00000040: 339c 4dbe 426d 08bd 9401 1fbe 92c7 37be
00000050: 9a4d 09be 09ab 08be e30e 26be 395a 0cbe
00000060: bfa9 3bbc b5f9 d3bd b637 46be 9591 f6bd
00000070: 39e1 3abd 014b 9ebe d76c bdbd 1a5f 97bd
00000080: e32e 33be 198c bfbd de6c 5bbe 34d0 cfbd

extractor.4.running_mean f4 [36]
-1.4449828 -1.2016606 -2.13642 -2.7627738 -1.0562752 -1.297347 0.02988006 -1.7881197
3.7174907 -3.9951293 -0.060398288 0.9788817 -0.5022291 -2.1092358 -1.7365439 -0.85220706
-1.4116393 -2.3112078 0.25198245 1.8320236 -0.90568286 -1.4229629 0.045277327 2.629725
0.7783071 -0.90656126 1.2350143 -5.8129706 -2.2318337 -1.2488964 -3.5464447 -3.2162888
-1.580229 -3.1730187 -0.62244 -0.7542883
00000000: 32f5 b8bf 04d0 99bf 1bbb 08c0 49d1 30c0
00000010: 0734 87bf 770f a6bf 07c7 f43c 1be1 e4bf
00000020: 5eeb 6d40 33b0 7fc0 3264 77bd fe97 7a3f
00000030: 1692 00bf b8fd 06c0 1247 debf 3e2a 5abf
00000040: 99b0 b4bf d4ea 13c0 d803 813e c07f ea3f
00000050: d5da 67bf a623 b6bf b874 393d 6a4d 2840
00000060: 223f 473f 6614 68bf f314 9e3f db03 bac0
00000070: 5dd6 0ec0 d6db 9fbf f3f8 62c0 add7 4dc0
00000080: f244 cabf bd12 4bc0 3a58 1fbf 0a19 41bf

extractor.4.running_var f4 [36]
4.89849 4.8508544 15.73554 2.6935637 5.3414216 4.494269 2.503923 4.2761507
26.462656 17.902008 3.263378 3.772433 14.521253 3.270928 3.3677683 10.073372
2.304806 3.6313508 2.2229283 5.2425537 3.9574254 5.696524 1.5971892 23.471653
6.8896227 3.2666414 2.5852208 6.886394 7.2291517 8.206072 8.923858 5.1572804
2.246239 6.185172 4.449598 8.112437
00000000: 6ec0 9c40 333a 9b40 c6c4 7b41 5963 2c40
00000010: edec aa40 0dd1 8f40 4640 2040 3ad6 8840
00000020: 85b3 d341 5037 8f41 2fdb 5040 8b6f 7140
00000030: 0d57 6841 e256 5140 8489 5740 882c 2141
00000040: f181 1340 0d68 6840 7544 0e40 00c3 a740
00000050: 7546 7d40 ed49 b640 b270 cc3f f2c5 bb41
00000060: ca77 dc40 a710 5140 4274 2540 575d dc40
00000070: 3655 e740 124c 0341 1fc8 0e41 7108 a540
00000080: 61c2 0f40 eeec c540 1b63 8e40 8bcc 0141

extractor.6.weight f4 [48, 36, 3, 3]
-0.052295946 -0.0052943155 -0.04941745 -0.013566338 -0.056663882 -0.023801921 0.006323904 -0.0071199215
0.031448532 0.04053127 0.008659233 -0.09590291 0.093980126 0.020656038 0.05025404 -0.029772175
-0.060775723 0.021771954 -0.018477658 0.049436428 -0.047329467 -0.07972286 0.06077335 -0.038811382
0.059158683 0.0025160436 -0.00932082 0.035722435 0.07731012 0.03057134 0.01427547 0.040684875
0.044083085 -0.04696808 -0.041825093 0.036455154 0.012272549 0.033587962 -0.05336181 0.0022544973
0.06104584 0.015819274 -0.058452763 -0.038905196 -0.06984906 -0.03665009 -0.0127529465 -0.09476361
-0.003033778 0.003410543 0.027826594 0.008158488 0.06419369 0.07656987 0.026551161 0.050124753
-0.08396424 -0.06646089 -0.006788626 -0.06670584 0.037927594 0.029631332 0.03514125 -0.047194283
-0.030526005 0.021105904 0.0074621043 -0.025401238 -0.056079242 -0.007453704 -0.020182014 -0.024449263
0.08883194 -0.00023255438 0.06933517 0.011154609 0.060527682 0.06903206 0.024304008 0.04474811
0.032066688 -0.017402273 0.041711975 0.024866072 -0.020057576 -0.017144304 0.052168854 0.057716597
0.06759149 0.032997325 0.082282305 0.082084574 0.084044755 0.056683954 0.0089276275 -0.044630982
0.01790111 0.08197644 0.024204712 -0.04036826 0.021933906 -0.031708945 0.046047088 0.030180268
-0.038579617 0.013449181 0.046483766 0.035027273 0.017316742 0.042539287 -0.032263838 -0.029229226
-0.08842604 -0.07431306 0.12051478 0.078240596 0.033997957 0.042649493 -0.022246087 0.027803054
0.041575145 0.09772937 0.06359334 -0.010324536 0.022334035 0.053450778 0.013447136 0.02508436
0.02696543 0.10476714 0.01027889 0.0738779 -0.021937089 -0.008459669 0.069453366 -0.05388254
-0.08239071 -0.095516905 0.043509185 0.061757583 0.014611496 0.047777522 -0.07151429 -0.104804695
0.017754935 -0.06357743 -0.01531186 -0.078325495 -0.08545598 -0.108710416 0.023189886 -0.06831035
-0.03246114 -0.09400181 0.026667507 -0.039194733 0.028079595 0.056836948 0.055811204 0.08117653
0.04832306 -0.02164839 0.08173067 -0.014610301 -0.009764595 -0.14011914 -0.15699075 -0.13417107
0.22876416 -0.041484706 0.088110335 0.02212545 -0.042893685 -0.028906671 -0.07631568 -0.09450755
-0.07997192 0.054410648 0.026961038 0.062473636 -0.09199905 -0.083034605 -0.029012913 0.0062546283
0.05055279 0.03769435 0.031733822 -0.008768172 0.03953664 -0.034589473 0.0064844405 0.025714815
-0.01834724 0.008682025 0.088045634 -0.080454886 -0.024236424 -0.035543405 0.07676155 -0.034741834
0.014675037 -0.060542934 -0.0640549 -0.027080134 0.17855595 0.042324033 0.11128399 0.04412333
0.024413157 0.07155105 0.0032996247 0.07568181 0.078027315 0.027696352 0.00850601 0.08163893
-0.012789047 -0.033171996 -0.11077701 0.007239715 -0.0055198404 -0.0041729165 0.0760936 0.019889407
0.075734615 -0.0496629 0.042168166 -0.04054469 0.03582016 -0.034134082 0.058573462 -0.021883648
-0.07977317 -0.073250525 -0.10898645 -0.08936301 -0.09863154 0.10983229 0.11362195 0.100091904
-0.046801735 -0.05268598 -0.097281195 0.008239751 0.016135577 0.030261457 0.03256735 -0.004971859
0.089038074 -0.025410114 0.044695944 -0.029651163 -0.08528984 -0.022353321 -0.012437696 0.017792951
00000000: 4634 56bd f07b adbb f469 4abd 5945 5ebc
00000010: 6318 68bd 3ffc c2bc c038 cf3b 3b4e e9bb
00000020: 2dd0 003d 1e04 263d 75df 0d3c bf68 c4bd
00000030: a778 c03d da36 a93c 2ed7 4d3d c7e4 f3bc
00000040: f7ef 78bd 195b b23c 755e 97bc da7d 4a3d
00000050: 8bdc 41bd bd45 a3bd 7aed 783d aff8 1ebd
00000060: 6050 723d 35e4 243b 5ab6 18bc b051 123d
00000070: c554 9e3d bf70 fa3c a9e3 693c 2fa5 263d
00000080: 7790 343d 9a61 40bd ca50 2bbd 0052 153d
00000090: cd12 493c 8893 093d ea91 5abd 30c0 133b
000000a0: 340b 7a3d 6c97 813c 2a6c 6fbd 0e5b 1fbd
000000b0: 060d 8fbd 681e 16bd bcf1 50bc 6c13 c2bd
000000c0: 59d2 46bb 6b83 5f3b 99f4 e33c 2eab 053c
000000d0: fb77 833d aad0 9c3d d281 d93c 9d4f 4d3d
000000e0: 72f5 abbd a61c 88bd 1f73 debb 129d 88bd
000000f0: f759 1b3d 68bd f23c 45f0 0f3d cb4e 41bd
00000100: ac11 fabc 4ae6 ac3c ab84 f43b 4216 d0bc
00000110: 59b3 65bd 333e f4bb c054 a5bc d249 c8bc
00000120: 85ed b53d d7d9 73b9 99ff 8d3d d2c1 363c
00000130: e0eb 773d ae60 8d3d 3319 c73c cb49 373d
00000140: 5c58 033d 368f 8ebc 2dda 2a3d efb3 cb3c
00000150: c94f a4bc 3672 8cbc 02af 553d 3d68 6c3d
00000160: 686d 8a3d 3428 073d a083 a83d f51b a83d
00000170: a81f ac3d 6f2d 683d 2f45 123c face 36bd
00000180: 59a5 923c 44e3 a73d f648 c63c 3059 25bd
00000190: bcae b33c 3de1 01bd df9b 3c3d 9c3c f73c
000001a0: a905 1ebd f459 5c3c c365 3e3d c278 0f3d
000001b0: d7db 8d3c ad3d 2e3d 1627 04bd 2172 efbc
000001c0: b618 b5bd 7231 98bd 74d0 f63d 9b3c a03d
000001d0: 7141 0b3d 3cb1 2e3d 6d3d b6bc 3bc3 e33c
000001e0: b34a 2a3d 5626 c83d 3a3d 823d 3e28 29bc
000001f0: def5 b63c 34ef 5a3d 6051 5c3c b77d cd3c
00000200: 9be6 dc3c 2790 d63d ca68 283c 4c4d 973d
00000210: 69b5 b3bc 6c9a 0abc 913d 8e3d f0b3 5cbd
00000220: 76bc a8bd 5e9e c3bd b036 323d 85f5 7c3d
00000230: 0e65 6f3c 5db2 433d 1676 92bd d8a3 d6bd
00000240: cc72 913c e234 82bd 98de 7abc 1e69 a0bd
00000250: 8b03 afbd 91a3 debd b7f8 bd3c 4ce6 8bbd
00000260: f9f5 04bd 0584 c0bd d175 da3c a88a 20bd
00000270: 2e07 e63c dccd 683d 4a9a 643d e13f a63d
00000280: 67ee 453d f757 b1bc 6962 a73d 0b60 6fbc
00000290: aefb 1fbc 647b 0fbe 2fc2 20be 2464 09be
000002a0: 2741 6a3e deeb 29bd 3173 b43d 6f40 b53c
000002b0: 4ab1 2fbd afcd ecbc 654b 9cbd 2d8d c1bd
000002c0: 51c8 a3bd b3dd 5e3d 65dd dc3c 5be4 7f3d
000002d0: ff69 bcbd 0c0e aabd 7dac edbc a0f3 cc3b
000002e0: 7110 4f3d 6465 1a3d 53fb 013d 61a8 0fbc
000002f0: 2cf1 213d b1ad 0dbd 6e7b d43b e0a7 d23c
00000300: f34c 96bc 0d3f 0e3c 4551 b43d 88c5 a4bd
00000310: 778b c6bc f695 11bd 2935 9d3d 744d 0ebd
00000320: 916f 703c defb 77bd 372f 83bd 28d7 ddbc
00000330: 5fd7 363e f75b 2d3d dce8 e33d aaba 343d
00000340: 1afe c73c 5b89 923d 843e 583b 11ff 9a3d
00000350: c9cc 9f3d 76e3 e23c cb5c 0b3c 5032 a73d
00000360: 2789 51bc 5cdf 07bd 0fdf e2bd 223b ed3b
00000370: c7df b4bb f6bc 88bb f6d6 9b3d 1cef a23c
00000380: c01a 9b3d 536b 4bbd 87b8 2c3d 3012 26bd
00000390: 29b8 123d 2ed0 0bbd baea 6f3d 5645 b3bc
000003a0: 1e60 a3bd 5f04 96bd 4a34 dfbd f403 b7bd
000003b0: 55ff c9bd c0ef e03d a0b2 e83d fcfc cc3d
000003c0: 2db3 3fbd 41cd 57bd 5d3b c7bd 0500 073c
000003d0: c22e 843c e0e6 f73c 5765 053d faea a2bb
000003e0: 9859 b63d df28 d0bc 1813 373d ffe6 f2bc
000003f0: 71ac aebd 501e b7bc 7ac7 4bbc 86c2 913c

extractor.6.bias f4 [48]
0.0065036276 -0.046784267 -0.003343694 -0.04269052 0.043614548 -0.00975806 -0.0040376293 0.055454254
0.009749788 0.02558844 -0.047477305 -0.04424445 0.029377554 0.027659753 -0.05057683 0.042220574
-0.013707004 0.035505574 0.053407937 -0.04191639 0.0063270526 -0.05184236 -0.025766721 -0.018184386
-0.02297983 0.033022966 0.015093751 0.026874324 0.025619827 0.015499579 0.022407282 -0.020991784
0.04480621 0.010193288 -0.011397466 0.00061236904 -0.016981035 0.010062021 0.047010023 -0.044356804
-0.045195635 -0.021440543 0.0023154337 0.041001618 0.033366647 0.049501784 0.02088786 -0.040475573
00000000: 621c d53b dca0 3fbd e021 5bbb 41dc 2ebd
00000010: 2ba5 323d 45e0 1fbc 174e 84bb 0024 633d
00000020: 93bd 1f3c d99e d13c 9077 42bd ab39 35bd
00000030: 32a9 f03c b596 e23c a629 4fbd 7bef 2c3d
00000040: 5793 60bc 4b6e 113d 48c2 5a3d 85b0 2bbd
00000050: 2a53 cf3b a858 54bd bb14 d3bc 6cf7 94bc
00000060: 3240 bcbc 1743 073d c84b 773c 8b27 dc3c
00000070: ace0 d13c f2f1 7d3c 7a8f b73c f6f6 abbc
00000080: b786 373d c001 273c 70bc 3abc 6487 203a
00000090: d01b 8bbc 2ddb 243c 958d 403d 7baf 35bd
000000a0: 0f1f 39bd 14a4 afbc 88be 173b 50f1 273d
000000b0: 77ab 083d 62c2 4a3d 041d ab3c b7c9 25bd

extractor.7.weight f4 [48]
1.0169126 0.96081805 0.98729265 0.9544775 0.99610895 0.95256615 0.99746776 0.9649173
0.9827358 0.9404906 0.9406951 0.97306645 0.90817064 1.0420746 1.0823199 1.0427276
0.997696 0.98872745 1.0108889 0.96521115 0.97903395 0.9746071 0.9968573 0.9978958
1.0049006 1.0409877 1.0064784 0.9866134 0.9716269 1.0297735 0.94942784 1.0037841
1.0818187 0.95898277 0.9635896 0.9922674 1.0362967 0.93180525 1.0952413 0.9189017
0.9893456 0.91255337 1.0571755 1.05203 1.0139554 0.956017 0.95552266 1.0050366
00000000: 312a 823f 2cf8 753f 36bf 7c3f a358 743f
00000010: ff00 7f3f 60db 733f 0c5a 7f3f d204 773f
00000020: 9394 7b3f fec3 703f 65d1 703f e21a 793f
00000030: df7d 683f b362 853f 7589 8a3f 1978 853f
00000040: 0169 7f3f 3e1d 7d3f cf64 813f 1418 773f
00000050: f8a1 7a3f da7f 793f 0a32 7f3f 1976 7f3f
00000060: 95a0 803f 163f 853f 49d4 803f b292 7c3f
00000070: 8abc 783f 9ecf 833f b40d 733f ff7b 803f
00000080: 0979 8a3f e57f 753f cfad 763f 3c05 7e3f
00000090: 5fa5 843f ca8a 6e3f de30 8c3f 243d 6b3f
000000a0: c145 7d3f 199d 693f 8751 873f eba8 863f
000000b0: 4ac9 813f 88bd 743f 229d 743f 0aa5 803f

extractor.7.bias f4 [48]
-0.23222215 -0.3687636 0.012555146 -0.08665233 -0.014991734 -0.28387237 -0.08814037 -0.083506435
-0.10079649 -0.381792 -0.03129378 -0.10179026 -0.4007985 -0.14532548 0.01795243 -0.13414006
-0.030835 -0.06859238 -0.034076653 -0.11737824 -0.06961944 -0.1098777 -0.30847475 -0.092892945
-0.08114743 -0.003821228 0.01058431 -0.28641853 -0.20975007 -0.13477972 -0.07795107 -0.11837615
-0.14712271 -0.06995817 -0.43972093 -0.28674942 -0.09257358 -0.4020497 -0.011358754 -0.14790858
-0.052281003 -0.13697201 -0.08230344 -0.025194798 -0.039822906 -0.15079631 -0.2458689 -0.22718473
00000000: a5cb 6dbe 95ce bcbe 19b4 4d3c c776 b1bd
00000010: e49f 75bc b857 91be f082 b4bd 6c05 abbd
00000020: 646e cebd 3e7a c3be e82d 00bd 6977 d0bd
00000030: 7635 cdbe 34d0 14be f910 933c 035c 09be
00000040: af99 fcbc 297a 8cbd f693 0bbd 0164 f0bd
00000050: a394 8ebd 8f07 e1bd 67f0 9dbe a83e bebd
00000060: a030 a6bd 916d 7abb d069 2d3c 73a5 92be
00000070: b9c8 56be b203 0abe d0a4 9fbd 326f f2bd
00000080: 56a7 16be 3b46 8fbd 1a23 e1be d2d0 92be
00000090: 3897 bdbd 75d9 cdbe 111a 3abc 5975 17be
000000a0: 9b24 56bd 6442 0cbe b58e a8bd 5265 cebc
000000b0: 581d 23bd 596a 1abe 0fc5 7bbe 1da3 68be

extractor.7.running_mean f4 [48]
0.70833004 0.13707839 0.47914493 0.13424541 -0.42428666 -1.6698124 0.3058075 -0.1572103
-0.72249216 0.2974233 -2.056694 -1.0774046 0.30964136 -0.8305815 -0.06154779 -0.5552176
-2.505712 -1.7448087 -0.7312159 -0.2684259 -0.6381092 -1.2817339 0.075463995 1.7188817
2.5081506 -0.111019894 -1.4077114 -0.29693562 -1.7343282 0.74405277 -1.077656 0.616771
0.54405576 -0.34276035 0.15167426 -0.056274768 1.0682014 0.3889308 -0.5462708 -1.6960449
-1.3349326 0.3959691 0.5736703 0.6384415 0.21985781 -1.5620092 -1.4348838 0.44337505
00000000: 1e55 353f 475e 0c3e 7c52 f53e a177 093e
00000010: 1a3c d9be 6abc d5bf cd92 9c3e bdfb 20be
00000020: 3ff5 38bf de47 983e e0a0 03c0 65e8 89bf
00000030: 5089 9e3e fda0 54bf 8919 7cbd be22 0ebf
00000040: 965d 20c0 e455 dfbf f730 3bbf 1f6f 89be
00000050: 205b 23bf db0f a4bf de8c 9a3d 5104 dc3f
00000060: 8a85 2040 665e e3bd e32f b4bf f207 98be
00000070: 77fe ddbf 3e7a 3e3f a2f0 89bf b4e4 1d3f
00000080: 3d47 0b3f 497e afbe 7f50 1b3e 5f80 66bd
00000090: d3ba 883f f021 c73e 67d8 0bbf 0018 d9bf
000000a0: 12df aabf 76bc ca3e 0fdc 123f e770 233f
000000b0: 6822 613e ebef c7bf 46aa b7bf 0e02 e33e

extractor.7.running_var f4 [48]
0.82466424 1.4462613 1.055575 1.7096529 0.9310482 0.97653276 1.6359729 0.7949229
0.8378028 0.6248544 2.1801767 0.7340863 1.1299937 0.5673177 1.3085593 0.57923716
2.4265077 3.5644736 1.4048064 0.8603952 0.7802632 1.7749891 0.97893566 1.9653912
1.127618 2.9526901 4.116694 1.0634317 0.8304008 1.0320914 1.6388544 0.73119795
0.520952 2.034563 0.5241973 1.4052242 1.3184483 0.9276045 0.80244905 5.4418774
1.8246819 1.3223566 0.8413427 0.5741962 2.7000165 1.5216237 0.66306865 0.50768435
00000000: 321d 533f 171f b93f 151d 873f e8d5 da3f
00000010: 2d59 6e3f 0dfe 793f 8f67 d13f 1180 4b3f
00000020: 3f7a 563f 75f6 1f3f 0488 0b40 14ed 3b3f
00000030: a2a3 903f bc3b 113f df7e a73f e348 143f
00000040: e74b 1b40 5620 6440 b2d0 b33f dc42 5c3f
00000050: 54bf 473f d832 e33f 879b 7a3f f091 fb3f
00000060: c955 903f e0f8 3c40 f5bb 8340 881e 883f
00000070: 2695 543f 921b 843f fbc5 d13f ca2f 3b3f
00000080: 1c5d 053f 4836 0240 cb31 063f 63de b33f
00000090: eac2 a83f 7d77 6d3f 4d6d 4d3f dc23 ae40
000000a0: 2d8f e93f fb42 a93f 3c62 573f 86fe 123f
000000b0: 12cd 2c40 91c4 c23f debe 293f 9af7 013f

extractor.9.weight f4 [64, 48, 3, 3]
-0.036156137 0.023379488 0.029694987 0.008893848 -0.06082232 -0.07783379 -0.011480699 -0.11845128
-0.06793119 -0.009306195 -0.03295981 -0.026637718 -9.597261e-05 0.009066171 -0.013410869 -0.060592186
-0.13505359 -0.13067539 -0.029311711 0.102102384 -0.013074521 -0.02065323 -0.03030291 -0.028906645
-0.05659488 -0.034871124 0.02470407 0.031032985 -0.05537101 -0.06856618 0.041218616 0.00147672
-0.10975295 -0.0742769 -0.0558297 -0.05993908 0.01375674 -0.02245071 0.06919433 -0.048504762
-0.032415625 -0.06162518 -0.0071206815 -0.03472654 -0.03553126 -0.14013249 -0.12964942 -0.0679201
-0.04270194 -0.013368205 0.005671409 -0.09354042 -0.034901273 -0.038558517 -0.08567418 -0.07217485
-0.041164238 -0.033114024 0.035703443 -0.05051911 -0.09360434 -0.05049545 -0.13134184 0.069623135
0.012456156 0.056443617 0.010336288 -0.0002633039 0.050548814 0.012472776 0.08276102 0.07358607
-0.012188366 0.067405246 0.07826645 0.059874155 0.012917757 0.046612475 0.014046336 0.0007525129
-0.037939206 -0.059734967 -0.0054967166 -0.0017207017 -0.005765717 -0.0024222462 -0.064539686 -0.019789271
-0.012880571 -0.048659142 0.0055806376 -0.041975126 -0.0041762255 -0.02765523 -0.008153432 0.059409384
-0.011924604 0.02964568 -0.021448249 -0.044822495 -0.10535095 -0.010189595 0.011322141 -0.055193327
-0.036272936 0.038679175 -0.014982814 0.09227158 -0.06788144 -0.039471813 -0.043097813 -0.07197194
-0.061463814 -0.057347536 0.0074209278 -0.05650683 -0.06854089 -0.057646282 -0.060774595 -0.076299794
0.12194172 0.052121054 0.013885755 0.08170051 0.061024755 0.035399407 -0.12193752 -0.121379256
-0.0028402014 -0.047993317 -0.01234863 0.07552399 -0.086109735 -0.045246445 0.05577251 0.005537483
-0.05218967 0.039189655 0.08091933 0.060821254 0.022846943 0.043952484 0.11095007 0.10325511
0.041708328 -0.007117103 0.08997958 0.03700067 0.06915652 0.064427316 -0.035722695 0.05316234
-0.022465443 -0.06992063 -0.07789694 -0.11372282 0.03961659 -0.054670762 -0.06946709 0.030429
-0.041515302 -0.03419444 -0.017119378 0.0515119 0.0074358727 -0.06672787 -0.04467086 -0.005359829
-0.058707777 0.00072643225 0.02941959 -0.019137949 -0.034591738 -0.009177468 0.036753133 -0.0839709
-0.0067774015 0.060526017 0.011891717 -0.0029859678 0.053558495 0.0069185104 0.012652172 -0.0018105524
0.015290963 -0.020442156 0.0009224013 -0.075826086 0.0456675 0.0045140367 -0.0177214 0.018115852
0.07346047 0.07794057 -0.023827937 0.021138206 0.02164978 -0.028919036 -0.1241782 -0.088808365
-0.020585569 0.007220871 0.024422022 -0.01878061 -0.054966353 -0.11798266 -0.079861164 -0.037720587
-0.11964502 -0.09847612 -0.010005719 -0.031851724 -0.071432225 0.123990834 0.032212827 0.06462098
0.038143344 -0.062006265 -0.052295256 -0.062752895 -0.06074975 -0.07374234 -0.06749873 -0.10765641
0.0067753172 0.031769674 0.09943792 0.028461933 0.008960447 -0.005107024 -0.057288405 -0.026162557
-0.018462293 -0.011464001 -0.014556249 0.04082205 -0.044868253 0.05189406 0.05329994 -0.016187742
-0.012162134 -0.0013104676 -0.02570603 -0.087586775 -0.07282429 -0.04625504 -0.045167163 -0.010919453
-0.002881937 -0.0059045064 -0.0325621 -0.061734162 -0.12882017 -0.06641685 0.020282878 0.005628259
00000000: 7518 14bd 5786 bf3c e742 f33c 81b7 113c
00000010: d320 79bd 5267 9fbd 8b19 3cbc 9696 f2bd
00000020: 821f 8bbd 0379 18bc de00 07bd 5837 dabc
00000030: e744 c9b8 478a 143c 43b9 5bbc 832f 78bd
00000040: 7d4b 0abe c5cf 05be 1d1f f0bc 0e1b d13d
00000050: 8436 56bc f630 a9bc cf3d f8bc a1cd ecbc
00000060: 08d0 67bd 06d5 0ebd 3160 ca3c e338 fe3c
00000070: b6cc 62bd 6d6c 8cbd dad4 283d 808e c13a
00000080: 28c6 e0bd 7d1e 98bd afad 64bd ae82 75bd
00000090: f363 613c 8dea b7bc c2b5 8d3d eeac 46bd
000000a0: 3fc6 04bd af6a 7cbd 9b54 e9bb 6b3d 0ebd
000000b0: 3a89 11bd e47e 0fbe d1c2 04be b219 8bbd
000000c0: 3be8 2ebd 5106 5bbc 3ad7 b93b 1f92 bfbd
000000d0: a3f4 0ebd 89ef 1dbd f275 afbd 68d0 93bd
000000e0: d59b 28bd 92a2 07bd c63d 123d 20ed 4ebd
000000f0: a2b3 bfbd 51d4 4ebd 7a7e 06be 9396 8e3d
00000100: e814 4c3c 6c31 673d 8959 293c 0d0c 8ab9
00000110: 460c 4f3d 9d5a 4c3c 9c7e a93d 4bb4 963d
00000120: b6b1 47bc c30b 8a3d 294a a03d 9a3e 753d
00000130: 00a5 533c b9ec 3e3d 9a22 663c 4944 453a
00000140: 2466 1bbd a7ac 74bd cd1d b4bb 2b89 e1ba
00000150: 57ee bcbb 8cbe 1ebb 622d 84bd 1c1d a2bc
00000160: 0809 53bc cf4e 47bd c8dd b63b 1cee 2bbd
00000170: b8d8 88bb 398d e2bc f995 05bc 4157 733d
00000180: 6a5f 43bc 7fdb f23c 3db4 afbc cb97 37bd
00000190: 3dc2 d7bd 42f2 26bc 8080 393c 6612 62bd
000001a0: ee92 14bd 0e6e 1e3d 7a7a 75bc e2f8 bc3d
000001b0: 6d05 8bbd 32ad 21bd 5587 30bd 0666 93bd
000001c0: 7bc1 7bbd 40e5 6abd 412b f33b b573 67bd
000001d0: 2b5f 8cbd 821e 6cbd c8ee 78bd 1143 9cbd
000001e0: 95bc f93d e37c 553d 1481 633c 9952 a73d
000001f0: 18f5 793d f8fe 103d 61ba f9bd b095 f8bd
00000200: ac22 3abb a494 44bd e951 4abc 52ac 9a3d
00000210: 4d5a b0bd 5654 39bd b771 643d c673 b53b
00000220: d6c4 55bd 5585 203d 09b9 a53d b51f 793d
00000230: 8329 bb3c 8507 343d ca39 e33d 6a77 d33d
00000240: 5ad6 2a3d 9636 e9bb 3747 b83d 048e 173d
00000250: efa1 8d3d 78f2 833d f651 12bd c1c0 593d
00000260: 7309 b8bc 8c32 8fbd 6e88 9fbd 83e7 e8bd
00000270: 0145 223d 73ee 5fbd c344 8ebd 3d46 f93c
00000280: f30b 2abd 780f 0cbd f03d 8cbc 24fe 523d
00000290: 9fa8 f33b 9fa8 88bd cbf8 36bd 81a1 afbb
000002a0: 9177 70bd 0b6e 3e3a 5a01 f13c 30c7 9cbc
000002b0: 11b0 0dbd 175d 16bc 748a 163d eff8 abbd
000002c0: f714 debb 21ea 773d 7ad5 423c 3ab0 43bb
000002d0: 2760 5b3d acb4 e23b 0e4b 4f3c 0f50 edba
000002e0: f386 7a3c 4f76 a7bc 4ecd 713a b54a 9bbd
000002f0: d80d 3b3d 7cea 933b 782c 91bc b267 943c
00000300: 7172 963d 4e9f 9f3d ce32 c3bc 082a ad3c
00000310: e15a b13c 9de7 ecbc 2451 febd 29e1 b5bd
00000320: 11a3 a8bc 0e9d ec3b b110 c83c cbd9 99bc
00000330: 6624 61bd e5a0 f1bd 408e a3bd e780 1abd
00000340: 7308 f5bd d9ad c9bd 07ef 23bc f476 02bd
00000350: 0f4b 92bd e8ee fd3d 99f1 033d 0158 843d
00000360: 323c 1c3d 48fa 7dbd 8d33 56bd 9784 80bd
00000370: bbd4 78bd 3906 97bd c63c 8abd f77a dcbd
00000380: 7b03 de3b eb20 023d 1ca6 cb3d 0029 e93c
00000390: d7ce 123c d358 a7bb 3fa7 6abd dc52 d6bc
000003a0: 3c3e 97bc 81d3 3bbc 557d 6ebc 0635 273d
000003b0: c6c7 37bd de8e 543d 0a51 5a3d 289c 84bc
000003c0: b043 47bc ffc3 abba 7495 d2bc b260 b3bd
000003d0: e724 95bd ed75 3dbd 3401 39bd 81e7 32bc
000003e0: e1de 3cbb 977a c1bb d65f 05bd f6dc 7cbd
000003f0: 6fe9 03be 8f05 88bd 4728 a63c 426d b83b

extractor.9.bias f4 [64]
-0.0059374035 -0.016267592 -0.008358611 -0.009077006 0.036697615 -0.012520798 0.023528477 0.015838316
-0.02777593 -0.03251359 -0.020471256 -0.027859343 0.024081487 0.031990923 0.0403141 -0.02182779
0.04381755 -0.018751489 0.004790818 0.045978524 0.020390123 -0.01269416 -0.03554374 -0.036736883
-0.0053259367 0.045959648 0.023560276 0.03845029 -0.011300212 0.032681707 0.022115795 0.01664063
0.016162368 0.006377417 -0.022823168 0.01778811 -0.011206529 0.027408088 0.029287094 -0.035917845
-0.044941388 -0.029842086 0.033568267 -0.026383923 0.038647264 -0.03111212 -0.04472182 0.026573908
-0.037845735 0.027959552 -0.014556674 0.045066305 0.027735833 0.014375707 0.029623456 -0.045276824
0.04420365 -0.038235366 -0.04234862 -0.0058278586 0.022914689 -0.03439191 -0.012021592 -0.035966925
00000000: 8d8e c2bb 9d43 85bc 8ef2 08bc b9b7 14bc
00000010: 3d50 163d 0824 4dbc cbbe c03c 5bbf 813c
00000020: 598a e3bc f82c 05bd 56b3 a7bc 4739 e4bc
00000030: 8a46 c53c ea08 033d 6620 253d 32d0 b2bc
00000040: 087a 333d b99c 99bc 4bfc 9c3b fa53 3c3d
00000050: 3009 a73c 2bfb 4fbc 5096 11bd 6a79 16bd
00000060: 3285 aebb 2f40 3c3d 7b01 c13c 0d7e 1d3d
00000070: 8624 39bc 41dd 053d 2f2c b53c ee51 883c
00000080: f166 843c a7f9 d03b a7f7 babc 5fb8 913c
00000090: 979b 37bc ed86 e03c 7deb ef3c 971e 13bd
000000a0: 7614 38bd 6477 f4bc e17e 093d 1923 d8bc
000000b0: 984c 1e3d d8de febc 3a2e 37bd 86b1 d93c
000000c0: 2104 1bbd 6e0b e53c 1e7f 6ebc 7297 383d
000000d0: 4236 e33c 1688 6b3c e4ac f23c 3174 39bd
000000e0: e30e 353d b09c 1cbd bf75 2dbd 9ff7 bebb
000000f0: 96b7 bb3c 88de 0cbd 36f6 44bc 0e52 13bd

extractor.10.weight f4 [64]
1.0316969 1.0177412 0.9541109 1.0546063 0.9561612 0.9536498 1.0122917 0.9788225
0.9211853 0.99682546 0.9656809 1.0243062 1.1167661 1.0506814 0.9058207 0.92353445
1.0245175 0.92607623 1.1123769 1.0197793 0.9584039 1.0912468 0.944204 0.9075276
0.9707832 1.0264763 0.9814803 1.0439988 1.0823085 1.0295112 1.0125806 0.95710444
0.9689845 1.0003151 0.93737936 0.9694777 0.96132344 0.97926575 0.91950333 1.0028883
0.8968315 0.9692586 0.9758149 0.9514676 0.9875772 0.9299037 1.0030591 0.9820466
1.145975 1.0981053 1.0185095 0.96803063 1.0244571 0.9469894 1.0618321 1.0784715
0.94123065 1.0282508 0.9154805 1.0326707 1.0075443 1.0556921 0.95166016 0.960577
00000000: a50e 843f 5845 823f 9d40 743f 57fd 863f
00000010: fbc6 743f 6522 743f c692 813f 1d94 7a3f
00000020: cdd2 6b3f f42f 7f3f dd36 773f 771c 833f
00000030: 31f2 8e3f ba7c 863f dee3 673f c16c 6c3f
00000040: 6423 833f 5513 6d3f 5e62 8e3f 2188 823f
00000050: f559 753f faad 8b3f 5ab7 713f bb53 683f
00000060: 3f85 783f 9363 833f 4b42 7b3f c1a1 853f
00000070: 1689 8a3f 06c7 833f 3e9c 813f cc04 753f
00000080: 5e0f 783f 530a 803f 18f8 6f3f b12f 783f
00000090: 4b19 763f 29b1 7a3f 9264 6b3f a55e 803f
000000a0: c096 653f 5521 783f 01cf 793f 6193 733f
000000b0: dcd1 7c3f 2b0e 6e3f 3e64 803f 6867 7b3f
000000c0: 4faf 923f b78e 8c3f 855e 823f dbd0 773f
000000d0: 6921 833f e66d 723f 1dea 873f 5b0b 8a3f
000000e0: 7ef4 703f b99d 833f ee5c 6a3f 8e2e 843f
000000f0: 36f7 803f eb20 873f 00a0 733f 60e8 753f

extractor.10.bias f4 [64]
-0.019777296 -0.047503468 -0.3207613 -0.11253714 -0.09134585 -0.057161022 -0.03613696 -0.03766705
-0.39315006 -0.12994483 -0.44181108 -0.079578765 -0.082147114 -0.1516344 -0.15359226 -0.5316076
-0.10799855 -0.27887127 -0.1250182 -0.031650018 -0.4889313 -0.038183138 -0.19672029 -0.504738
-0.073384546 0.009424655 -0.11404445 -0.10021457 -0.11494283 -0.09352023 -0.0934233 -0.18219355
-0.12483507 -0.38790968 -0.05864922 -0.4029542 -0.49636298 -0.1238669 -0.46283436 -0.05515913
-0.14005814 -0.053256627 -0.1062853 -0.047757372 -0.065528005 -0.3295698 -0.12603498 -0.20438354
-0.019612763 -0.019867219 -0.15431143 -0.11067577 -0.04039153 -0.31838465 0.004983781 -0.18666136
-0.09204147 -0.084189124 -0.47685465 0.02608035 -0.25685215 -0.13597177 -0.07321032 -0.119419664
00000000: ff03 a2bc ff92 42bd d33a a4be df79 e6bd
00000010: 8813 bbbd ad21 6abd 5904 14bd c448 1abd
00000020: f74a c9be 4210 05be 1035 e2be 31fa a2bd
00000030: bf3c a8bd 0c46 1bbe 4a47 1dbe 7017 08bf
00000040: 582e ddbd 37c8 8ebe c504 00be 73a3 01bd
00000050: 3455 fabe ec65 1cbd 0b71 49be 8236 01bf
00000060: a34a 96bd de69 1a3c 2390 e9bd 4c3d cdbd
00000070: 2567 ebbd 8987 bfbd b754 bfbd f290 3abe
00000080: 87a9 ffbd 199c c6be 2a3a 70bd 0350 cebe
00000090: 4a23 febe eead fdbd a0f8 ecbe 8aee 61bd
000000a0: 676b 0fbe 9f23 5abd 1bac d9bd 3c9d 43bd
000000b0: 8c33 86bd 5fbd a8be 500f 01be eb49 51be
000000c0: f2aa a0bc 94c0 a2bc d103 1ebe faa9 e2bd
000000d0: 9771 25bd 5003 a3be fc4e a33b 2824 3fbe
000000e0: 3d80 bcbd 596b acbd 4b26 f4be 75a6 d53c
000000f0: 2082 83be 2f3c 0bbe 4bef 95bd 4c92 f4bd

extractor.10.running_mean f4 [64]
-1.1134418 0.5024147 0.45234296 0.46230963 -1.5360738 -1.9388709 -1.796387 -1.8143562
-0.59463286 -2.1745675 0.47519505 -2.2237353 0.50751287 -1.6839223 -4.262963 -0.28579023
-2.0680802 -0.20600326 -2.1719778 1.0903277 0.34319395 0.66430646 -2.4895043 0.19520931
-2.0109067 -2.0329735 -2.242082 -2.3912902 -0.7870774 -1.9311541 -2.5044215 -0.034210067
-0.85134834 0.012475963 -2.147518 -0.38269705 0.39548767 -3.256231 -0.39304513 -1.5871909
0.5298412 -1.709908 -2.3157654 -1.4754208 -3.1265764 -0.50235087 -0.4492139 -0.58755535
-0.13880247 -1.9130421 -1.1622084 -1.2915878 -3.1868124 -0.48690397 -1.6114492 -1.4354386
-2.4785995 -1.152923 -0.4557644 -2.5160234 -0.31530735 -1.1805291 1.4978615 -3.713379
00000000: 4385 8ebf 409e 003f 7f99 e73e d9b3 ec3e
00000010: 119e c4bf ec2c f8bf 02f0 e5bf d33c e8bf
00000020: dc39 18bf 1d2c 0bc0 c44c f33e ae51 0ec0
00000030: 5dec 013f c48a d7bf 316a 88c0 1953 92be
00000040: 6d5b 04c0 85f2 52be af01 0bc0 dc8f 8b3f
00000050: 1eb7 af3e fd0f 2a3f 0a54 1fc0 f3e4 473e
00000060: b2b2 00c0 3d1c 02c0 467e 0fc0 e60a 19c0
00000070: e87d 49bf 0f30 f7bf 7148 20c0 db1f 0cbd
00000080: f7f1 59bf fb67 4c3c ef70 09c0 def0 c3be
00000090: 5c7d ca3e 1766 50c0 363d c9be 1229 cbbf
000000a0: aca3 073f 44de dabf 8035 14c0 97da bcbf
000000b0: d419 48c0 119a 00bf 5dff e5be 076a 16bf
000000c0: 3c22 0ebe 90de f4bf 3fc3 94bf c052 a5bf
000000d0: bcf4 4bc0 7a4b f9be f843 cebf 74bc b7bf
000000e0: 60a1 1ec0 fb92 93bf f459 e9be 8706 21c0
000000f0: f76f a1be 941b 97bf edb9 bf3f 00a8 6dc0

extractor.10.running_var f4 [64]
3.7991595 3.0564485 1.6366662 2.1215677 4.827286 6.00988 3.5747309 5.0002394
2.2304509 1.9347408 1.7435471 4.2229733 2.9628456 2.333095 5.2915463 2.1549973
3.8398669 1.4080338 2.1950634 2.241635 2.2651148 3.8981338 3.627153 1.794261
4.6768794 5.1220098 3.2786539 3.1969302 1.6973827 2.5252244 3.1528196 1.8114109
2.43701 1.7111322 4.3682666 2.5695941 2.1231837 3.374659 2.278938 1.9966447
2.7942674 5.233843 3.1993792 8.22418 3.4445019 2.049069 2.1561787 1.4282637
2.7726715 2.782778 2.5692158 2.5568662 3.9165633 3.4047265 2.811467 2.6060073
4.984799 2.0177 1.7717235 2.675323 2.9073932 2.6615508 3.2238228 4.0246463
00000000: 6e25 7340 da9c 4340 477e d13f c4c7 0740
00000010: 2079 9a40 f050 c040 64c8 6440 f601 a040
00000020: b5bf 0e40 96a5 f73f 8d2c df3f 9922 8740
00000030: 439f 3d40 6e51 1540 5954 a940 7aeb 0940
00000040: 61c0 7540 743a b43f eb7b 0c40 f376 0f40
00000050: a4f7 1040 067b 7940 4623 6840 58aa e53f
00000060: ffa8 9540 81e7 a340 77d5 5140 819a 4c40
00000070: d643 d93f 479d 2140 ccc7 4940 50dc e73f
00000080: f9f7 1b40 6106 db3f d7c8 8b40 3b74 2440
00000090: 3ee2 0740 6afa 5740 1fda 1140 0e92 ff3f
000000a0: 47d5 3240 a47b a740 a1c2 4c40 3e96 0341
000000b0: b872 5c40 f223 0340 d5fe 0940 58d1 b63f
000000c0: 7373 3140 0919 3240 086e 2440 b2a3 2340
000000d0: f9a8 7a40 0ae7 5940 13ef 3340 d3c8 2640
000000e0: 7983 9f40 ff21 0140 d6c7 e23f 7e38 2b40
000000f0: bb12 3a40 d956 2a40 1d53 4e40 e7c9 8040
