gpl/results/il/ep_010.ckpt (torch, 773626 bytes, 43 tensors)

extractor.0.weight f4 [24, 3, 5, 5]
000000 c9 1c 86 3d ed 7b 38 bd c5 50 73 bc 9b c5 80 3d
       0.06548459 -0.04504006 -0.0148508 0.0628769
000010 d8 d2 cc bd 3d 99 97 3d f3 c2 97 bc aa 5e 85 3d
       -0.10001153 0.07402275 -0.018525576 0.06512196
000020 c6 55 bc 3c 8c 32 e9 bb e0 c1 21 3d fd 42 59 3c
       0.022990119 -0.0071166214 0.039491534 0.0132606
000030 f9 39 4a 3d 65 34 1d bd 14 80 f2 ba 74 6d 0d bb
       0.049371693 -0.038380045 -0.0018501305 -0.0021580132
000040 5b e8 d0 3c 24 06 fc 3b a8 33 de 3d 15 28 34 3d
       0.02550142 0.0076911617 0.108496964 0.043983538
000050 71 14 05 bd 42 e4 6e bd 97 34 08 bc 99 fd 20 bd
       -0.032490198 -0.058323152 -0.00831332 -0.03930435
000060 61 2e d5 bc e2 59 28 3b c0 dd 86 3d f4 34 7b 3d
       -0.026023092 0.002568834 0.06585264 0.061329797
000070 8e 37 e5 bd e5 ba 97 3d ac 46 c8 3c 74 52 d4 3d
       -0.11192237 0.07408694 0.024447761 0.10367289
000080 cc c0 92 3d a4 5a dc bd 0a 1a e2 bd 97 c3 63 bd
       0.07165679 -0.10759476 -0.11040123 -0.05560645
000090 95 e7 d0 3d 1d 0a a3 bc 2c da 48 3d 54 17 5a bd
       0.10200421 -0.019902283 0.04903619 -0.053244904
0000a0 fe 0b ec 3d 14 52 3d bd 75 ce b5 3d 1f 84 6c 3b
       0.11525725 -0.046220854 0.08877269 0.0036089492
0000b0 c5 e0 6c bd 63 bf 86 3d c5 ef 5c bd 00 f5 28 3d
       -0.057831544 0.06579473 -0.0539396 0.041249275
0000c0 b7 60 d4 bc 90 eb b4 bb d1 02 df bd d9 ea 58 bd
       -0.025925023 -0.0055212453 -0.10889209 -0.052958343
0000d0 7c d6 86 3d 1b 74 bf bc 9b 02 f5 3d e7 6a bd 3d
       0.065838784 -0.023370793 0.119633876 0.09248906
0000e0 b6 6f 88 bb 4a 21 9a bd c3 6f 95 3d 69 5d 20 3d
       -0.0041637076 -0.07525881 0.072967075 0.039151583
0000f0 32 95 8a bd 56 f8 a9 3d ae 06 9b 3d f1 89 db 3d
       -0.06766738 0.082993194 0.075696334 0.107196696
000100 5e 6d 74 bd 4f bf 54 bc f8 5c 8f 3b 60 c7 b7 3c
       -0.059674613 -0.012985065 0.0043750964 0.022433937
000110 0a 67 a8 bd 7d a7 9a bd de 2a 93 3d f3 d3 8c bc
       -0.08222778 -0.07551477 0.07185911 -0.017190909
000120 dc b2 86 3d ad 07 7d 3c c0 bd 3e 3d d2 bc ee 3c
       0.065770835 0.015443725 0.04656768 0.02914277
000130 a9 75 37 3d 5c b7 75 3d c7 5d d4 bd a1 f4 80 3d
       0.044789944 0.05998932 -0.10369449 0.06296659
000140 9f 44 a4 bd bd 68 af bd 48 62 1b 3c 5d 69 91 bc
       -0.08020901 -0.08564899 0.009483881 -0.017750436
000150 39 b9 8e 3d f3 da 89 bd 31 ba d1 bd da 66 ac 3d
       0.06968922 -0.067312144 -0.10240591 0.08418055
000160 4a 9e 83 bc 5e 6f 88 3d 96 12 30 3d 47 64 a3 bd
       -0.016066689 0.066618666 0.042986475 -0.07978111
000170 08 c7 f1 3c 01 e0 0c 3d ec 0b 8e bd d6 de 3f bd
       0.02951385 0.034393314 -0.06935868 -0.046843372
000180 5f 62 49 3d e1 25 f6 3c b0 72 27 bd e8 b2 d4 bc
       0.04916608 0.030047359 -0.04088086 -0.025964215
000190 92 ca d9 3d 5a 86 b4 bc 0b d9 84 3d 01 be 4b 3d
       0.1063434 -0.02203672 0.0648671 0.04974175
0001a0 cb 30 94 bd 36 c4 cc bd 12 a1 df 3d 81 86 82 3b
       -0.07235869 -0.09998362 0.109193936 0.0039833193
0001b0 ac 88 9c 3d 11 e6 ab 3c e5 3f f9 3c bc de a5 3d
       0.076432556 0.020983728 0.030425975 0.08099124
0001c0 9a 69 d3 3d 16 2e a5 bd b3 53 25 3c d4 ca ae 3d
       0.10322876 -0.08065431 0.010090756 0.0853478
0001d0 b6 64 ac 3d b7 26 97 3d 16 d8 a4 bd 8f 00 a1 bd
       0.084176466 0.07380431 -0.080490276 -0.07861435
0001e0 44 58 89 bd 70 86 a0 3c e9 ac f7 3d a7 dc 8b bd
       -0.067062885 0.019595355 0.12093527 -0.068291955
0001f0 a1 9f 89 3d 4f c8 76 bd ae d9 d8 bd 19 34 b6 bc
       0.067199 -0.060249623 -0.10588394 -0.022241639
000200 04 1f 8d 3d 75 d1 e5 3d 66 23 8c bd 73 95 ec 3c
       0.068906814 0.112215914 -0.06842689 0.028879857
000210 e8 4f d2 3d 16 96 a2 3d 0b 1c 98 3d 75 bd a9 3d
       0.10269147 0.07938783 0.07427224 0.08288089
000220 f4 76 99 3d c3 0e 05 3d 0e 29 9a bd 8d c7 be bd
       0.07493392 0.03248478 -0.07527362 -0.09315405
000230 ff 33 3e bd 4b 64 b4 bb cf 70 7f bd e1 81 50 3d
       -0.046436306 -0.00550512 -0.062363442 0.050905112
000240 ac dd 38 3d 0d 4e 97 bc 42 d8 5d 3d c3 61 3f 3d
       0.045133278 -0.018469835 0.054161318 0.046724092
000250 21 25 a1 3d ee 55 b1 3d 05 7b 0b bd a3 f9 ef 3d
       0.0786841 0.08658968 -0.034052867 0.11717536
000260 18 17 05 bc 45 ab 03 3b 2c f9 d1 bd 7a aa 90 bd
       -0.008123182 0.0020091098 -0.10252604 -0.07063766
000270 64 e0 82 bd 57 52 3a bd b3 b1 af 3d d0 79 08 bd
       -0.06390455 -0.04548868 0.08578815 -0.033319294
000280 63 9c aa bd 6d f3 41 3d db 1c 24 3d 79 ac 9e 3d
       -0.0833061 0.04735129 0.04006658 0.0774774
000290 1b 40 68 bd 0d db ed 3c 86 72 1c bd e7 a6 b6 bc
       -0.05670176 0.029035116 -0.038195156 -0.022296382
0002a0 ad dd b4 bd c4 3e 49 bd e1 b3 00 bd ed cc 59 3d
       -0.08831344 -0.049132124 -0.031421546 0.053173948
0002b0 5f 4b cd 3c 88 e5 06 3d b8 47 f5 3d 3d 60 ec 3d
       0.025060354 0.03293374 0.1197657 0.115417935
0002c0 f1 e1 a5 3d ae 4c cc 3b fe 77 9c bd b9 a6 c0 3d
       0.080997355 0.006234727 -0.07640074 0.094068
0002d0 b5 bf d9 bc 3d c6 e8 bb be d3 c6 bd 8b 17 aa bc
       -0.02658067 -0.00710371 -0.09708355 -0.02076318
0002e0 ad 1c 93 bd 3b f5 da 3d 56 aa ca bd 10 0d b6 bd
       -0.07183204 0.10691305 -0.0989577 -0.0888921
0002f0 9a 14 57 bb 4c c3 7a bd 09 12 30 3d 20 98 2f bd
       -0.0032818676 -0.061221406 0.04298595 -0.042869687
000300 b9 24 57 bd 2a 1c 08 3c 09 ad ae 3d c0 37 a2 bd
       -0.052525256 0.008307496 0.085290976 -0.0792079
000310 8f 84 65 3d f3 6d 9c 3d 20 3f ed 3d 00 29 9f bd
       0.05603462 0.07638159 0.11584306 -0.07771492
000320 79 e0 00 3d 36 d4 a8 bd d2 6c d0 3d 98 10 27 bd
       0.031464074 -0.08243601 0.10177006 -0.04078731
000330 1a a7 98 3d 9c 9f c7 3b 39 96 d0 bb 23 ed 82 ba
       0.07453747 0.006092025 -0.006365564 -0.0009988885
000340 fc 73 b4 3c 6b e7 6c 3d b4 c7 a5 3c 91 39 17 3d
       0.022027962 0.057837885 0.020236827 0.036920134
000350 82 79 d1 bd 4c b2 ae 3d cc 1b d2 3d 8e eb c8 3d
       -0.10228254 0.08530101 0.10259208 0.098105535
000360 1a fc b3 3d 22 1e a6 bd ce 21 26 bd fd d6 d4 3d
       0.08788319 -0.08111216 -0.040559582 0.10392568
000370 1e 75 ae bd bf c7 db 3d e5 5b b4 bd 43 c6 9f bd
       -0.08518432 0.10731458 -0.0880659 -0.07801487
000380 89 59 75 3d a6 c5 a2 bd ee 68 ba bc 76 e2 b2 3d
       0.05989984 -0.07947855 -0.022755112 0.087346
000390 24 63 c1 3d f6 39 e7 3d 3f c0 94 bc 17 b3 ae bd
       0.09442738 0.11290352 -0.018158076 -0.085302524
0003a0 de f5 f0 3d b3 d6 ab bc 2e 19 32 bd 16 aa 05 3d
       0.117656454 -0.0209764 -0.043481044 0.03263291
0003b0 b8 9a 9c bd 5a ce a5 3d 38 71 9c 3d 2d 2a b3 bd
       -0.07646698 0.08095999 0.07638782 -0.08748279
0003c0 6e 7b bd bd fc 1a f2 bb a8 29 52 3d 07 52 c9 ba
       -0.09252058 -0.0073884707 0.051309258 -0.0015359529
0003d0 95 05 67 bd 35 74 9a 3b 2f 87 da bd fa 67 a2 bd
       -0.056401808 0.00471356 -0.106703155 -0.07929988
0003e0 18 dd 99 bd 29 92 c8 3d 74 23 d8 3d a2 23 11 bd
       -0.075128734 0.09793503 0.10553637 -0.035434373
0003f0 4d 3d 02 3c ca e3 5c 3d 12 c3 89 3c 34 d9 57 bd
       0.007949186 0.053928174 0.01681665 -0.052697375

extractor.0.bias f4 [24]
000000 d8 85 a7 3d ec 50 1a 3d e4 86 87 bd a7 68 9f 3d
       0.081798255 0.03767483 -0.06617525 0.07783633
000010 a2 ea a4 bd 5b 50 73 3d de 82 c1 bc 78 3f 10 3d
       -0.08052565 0.059402805 -0.023621973 0.03521678
000020 67 7f 5f bc 53 e8 ad 3c 6f ee 04 bd 3c e5 42 3d
       -0.013641215 0.021228945 -0.03245395 0.047581896
000030 2b 88 5b 3d ba d1 d2 bd 0a 10 d1 3d 62 6b be bd
       0.053596657 -0.102939084 0.10208137 -0.092978254
000040 05 1b 51 bd 00 ed 3d 3d 45 1f d5 3d 54 2a 21 3d
       -0.05105116 0.0463686 0.10406355 0.039347008
000050 2a e8 83 bd b3 98 9e 3c 4c 2c 8a bd a3 7d 58 3d
       -0.06440766 0.019359922 -0.0674673 0.05285419

extractor.1.weight f4 [24]
000000 7a a0 80 3f 2b 1d 80 3f db 3c 7e 3f c0 74 7f 3f
       1.0048974 1.0008901 0.9931161 0.9978752
000010 12 dd 7e 3f 16 6b 81 3f 86 13 80 3f e1 2f 80 3f
       0.99556077 1.0110805 1.0005958 1.0014611
000020 4e 87 7e 3f 5a f4 7e 3f cd dc 80 3f e1 f2 7f 3f
       0.9942521 0.995916 1.0067383 0.9997998
000030 ce 12 80 3f f7 f0 7d 3f 92 25 7f 3f de c4 7f 3f
       1.0005739 0.9919581 0.996667 0.9990977
000040 a5 c1 82 3f f4 fb 7f 3f 73 53 7c 3f 36 2f 80 3f
       1.0215346 0.99993825 0.98564833 1.0014408
000050 4a 80 80 3f 47 b0 81 3f 83 29 7e 3f 30 6b 7f 3f
       1.0039151 1.013192 0.9928209 0.9977293

extractor.1.bias f4 [24]
000000 23 b7 e5 ba 82 78 15 bb df 2f 24 bc 63 60 d6 3b
       -0.0017525892 -0.0022807424 -0.010021179 0.006542252
000010 c3 28 47 bb cc 43 57 b9 2b a0 65 3b 29 b9 23 ba
       -0.0030389286 -0.00020529254 0.0035038095 -0.00062455476
000020 fe 1c 8c bb e9 d1 2e 3b 73 74 ce bb ca 88 b7 3a
       -0.004275917 0.002667541 -0.006300503 0.0014002558
000030 73 e7 d3 bb e0 50 f1 bb 1a 3e 7c ba 66 c6 75 bb
       -0.0064668 -0.0073643774 -0.0009622291 -0.0037502288
000040 50 ba 83 b8 82 45 0f 3b 8b 39 09 bc 2b 25 f1 3b
       -6.28127e-05 0.0021861498 -0.008375536 0.007359167
000050 00 16 49 3b 0f dc 92 bb ca 50 6c bb c6 9c 22 bb
       0.003068328 -0.0044817994 -0.0036058896 -0.0024812683

extractor.1.running_mean f4 [24]
000000 f3 a8 8f 3e 81 03 9e 3e fb 03 e3 3c 78 ba 25 3e
       0.28058586 0.30862048 0.027711859 0.16184413
000010 29 da a3 be 72 8f 16 3e 45 80 4b be 1d 2b 05 3e
       -0.3200238 0.14703158 -0.1987315 0.13004728
000020 40 12 20 3d b0 a0 1c bd 58 30 dd 3d 3f b7 3b be
       0.039079905 -0.03823918 0.108002365 -0.18331622
000030 5a 63 94 3e ac 3e 77 be 21 ed 78 3e 15 8c 59 3d
       0.2898205 -0.24145001 0.24309207 0.05311211
000040 9e 29 ba bb 62 f5 a4 bd a0 7d 44 3d 47 08 dc bd
       -0.0056812307 -0.080546156 0.047971368 -0.10743766
000050 c8 07 03 be f4 27 40 3e ee b6 12 be 3d 93 3d 3e
       -0.12795937 0.18765241 -0.14327595 0.18513198

extractor.1.running_var f4 [24]
000000 07 b5 32 3c 1f 7f 8f 3c 2d 17 44 3b 58 fc 43 3b
       0.010907418 0.01751667 0.002992104 0.0029905047
000010 2d d5 84 3c 13 48 b6 3b bf a7 33 3c 85 29 8a 3b
       0.016214931 0.005562791 0.010965287 0.0042163753
000020 47 bd 81 3b 7b 63 68 3b 2d 36 27 3c 0a 56 94 3c
       0.003959331 0.0035459686 0.010205788 0.018107433
000030 d5 6b 8e 3c 84 05 c0 3b 92 e8 fb 3b 62 f5 10 3c
       0.017385403 0.0058600325 0.0076876367 0.008847566
000040 c1 ac 40 3b 4a 08 9b 3b 97 ca cc 3a db 6c c2 3b
       0.0029399844 0.0047312127 0.0015624341 0.0059333867
000050 bb 8d 2f 3b b2 b8 60 3c 97 92 f5 3a ae b3 e0 3b
       0.0026787359 0.01371591 0.0018735704 0.006857357

extractor.3.weight f4 [36, 24, 5, 5]
000000 f6 bc 18 3a 96 89 5e 3b 6c d0 fe bc 92 3b af 3c
       0.0005826497 0.003395652 -0.031105243 0.02139071
000010 dd 8c 16 3d 83 33 f8 bc bc 39 40 3c 1e 5d 9f bc
       0.03675543 -0.030298 0.011732515 -0.019453581
000020 cb 42 3d bc f5 d8 16 3d 9e 59 2c bd ce 07 1b bc
       -0.011551569 0.036828 -0.042077653 -0.00946231
000030 d7 de 65 3c 38 a1 98 3c 65 31 76 bc 65 1a d6 bc
       0.01403018 0.018631563 -0.015026425 -0.026135633
000040 3a f1 a8 3b f2 d2 22 bd 9c 1c 74 3b 4f d7 d7 bc
       0.0051557096 -0.039751954 0.0037248498 -0.026347784
000050 df b4 1a bc 24 b3 0d 3d bc a5 14 bd 20 84 b2 bc
       -0.009442537 0.03459467 -0.03629087 -0.021791518
000060 ba 72 04 bd 26 ff b1 3c bb a9 06 3d 24 56 db bc
       -0.032335974 0.02172811 0.03287671 -0.026774473
000070 b3 72 c3 3c fa 36 c5 3c 82 05 14 bd 85 0e 5a 3c
       0.023858404 0.024074066 -0.036138065 0.013309126
000080 24 81 92 3c d0 65 ef bb c0 64 e7 3c 1a 5d a2 bb
       0.017883845 -0.007305838 0.028246284 -0.004954946
000090 bb 6c b4 bb 91 55 be 3c 24 a2 16 bd be ab 20 bd
       -0.0055061257 0.02323416 -0.036775723 -0.039226286
0000a0 89 8e 92 3b 6e f3 31 3b 14 9c c6 3a cd 13 cf bc
       0.004472558 0.0027153152 0.0015152716 -0.025277996
0000b0 f5 22 07 3d d1 8e df bc 63 f2 9a bc 4a 75 10 bd
       0.032992322 -0.02728978 -0.018914407 -0.035268106
0000c0 f7 47 29 bd 9b 14 24 3c 66 ff 81 bc 4e 54 b9 3c
       -0.041328397 0.010014678 -0.015868854 0.022623207
0000d0 91 bc 1f 3d ac be 64 3c 1a 64 16 3d ab 15 ea bc
       0.03899819 0.013961475 0.036716558 -0.028574785
0000e0 8e 8f b2 3c 48 8e b0 3c d1 45 85 bc c1 45 a3 bb
       0.021796968 0.02155222 -0.016268643 -0.0049826805
0000f0 63 fa d9 bc 26 13 65 3a 04 51 2c bd b1 99 da bc
       -0.026608652 0.000873851 -0.04206945 -0.026684614
000100 81 a6 10 bd f3 a8 df bb 24 d2 2a 3b 44 09 0d bd
       -0.03531504 -0.0068255602 0.0026065195 -0.034432665
000110 eb e8 7a bc 7f 37 bb 3c 7b 11 c0 3a b0 5f cd 3b
       -0.015314321 0.022853611 0.0014653647 0.0062675104
000120 50 f6 91 bc 9b d9 4b bc ce 62 12 bd cb ab 1f 3d
       -0.017817646 -0.012442018 -0.03573876 0.038982194
000130 03 81 80 3b 12 d5 98 3c 43 f5 cb 3c 53 fc 03 3d
       0.0039216294 0.018656287 0.024897223 0.032223057
000140 8a b4 e8 bc a9 5d 52 3c 9b b6 12 bd 6d 5c 66 3c
       -0.0284064 0.012839713 -0.035818677 0.014060122
000150 68 2e b7 bc f6 50 9d 3c ab 92 dc bc 30 1c c0 3c
       -0.022360995 0.019203644 -0.026925405 0.02345094
000160 b9 87 01 3d e4 d7 d1 3c 6c 59 1b bd da 75 c5 3c
       0.031623576 0.02561564 -0.037927076 0.024104048
000170 97 4f df bc f9 db 1f bd 11 49 c1 3c 00 97 33 3b
       -0.027259631 -0.03902814 0.023594411 0.0027403235
000180 fe 14 94 bc 76 de 1a bd eb 4a 16 3c 2e 25 a2 bc
       -0.018076416 -0.03780981 0.009173135 -0.01979312
000190 2f c8 f9 bc a6 13 9e bb e0 35 12 bd e7 2b 9c 3c
       -0.030490963 -0.0048241196 -0.03569591 0.019063903
0001a0 9f eb d3 bc 1b f3 60 bc 7a 3f 24 bd 57 3e ac bb
       -0.025869189 -0.013729836 -0.0400996 -0.005256455
0001b0 40 1e 41 bc 8a 6a ca 3c 5e ce cc bb 85 fa f5 3c
       -0.011786997 0.024709005 -0.006250187 0.030026684
0001c0 6b 82 19 3d df fc 23 3c 11 e2 31 bc 44 87 0e bd
       0.037477892 0.01000902 -0.010857121 -0.034796968
0001d0 7b 11 f4 bc d4 da 6f bc c7 1e d2 bc 04 f8 ac 3c
       -0.029793492 -0.014639575 -0.025649441 0.021114357
0001e0 ef 84 86 bc 09 9d 7a bb 59 10 3f 3a db e0 12 bd
       -0.01642081 -0.0038240573 0.0007288508 -0.03585897
0001f0 20 15 0b 3d 22 ec 79 bc 64 00 05 bd 41 79 4c 3a
       0.033955693 -0.015254052 -0.032471076 0.00078000507
000200 0a 3b 0e bd b8 46 e2 3b 6a 42 d3 bc 3d 3d 02 bc
       -0.034724273 0.006905403 -0.025788505 -0.007949171
000210 5e 36 29 bc c3 ab 01 3d b2 72 09 3d 4c d1 1e 3d
       -0.010327904 0.031657945 0.033556648 0.03877382
000220 85 57 83 3b 52 04 cd 3c 60 21 0c bd 94 62 e2 bc
       0.004008236 0.025026474 -0.034211516 -0.027634896
000230 26 22 a5 3c 7e 2f f1 3b 1c 43 2f 3c a0 49 b7 3c
       0.020157885 0.007360398 0.010697152 0.022373974
000240 18 2b cd 3c e3 8b 92 3c 5d b2 85 bc af 7f 71 bc
       0.025044963 0.017888969 -0.016320402 -0.014739915
000250 0f f6 e5 3b 6a 5a 05 3d 35 dd 32 bb ff e6 4c bc
       0.007017858 0.03255693 -0.0027292494 -0.012506246
000260 6f a5 b5 3c f2 fd cf 3c bb b2 18 ba 64 5f 42 bc
       0.022173611 0.025389645 -0.0005824973 -0.011863563
000270 b1 d8 27 bd 32 a1 14 3b 72 cf 4b 3c c9 06 f2 bc
       -0.040978137 0.0022679088 0.012439596 -0.029544251
000280 7a 8c dd bc fc d1 1f bd 97 31 06 3d d1 13 20 3d
       -0.027044524 -0.039018616 0.032762136 0.0390814
000290 ca 1c 2e 3d e3 a1 19 3d 7a 06 a6 bb e6 f7 90 3c
       0.042507924 0.037507903 -0.00506669 0.017696332
0002a0 d5 3d bf 3c 3a ed 35 bc 0e 12 ce bc c6 29 03 3d
       0.023344913 -0.0111039225 -0.025155094 0.03202226
0002b0 a1 8f ca bb 0d 9c 69 3c cf 89 a3 bc 01 31 c1 bc
       -0.0061816727 0.014258397 -0.019963173 -0.023582937
0002c0 2b 63 1a bc c4 be e1 ba 43 1d af 3c ce 23 d6 3c
       -0.009423058 -0.001722299 0.021376258 0.02614012
0002d0 8c 89 0a bc ae 49 19 3d ad 59 bb bc 6c 41 f4 3a
       -0.008455645 0.037423782 -0.02286991 0.001863522
0002e0 dc e2 d7 bc 8d 7e 94 3b e3 f1 0a 3d 53 f7 17 bd
       -0.026353292 0.0045316876 0.033922087 -0.0371011
0002f0 73 a4 c4 3b 6a 5b 2b bd b2 17 43 bc 7b 74 b0 bc
       0.006001049 -0.041835226 -0.011907505 -0.021539917
000300 fb eb ed ba 3a cd 01 bd d8 15 ed 3b 95 6f 2a bd
       -0.0018151993 -0.03168986 0.00723527 -0.04161032
000310 f0 5b d3 3b 5f 65 96 bc bf 54 de bc 5f 19 09 3d
       0.006450169 -0.018358884 -0.02714002 0.03347146
000320 2f a7 27 3b 89 f7 eb bc 12 4a b0 bc 7d 09 82 bc
       0.0025581827 -0.028804557 -0.021519694 -0.015873665
000330 aa 00 b7 bc d0 da 96 3b 4f e4 ba 38 cd 7e 18 3d
       -0.022339184 0.004603721 8.911697e-05 0.0372303
000340 32 f7 1e 3b a1 1c b9 bc e1 b6 0a 3d 97 7a 0e 3c
       0.0024256227 -0.02259666 0.033865813 0.00869622
000350 f7 51 2a bc 97 ce e7 3c b0 52 0a 3d e6 ae 17 bd
       -0.0103955185 0.028296752 0.033770263 -0.03703203
000360 1e 2c 0d bd c2 6e d9 bc 27 71 11 bd 35 e1 4b bc
       -0.0344659 -0.026542071 -0.0355083 -0.01244383
000370 a1 94 5b 3c 40 b1 1f bd a2 c9 27 bd b8 c0 16 bd
       0.013402135 -0.0389874 -0.040963776 -0.036804885
000380 ae fd b7 bc 81 98 b2 3c fa bd 05 3d 5f 48 1a 3d
       -0.022459831 0.021801235 0.03265188 0.037666675
000390 24 52 11 b9 dd b4 12 bd eb c2 19 3d ce e9 f2 bc
       -0.00013858877 -0.035817016 0.037539404 -0.029652502
0003a0 e1 2d 46 3c fd f9 99 3c 67 19 44 3c 7d 9c 2b 3c
       0.012095899 0.018795962 0.011968947 0.010474321
0003b0 9e 22 27 bd 9f 01 81 bc 47 1a eb bc 6d 93 d7 3c
       -0.040804498 -0.015747843 -0.028699053 0.026315415
0003c0 02 ab bf bc 16 be 26 bb 5f 5a 09 3d 24 45 df 3c
       -0.023396973 -0.002544289 0.03353345 0.027254649
0003d0 52 ea fd bc a9 17 12 bd ca 99 f7 3c a4 1c 1f 3c
       -0.030995522 -0.035667095 0.0302247 0.009711418
0003e0 6a fa 0d bd f8 2d 00 3d 7a fe f9 bc 8e 8f 0e 3d
       -0.03466264 0.03129384 -0.030516852 0.034804873
0003f0 e6 28 f7 3c 80 77 fa 3c 5d 6e c0 bb 30 11 ac 3a
       0.03017087 0.03057456 -0.0058725313 0.0013127681

extractor.3.bias f4 [36]
000000 a1 f8 84 bc 3c db 0e bd d1 f2 be 3c 8f 84 b5 bc
       -0.016231837 -0.034877047 0.023309143 -0.022157935
000010 28 c8 d7 bc 03 48 ed bc 33 42 a8 bb a3 a7 7a 3c
       -0.02634056 -0.028965002 -0.0051348447 0.015298757
000020 a2 18 0c 3c bf ff 9f bc 67 9f 9f bc b5 67 2c 3b
       0.008550795 -0.019531129 -0.019485189 0.0026306931
000030 5e 62 9b bb 19 99 d4 bc d7 78 05 bd 05 d2 63 bb
       -0.004741951 -0.025951909 -0.032585945 -0.0034762633
000040 a6 da 46 bc 25 32 0d bd 2b 59 ca 3c bd 13 fc 3c
       -0.012137091 -0.03447165 0.024700722 0.03077113
000050 ce 95 cf 3c f9 ea c6 3c 91 23 07 bd 1c 71 1a 3c
       0.025339987 0.024281966 -0.032992903 0.009426381
000060 c9 6c 19 3d 50 e8 14 bd 93 f5 fb bc d1 ca a3 3c
       0.03745726 -0.036354363 -0.030756747 0.019994171
000070 18 2f 9c 3c 1d 87 c4 bc a4 a1 26 3d e6 1c 1e 3d
       0.019065425 -0.023990208 0.040681496 0.03860178
000080 55 bf e1 bc 99 cd b2 bb 71 d4 b5 bc a7 e3 0c 3c
       -0.027557055 -0.005456638 -0.022196027 0.008599198

extractor.4.weight f4 [36]
000000 bd cb 7f 3f b8 2b 80 3f bb 8b 7e 3f 0f 63 80 3f
       0.99920255 1.0013342 0.9943196 1.003023
000010 46 9f 80 3f d8 11 7f 3f f6 c4 7f 3f 92 3b 7f 3f
       1.0048606 0.996366 0.99909914 0.9970027
000020 9f ab 80 3f e2 63 80 3f 53 39 7f 3f 2f 57 80 3f
       1.0052375 1.0030482 0.99696845 1.0026606
000030 34 78 7f 3f 02 4c 7f 3f d7 97 7f 3f bc 0f 7f 3f
       0.9979279 0.99725354 0.99841064 0.99633384
000040 f4 76 7e 3f c8 b4 7f 3f 55 ec 7f 3f 4d 98 7f 3f
       0.9940026 0.99885225 0.9996999 0.9984177
000050 63 df 80 3f a7 c8 7d 3f b5 e2 81 3f fe 9d 80 3f
       1.0068172 0.99134296 1.014731 1.0048215
000060 c1 e1 7e 3f 62 ac 7f 3f e8 cb 7f 3f 86 83 7d 3f
       0.99563223 0.9987241 0.9992051 0.99028814
000070 0a bc 80 3f 68 5d 7f 3f 9a 0c 80 3f ed 91 7f 3f
       1.0057385 0.997519 1.0003846 0.9983204
000080 eb 15 81 3f ca 04 80 3f c9 c7 80 3f 21 f3 7e 3f
       1.0084814 1.0001462 1.006097 0.99589735

extractor.4.bias f4 [36]
000000 15 56 6b ba 84 09 d2 3b 93 f6 09 bb 49 1b 9e 3b
       -0.0008977366 0.0064098258 -0.002105151 0.00482503
000010 b4 78 89 ba bd 8e 7f bb 0e 1a fa 39 33 6a 0b bc
       -0.0010488243 -0.003899499 0.00047703128 -0.008509207
000020 5a 1c ba 3a 59 2b 09 3c 77 06 14 bc 11 d2 1b 3c
       0.0014199123 0.008372151 -0.009034744 0.009510533
000030 11 ca 89 bc 5c b9 57 3b 98 c7 66 3b 57 ce 71 ba
       -0.016819986 0.003291688 0.0035214182 -0.00092241674
000040 2a 56 0e bb 1c 3c d8 3b a9 6a c7 ba a5 c5 8e bc
       -0.0021718838 0.0065989625 -0.0015214282 -0.017428229
000050 54 b6 82 bb bc f0 97 ba 07 d7 db bb 78 39 b7 3a
       -0.0039890204 -0.001159213 -0.006708983 0.0013978919
000060 39 59 b2 3a 99 72 88 3a 53 f7 1e bb c6 df a2 bb
       0.0013606913 0.0010410129 -0.0024256303 -0.0049705235
000070 56 83 48 3c 35 cc 39 bc 72 84 00 3c 48 f1 00 3a
       0.012238344 -0.011340191 0.007844077 0.0004918766
000080 35 8a 7b 3b b8 11 74 3a 22 34 28 bc 1f 47 22 3a
       0.0038381938 0.00093105016 -0.010266336 0.00061904074

extractor.4.running_mean f4 [36]
000000 a9 6e bc be ef d0 0c bf 84 b2 6f be a9 c7 f1 be
       -0.36803177 -0.5500631 -0.23407942 -0.4722264
000010 03 71 c1 3e ff bd d0 3d f2 24 f7 3e b6 53 d8 3e
       0.37781534 0.10192489 0.48270375 0.42251366
000020 5f 07 4b 3e f5 f7 40 bf 99 c3 df be 1c da 38 bf
       0.1982703 -0.7537835 -0.43703917 -0.7220781
000030 aa 3c 68 3f 44 3c 94 bd 76 1f eb be 7c 33 4a bc
       0.90717566 -0.07238057 -0.4592244 -0.012341376
000040 c4 ac 50 be 5f aa 45 be 3e f1 bf 3e bc b7 4f 3f
       -0.20378405 -0.19303273 0.3748874 0.8113973
000050 e7 4b af 3e be 03 ae be 3c ce 4d 3f d0 00 cc 3e
       0.34237596 -0.3398723 0.80392814 0.3984437
000060 ad 97 10 be 37 cc b1 be f6 c6 eb 3e 83 b2 3d be
       -0.1412036 -0.34726116 0.46050233 -0.18525128
000070 49 93 4e bf 61 6e 34 3f 7e ed 34 bf 10 d5 08 bf
       -0.8069349 0.70480925 -0.70674884 -0.5345011
000080 52 ef 9f 3e 1f 47 bb bd 93 5f 45 3f 21 4d b7 be
       0.31237274 -0.09144425 0.7709896 -0.35801032

extractor.4.running_var f4 [36]
000000 ac 78 8e 3e 0c 01 eb 3e 20 86 bc 3e 28 e3 17 3f
       0.2782644 0.45899236 0.3682108 0.5933099
000010 67 a1 9a 3e 4c 09 ab 3e be b9 1f 3f cf 1c 26 3f
       0.30201265 0.3340553 0.62392795 0.6488771
000020 98 90 ae 3e 14 c2 8d 3e 0d 87 cc 3e f3 60 4d 3f
       0.3409469 0.27687132 0.39946786 0.8022606
000030 0b 39 a6 3e 2e b5 c6 3e 21 df d0 3e d3 c2 f8 3e
       0.32465395 0.38810104 0.40795234 0.4858614
000040 03 a0 4c 3e 10 4b 58 3f be 30 1b 3f c3 b0 05 3f
       0.19982915 0.84489536 0.6062125 0.5222284
000050 41 d8 e1 3d d5 fe c4 3e 0f 9d af 3e ea cd 2a 3f
       0.11027575 0.3847567 0.34299514 0.6672045
000060 91 2c b4 3e 7b 16 07 3f 75 ef fc 3e 2e 05 ab 3e
       0.3519025 0.5276868 0.4940144 0.3340239
000070 ae cd e9 3e 1d 5b 5f 3f 4a 0e db 3e 7f ec 05 3f
       0.45664734 0.872484 0.4278434 0.5231399
000080 5e 70 28 3f 96 f0 c9 3e 85 6b 02 3f 19 36 0a 3f
       0.6579646 0.39441365 0.5094531 0.53988796

extractor.6.weight f4 [48, 36, 3, 3]
000000 d3 5e 49 bd 9c ef 10 bd 54 7f 55 bd 1d 90 b9 3b
       -0.049162697 -0.03538476 -0.052123383 0.0056629316
000010 56 54 3e bd 83 95 c5 3c 3f e7 27 ba 36 67 20 bd
       -0.046467148 0.024119144 -0.0006405003 -0.03916093
000020 1c 52 00 3d 43 8e 06 3d 38 b4 8e 3c e9 a7 67 bd
       0.031328306 0.032850515 0.01741992 -0.056556616
000030 91 01 4c 3d a3 4d 95 bc b2 2c 5d 3c 09 eb 6b 3c
       0.04980618 -0.018225497 0.013499426 0.0143992985
000040 7f 79 05 bd 31 17 0a 3d 75 1c 0e 3c 45 7b 4a 3d
       -0.03258657 0.033713523 0.008673777 0.049433965
000050 02 e2 25 bd d5 bc 43 bd cd 1e 71 3d f3 a7 76 bc
       -0.04049874 -0.047787506 0.058867265 -0.015054691
000060 33 98 17 3d 5a f9 18 bd d1 43 22 bc ac 69 5f 3d
       0.037010383 -0.037347175 -0.009903864 0.054544136
000070 27 80 56 3d 93 ad 48 3d 76 22 05 3c 0c bb 77 3c
       0.05236831 0.04899366 0.008125892 0.015120279
000080 b7 b4 c0 3c bc d5 af bc 5a c5 0c bd 76 e2 22 3d
       0.023523672 -0.021464221 -0.034367897 0.03976675
000090 47 23 2b 3d 42 31 77 3d c6 d2 df bc c6 f0 44 bd
       0.04178169 0.06034971 -0.027322184 -0.048081182
0000a0 6b 57 63 3d cf 24 a6 3c 9f 94 53 bc 99 2f 27 bb
       0.05550329 0.020281224 -0.012913852 -0.0025510548
0000b0 6e 33 1d bd ee bd 2c bd f8 fe b8 bb e3 89 17 bd
       -0.038379125 -0.04217332 -0.005645629 -0.036996733
0000c0 34 a5 b5 3b 5f ac d8 bb a4 9d 93 3c 7a e4 3a bd
       0.0055433754 -0.006612345 0.018019505 -0.04562805
0000d0 33 eb 33 3c 87 a3 35 3d bb 0e d8 bc d2 a1 5b 3d
       0.010981369 0.044345405 -0.026374212 0.05362112
0000e0 fa c0 24 bd 80 d6 c2 3c 61 40 2c 3d 3b ba 5b bc
       -0.0402231 0.023783922 0.042053584 -0.0134111
0000f0 36 36 fb bc 61 52 ce 3c ca ab 10 3d 7b df 3d 3b
       -0.030665498 0.025185766 0.03532008 0.0028972316
000100 a7 cb ad bc 05 d9 42 3d 2c 89 21 bd a3 02 07 bd
       -0.021215273 0.047570247 -0.039437458 -0.0329615
000110 49 db c7 bc 98 8b c3 bc 96 7b 0c bd 93 54 5b bc
       -0.024396555 -0.023870274 -0.03429755 -0.013386863
000120 8f bc 16 3d a6 e4 32 bd 7c b7 85 3b 4c cb 07 3b
       0.036800917 -0.043675087 0.004080711 0.002072054
000130 2c 24 0b 3d 9d 0c fe 3c aa bc df bb 1a 2b aa 3c
       0.033970043 0.031011874 -0.0068279104 0.020772506
000140 0a e3 5f bc 67 2d 42 3c 1d 03 15 bc 11 74 af 3c
       -0.01366497 0.011851645 -0.009094981 0.02141765
000150 22 1a 93 3c 3d 10 8d bc a4 46 60 3d 1c 66 56 3d
       0.017956797 -0.017219657 0.05475487 0.052343473
000160 e3 d0 8c 3c ed cc b0 bb 60 73 40 3d ae f0 26 3d
       0.017189449 -0.005395523 0.04698503 0.040756874
000170 ca 23 3a 3d 10 f9 6a 3d 8e 05 a3 bb fb 33 be bc
       0.045444287 0.05736643 -0.0049750274 -0.023218146
000180 c3 89 b3 bc fe 33 39 3c 50 64 43 bd 09 31 4a bd
       -0.021916276 0.0113039 -0.047703087 -0.04936317
000190 40 de 55 3c 04 63 f1 bc 8a 24 0f 3c d6 71 19 3b
       0.013053477 -0.02946616 0.008736739 0.0023413799
0001a0 7e ed 2a bd 40 0c 7a 3c 1c 37 1a 3d 95 ac 70 3d
       -0.041730396 0.01526171 0.037650213 0.058758337
0001b0 2c 4d 48 bc 6c 23 3b 3d a3 30 2e bd 26 87 20 3d
       -0.01222543 0.045688078 -0.042526852 0.039191388
0001c0 83 a7 01 bd fc 87 cb bc 53 47 3a 3c 18 2a 9d 3c
       -0.031653892 -0.024845116 0.011369544 0.01918511
0001d0 8a 38 a3 bb 78 bf a6 3c 63 8c b1 bc 6d 18 87 bc
       -0.004981105 0.020354971 -0.021673387 -0.01649114
0001e0 17 11 3b bc 1c 11 65 3d a3 54 62 3d 6c 31 1d bd
       -0.011417649 0.05592452 0.055256497 -0.03837721
0001f0 0d 55 84 bc d4 fb 43 3b e9 8a 32 3a f8 9f a7 39
       -0.016153837 0.002990474 0.00068108604 0.00031971908
000200 be 6b de 3b 29 9f 63 3d ef 71 4f bd 6d 5a 55 3d
       0.006787746 0.05557171 -0.050645765 0.05208819
000210 ec 0e ac bc 3b e9 13 bd ce 5a 48 3d 89 a4 d2 bc
       -0.021003209 -0.036111098 0.048914723 -0.025713222
000220 5b d6 17 bd fe b6 27 bd 8d 1a 55 3d fa e0 5c 3d
       -0.03706966 -0.040946 0.052027274 0.053925492
000230 6b 38 02 3d 45 1e 4c 3d 46 d1 29 bd b4 4c 3c bd
       0.031792086 0.049833555 -0.041459344 -0.045971587
000240 06 24 2b 3d 44 4e 09 bd 00 91 27 3d 20 d0 c5 bc
       0.0417824 -0.033521906 0.040909767 -0.024147093
000250 7b a7 7f bc e9 90 2f bd b8 7c 1c 3d 9d 91 09 bd
       -0.015603895 -0.042862806 0.03820488 -0.033586133
000260 86 a4 d2 3c 79 6f 1a bd b5 a8 2b 3d ea 72 1d bc
       0.025713217 -0.037703965 0.04190894 -0.009609917
000270 a8 39 18 3b ad df 84 3c 53 e3 ac 3c b0 40 42 3d
       0.0023227725 0.016219938 0.02110449 0.047424972
000280 50 f4 09 bc f6 10 a2 bc f3 c2 ac bc e4 26 64 3c
       -0.008420065 -0.019783478 -0.021089053 0.013925288
000290 c9 23 00 3c b1 aa 1e 3d c8 f6 4d bd 17 81 c0 bc
       0.007821032 0.038737003 -0.050284177 -0.023499055
0002a0 e6 5f 4f 3d b2 d1 42 bd b2 f8 23 3d 99 d2 1c 3d
       0.050628565 -0.047563262 0.040032096 0.03828678
0002b0 dd 35 26 3c 67 b0 52 bc 2c 69 8d 3c 94 e4 24 bd
       0.010144678 -0.01285944 0.017262064 -0.04025705
0002c0 c5 1d 07 bd 87 17 ca bc 86 6d 06 3c b7 af 0b 3d
       -0.032987375 -0.024669422 0.008204823 0.03410312
0002d0 bb 08 10 bd ed 56 3b bd f0 b2 0f 3c 49 e8 2b 3d
       -0.035164576 -0.045737196 0.008770689 0.04196957
0002e0 f8 38 64 3d 8a d5 d4 3c e5 51 03 3d 8a cc 08 bd
       0.055718392 0.02598073 0.032060523 -0.03339819
0002f0 df 91 85 3c 27 b9 94 3c 4e 83 00 3c 3c 57 12 3d
       0.016304908 0.018154694 0.0078438055 0.035727724
000300 29 3b f7 bc 8d dc a9 bc fe 19 6b 3d 63 ff 59 bd
       -0.030179577 -0.02073505 0.057397835 -0.05322207
000310 5c 71 a8 bc ce bb 9a bc 30 ec 1e 3d 0a 1b 17 3c
       -0.020561866 -0.01888838 0.038799465 0.009222755
000320 92 4e e8 3b d2 15 65 ba 8c 78 c4 bc 09 2c 0a 3d
       0.0070894444 -0.0008738908 -0.023983262 0.0337334
000330 24 0d 1e 3d d8 42 8a bb 73 8a 57 3d 29 f2 f8 3b
       0.03858675 -0.004219394 0.05262227 0.007597227
000340 ef 1a 8f bc 4e 1c e7 3b b8 34 63 bc 21 0f 38 3d
       -0.017468898 0.0070529347 -0.01386755 0.044936303
000350 f6 46 05 3d 43 ae b0 3c dc fd 1f bc 13 a6 12 3d
       0.032538377 0.02156747 -0.009765115 0.035802912
000360 43 53 5a 3c 9e 33 39 bc 09 bf 3d bd 5b a5 28 3c
       0.013325515 -0.01130381 -0.046324763 0.01029333
000370 e6 6d 82 bb 27 7a 2c 3b 23 dd 26 3c 95 69 29 bd
       -0.003980386 0.0026317926 0.010184559 -0.041360456
000380 73 88 3f 3d 8d 3c 4e bc cd 5a 01 3d ad de a0 3c
       0.046760987 -0.012587679 0.031580735 0.01963743
000390 e8 1a e5 3b 97 bf 54 bd b6 01 04 3d 02 12 ce 3b
       0.006991733 -0.051940527 0.032228194 0.006288768
0003a0 9b 71 5c bd d8 01 36 bc 0c 46 2c bd 64 c8 c3 bc
       -0.05381928 -0.011108838 -0.04205899 -0.023899265
0003b0 74 69 1a bd ac a1 21 3d fd 0b 5f 3d f5 a0 c4 3c
       -0.037698224 0.039460823 0.054454792 0.024002532
0003c0 3a 79 69 3d 13 86 00 3d 09 2a 03 bd 55 e9 8e 3c
       0.057000376 0.031377863 -0.03202251 0.017445246
0003d0 f7 e6 ad 3a e0 90 46 3d 95 94 a8 3c 53 e2 91 bc
       0.0013267685 0.048478007 0.020578662 -0.017808115
0003e0 fe 87 35 3d 86 55 79 bc 60 f6 00 3d a5 bb 2a bd
       0.044319145 -0.015218144 0.03148496 -0.041682858
0003f0 20 7d 45 bd 3e dc cb bb 20 75 ba 3c 6d 65 ae 3c
       -0.04821503 -0.0062213233 0.022760928 0.021288598

extractor.6.bias f4 [48]
000000 cf 72 d4 3b 63 69 3f bd 89 dd 5a bb a2 d6 2e bd
       0.006483413 -0.046731364 -0.0033396205 -0.04268516
000010 88 b0 32 3d c8 c3 1f bc 54 40 84 bb 21 22 63 3d
       0.043625385 -0.009751268 -0.004035989 0.05545247
000020 4c c6 1f 3c 82 51 d1 3c 1f 85 42 bd 62 43 35 bd
       0.0097518675 0.025551561 -0.047490235 -0.044253714
000030 49 ac f0 3c e9 4e e2 3c dd 25 4f bd da 01 2d 3d
       0.029379027 0.027625518 -0.05057322 0.042238094
000040 64 90 60 bc 42 72 11 3d df bb 5a 3d 0d bb 2b bd
       -0.0137063 0.035509355 0.053401824 -0.041926432
000050 66 ab cf 3b 4d 5d 54 bd 1f 94 d3 bc ea 3c 95 bc
       0.006337571 -0.05184679 -0.025827466 -0.018217523
000060 ab d6 bb bc c6 3c 07 3d fe 6f 77 3c 39 db db 3c
       -0.02292951 0.033016942 0.015102385 0.026837932
000070 37 dd d1 3c 11 82 7d 3c bb 7a b7 3c ee 0a ac bc
       0.025618179 0.015472905 0.02239739 -0.021001305
000080 b4 6d 37 3d bd ae 26 3c f8 d3 3a bc 5a 53 16 3a
       0.044782355 0.010173497 -0.011403076 0.0005734466
000090 55 07 8b bc 03 77 24 3c 3d 97 40 3d a6 b2 35 bd
       -0.01697127 0.01003814 0.047019232 -0.044359826
0000a0 e8 2a 39 bd 29 af af bc e9 ca 17 3b 83 eb 27 3d
       -0.045206934 -0.021445828 0.0023161715 0.040996086
0000b0 23 ae 08 3d bb ba 4a 3d af 15 ab 3c 21 d2 25 bd
       0.033369195 0.049494486 0.020884363 -0.040483598

extractor.7.weight f4 [48]
000000 88 05 7f 3f a5 67 81 3f 1a 0c 80 3f df ea 81 3f
       0.99617815 1.0109755 1.0003693 1.0149802
000010 8a ae 7e 3f 7b fd 7f 3f 81 7e 81 3f 1c 62 7e 3f
       0.99485075 0.99996156 1.0116731 0.99368453
000020 9f f0 7f 3f fb 32 80 3f 88 86 80 3f 75 60 7f 3f
       0.99976534 1.0015558 1.0041056 0.99756557
000030 7c 01 81 3f 9e 53 80 3f fd 50 7f 3f d1 fb 7e 3f
       1.0078578 1.0025518 0.99732953 0.9960299
000040 9d 8f 80 3f e5 7d 80 3f 30 e8 7e 3f 8b 51 7f 3f
       1.0043827 1.003842 0.9957304 0.997338
000050 49 d8 7f 3f d9 f7 80 3f 5a 2f 80 3f d4 e1 7e 3f
       0.999394 1.0075637 1.001445 0.99563336
000060 0b 38 80 3f a2 56 7f 3f 5a 85 7f 3f 9e d1 7e 3f
       1.0017103 0.99741566 0.99812853 0.995386
000070 88 88 7f 3f 3f e6 7e 3f ac 28 7f 3f 88 55 7f 3f
       0.99817705 0.9957008 0.99671435 0.99739885
000080 9c 20 7f 3f 8f e5 7f 3f 97 c4 7f 3f f2 e2 7f 3f
       0.9965913 0.99959654 0.9990935 0.99955666
000090 34 fa 7e 3f 46 48 80 3f a8 3f 7e 3f 8f d0 7f 3f
       0.9960053 1.0022056 0.9931588 0.9992761
0000a0 96 65 7e 3f 45 12 80 3f 41 19 7e 3f c3 a1 7e 3f
       0.9937376 1.0005575 0.99257284 0.9946558
0000b0 07 e0 7f 3f 0b a5 80 3f 9e 1f 7f 3f 96 56 80 3f
       0.99951214 1.0050367 0.9965762 1.0026424

extractor.7.bias f4 [48]
000000 48 cb 0b bc 24 2a 8f bc 06 82 ac 3a bd c7 5d bc
       -0.008532353 -0.017476149 0.0013161309 -0.013536391
000010 67 d5 55 ba c2 51 ea ba 7d f7 36 bc d9 e8 c0 bb
       -0.00081571046 -0.0017877149 -0.011167404 -0.0058871326
000020 4c d4 d4 3b bd e4 51 bc 77 70 11 3c 4d 06 cc ba
       0.0064950343 -0.012810883 0.008876911 -0.0015565843
000030 61 06 47 bc a1 bf ee 3b 52 e7 95 ba 18 ae 51 ba
       -0.012147517 0.0072860275 -0.0011436737 -0.0007998659
000040 ff 40 f3 3b e6 cf 38 bb 2e 76 8a 3a cd a5 ba b8
       0.0074235196 -0.002820009 0.0010563785 -8.900054e-05
000050 d2 f2 44 bb 7b 08 17 bc 31 fd 85 bc ed 41 a7 ba
       -0.0030051959 -0.0092183305 -0.016356083 -0.0012760736
000060 53 8c 94 bb 53 ec bd ba 23 b4 9a 3b 82 9a 44 bb
       -0.0045333295 -0.0014489986 0.004721181 -0.002999932
000070 1a 6b 04 3b 26 00 74 bb 7a 1c 52 ba 6c 46 94 38
       0.002020544 -0.0037231534 -0.00080151076 7.070307e-05
000080 92 00 73 3a 76 d2 d5 3a b2 09 42 bb c5 d2 08 bc
       0.00092697993 0.0016313333 -0.002960783 -0.008351033
000090 b2 26 8e bb 8b f5 ef bb 7c 37 0a bb f2 3d 67 bb
       -0.004338109 -0.007322972 -0.00210902 -0.0035284725
0000a0 e5 4f b4 ba c2 a0 9e bb 34 a3 5d bb 5c 0e 11 bb
       -0.001375672 -0.004840941 -0.00338192 -0.0022133803
0000b0 cb 9d a9 3a fa 13 0c 3b cd 68 91 bb 14 6b c7 bb
       0.0012940703 0.0021374212 -0.004437542 -0.0060857628

extractor.7.running_mean f4 [48]
000000 f5 b7 17 3f f1 cf 09 3f ce 88 a9 be 29 70 ad 3e
       0.5926507 0.5383292 -0.33112186 0.33874634
000010 8e 3f 99 be 28 20 21 3e 99 7a d1 3e 0f 6e a1 3d
       -0.299313 0.15734923 0.40913847 0.0788232
000020 4d e5 e7 bc eb b3 2c 3f ee db 97 be 4a 45 07 be
       -0.028307581 0.67462033 -0.2965998 -0.13210025
000030 71 63 ec 3e 4f c6 2a be 55 9c 2e be 17 40 c1 bd
       0.46169618 -0.16677211 -0.17051823 -0.09436052
000040 27 e7 b1 be 69 27 9c 3e a9 28 6e be e8 ff 08 3e
       -0.34746668 0.30498818 -0.23257698 0.1337887
000050 b3 ac 92 be ed 74 ff 3e dc fa e7 3e 90 75 01 3d
       -0.28647384 0.49893895 0.45308578 0.031606257
000060 ca 15 ca 3e 5e a2 cb bd 71 9c c1 bc 1f 39 71 3d
       0.3946975 -0.099430785 -0.023634167 0.058892366
000070 3d 81 cd 3d 67 a1 d8 3e 81 b5 f0 be 2e 7c d6 3d
       0.10034416 0.4231064 -0.47013476 0.10472904
000080 d8 16 46 3e 02 09 50 bc f4 50 90 3e 08 6f 38 3e
       0.19344652 -0.01269746 0.28186762 0.18011105
000090 56 58 d3 bb 5b 93 97 3e 75 6d 2b be 25 96 94 3e
       -0.0064497394 0.2960461 -0.16740973 0.290208
0000a0 15 fa cd be 0c d5 6d 3e 69 93 4c be 34 53 9f bd
       -0.4022986 0.23225802 -0.19978108 -0.077795416
0000b0 c9 f9 a1 3d a9 fa 85 3c 06 76 b0 3e ab de 51 3e
       0.07908971 0.016354876 0.34465045 0.20495097

extractor.7.running_var f4 [48]
000000 58 97 1e 3e 57 ba 8e 3e e7 df 9b 3e 9b 01 7e 3e
       0.1548742 0.2787654 0.3044426 0.248053
000010 48 41 88 3e d6 3e 81 3e 0d 7b e6 3d 4a d6 ad 3d
       0.26612306 0.25243253 0.11253939 0.08488138
000020 01 e8 8f 3e 79 5c 9e 3e 63 dd 38 3e 15 c5 df 3e
       0.28106692 0.30929926 0.18053202 0.4370505
000030 cf 19 5d 3e f3 64 82 3e d4 31 6c 3e 34 98 77 3e
       0.21591876 0.25467643 0.23065883 0.24179155
000040 8d 77 fc 3e 58 ec 48 3e 59 f4 5a 3e 26 f3 70 3e
       0.4930996 0.19621408 0.21382274 0.23530254
000050 0b ec 37 3e 84 91 8f 3e 1d 3a 8b 3e dd 6f 3d 3e
       0.17961137 0.28040707 0.27192774 0.18499704
000060 f8 cc 26 3e fd d9 e9 3e a1 00 71 3e 52 fa 00 3e
       0.16289127 0.45674124 0.23535396 0.1259549
000070 81 5b 99 3e ca cf 0a 3e 60 d4 42 3e bf a9 e6 3e
       0.29952624 0.13555828 0.19026327 0.4505138
000080 79 d6 0f 3e 33 f2 11 3e 55 95 3b 3e 0c 08 05 3f
       0.14046659 0.14252548 0.18318684 0.51965404
000090 3b 56 ef 3e d7 a9 bb 3e d0 6e 8a 3e cc c4 aa 3e
       0.46745476 0.36653015 0.27037668 0.3335327
0000a0 f4 cb 4d 3e c4 eb 1a 3e f1 9d 1e 3e c8 b7 a3 3e
       0.20097333 0.15129 0.15489937 0.3197615
0000b0 58 80 1e 3f 10 e7 9a 3e 4d df 5f 3e f4 61 8d 3e
       0.6191459 0.30254412 0.21862526 0.27613795

extractor.9.weight f4 [64, 48, 3, 3]
000000 11 29 3d 3d fd 91 28 3d a8 f5 44 3d 32 cf d4 3c
       0.046181742 0.04115485 0.04808584 0.025977705
000010 b0 94 e5 bb 9c 62 95 3c 98 59 bb bb 73 36 40 bd
       -0.0070062503 0.018235497 -0.0057174675 -0.046926927
000020 66 37 7b 3b 9c de 14 3d e9 1e 70 3b ee 4a 6c bb
       0.003833258 0.03634511 0.0036639518 -0.0036055404
000030 6b 58 dc 3a 49 53 d8 3c ab 8e e1 3c 78 85 e1 b9
       0.0016811019 0.026406901 0.02753385 -0.00043014786
000040 e7 15 46 bd 95 80 46 bd 8f 9c d7 bc 39 4e d8 3c
       -0.04836073 -0.04846247 -0.02631977 0.026404487
000050 16 4a 73 bc df 19 2e 3d 47 e1 4d 3b 6b 50 30 3c
       -0.014849206 0.04250514 0.0031414793 0.010761361
000060 18 77 0a bd 75 e9 e2 bc 8a 90 a7 3c a9 8e 79 3a
       -0.033804983 -0.027699212 0.020454664 0.0009519854
000070 93 24 1f bd ff e0 a8 bc 81 76 2a 3d 08 b4 09 3d
       -0.03885324 -0.020615099 0.04161692 0.033618957
000080 f8 2f 17 bb e6 53 25 bd c7 b3 39 ba ed 7d 12 bc
       -0.0023069363 -0.040363215 -0.0007083979 -0.008941156
000090 a1 71 e1 bb a6 bb 4f bc 28 22 cb 3c 1e bb 66 bc
       -0.0068800007 -0.012679016 0.02479656 -0.014082698
0000a0 48 4d ef 3c 91 9e 28 bd 65 de 3b 3d b4 d9 cd bb
       0.029211655 -0.041166846 0.04586639 -0.0062820558
0000b0 cb 2c 54 bc 7b 08 4a bd 81 e8 4c bd 3f 55 29 bd
       -0.012950133 -0.049324494 -0.05002642 -0.041341063
0000c0 27 d8 a9 bc 64 b4 96 3c f4 f6 2a 3d 02 99 0c bd
       -0.020732952 0.018396564 0.04173942 -0.034325607
0000d0 b3 da 08 3c 7f a8 44 b9 3b dd 03 bd 17 0c 02 bd
       0.008352923 -0.00018754786 -0.032193404 -0.03174981
0000e0 94 02 3b bd 93 0a 21 bd 3e fb 16 3d 15 80 1f bd
       -0.045656756 -0.039316725 0.036860697 -0.038940508
0000f0 0a 6d 0c bd b8 51 12 3d a7 f9 43 bd 55 cd 0d bc
       -0.034283675 0.035722464 -0.04784551 -0.008654912
000100 27 43 d5 bc c2 c2 29 bd 7b 32 bc 3c e4 f6 fe 3c
       -0.026032997 -0.0414455 0.02297329 0.031123586
000110 88 f4 15 3d 7e 1e 4c bd 9e 49 30 3d 00 5e 22 bc
       0.036610156 -0.049833767 0.043038957 -0.009910107
000120 66 44 68 bc b5 1d 31 3d d2 05 91 3c c4 30 87 3c
       -0.014176464 0.04324122 0.01770297 0.016502745
000130 a6 13 c4 3a c4 6a b4 bb fd 8f fb 3c 11 a2 14 3d
       0.0014959469 -0.0055058915 0.030708307 0.03628737
000140 37 61 3f bd 00 d1 39 bd 27 01 37 bb 35 60 9b 3c
       -0.04672357 -0.045365334 -0.002792427 0.018966774
000150 84 1a da b9 f9 4f 2a 3c 2e 9a 7c bb 3c 50 db bb
       -0.00041599956 0.0103950435 -0.0038544047 -0.0066929143
000160 f4 49 2a 3d da b8 cc 3c 1c 5a a7 3a b6 0c 08 bd
       0.041574433 0.024990488 0.0012767944 -0.033215247
000170 1b 14 85 3c cd 53 2e bd 2d 30 0d bd 32 d2 d5 3c
       0.016244939 -0.042560387 -0.034469772 0.026101205
000180 50 14 ac bc 7e c3 b9 3b 63 3e 08 bd 45 ef 0f 3d
       -0.02100578 0.0056690564 -0.03326262 0.035140295
000190 42 d2 14 bd 25 ae 02 39 80 69 ec 3c d1 b7 b1 bc
       -0.03633333 0.0001246264 0.0288589 -0.021694096
0001a0 dc 71 50 bd 3d 04 02 3c e0 7c ed bc 20 73 3d 3d
       -0.050889835 0.007935581 -0.02899021 0.04625237
0001b0 78 dd 68 3a 72 32 e6 3c 98 cc 00 bd d1 32 40 bd
       0.0008883099 0.028100226 -0.031445116 -0.046923462
0001c0 f1 b0 f6 bc 24 9e 80 3b 57 3a 88 3c 10 ac 87 bb
       -0.03011367 0.003925102 0.016629381 -0.0041403845
0001d0 71 a9 51 bc 00 3f b4 bc be eb 09 3d 2f 35 05 bd
       -0.012796746 -0.022002697 0.033672087 -0.032521423
0001e0 e0 c8 1e 3d d9 1e 99 3b 16 3d 40 bd 1c 83 89 3c
       0.038765788 0.004672867 -0.046933256 0.01678615
0001f0 80 a1 69 bc dc 86 d2 bc 26 c7 8f 3b c5 f5 c8 bc
       -0.014259696 -0.025699072 0.004387754 -0.024531255
000200 12 a8 16 3d 8e cd 33 bd ee 39 a3 bc 40 d5 ee 3c
       0.036781378 -0.043897204 -0.019925084 0.02915442
000210 ef 48 21 bd cb fa 0f bd 83 2b 1b 3b d1 b4 b6 bc
       -0.039376196 -0.035151284 0.0023677058 -0.022303017
000220 93 b6 d6 bc a5 2d 18 3d ab bf e8 ba 60 f7 08 3d
       -0.026210105 0.037152905 -0.0017757317 0.03343904
000230 89 14 8d bc 62 69 84 bc 99 58 2b 3d 92 bb 35 3d
       -0.017221706 -0.016163532 0.04183254 0.044368334
000240 cc cf 39 3b 70 ce 1e bd b2 8c 0b 3d 54 c4 a7 3c
       0.0028352616 -0.038771093 0.034069724 0.020479359
000250 1b 67 45 3d 3b 9e 22 3d dc db 0b bd 33 2b d5 3c
       0.048194032 0.03970168 -0.03414522 0.026021576
000260 06 ad 6f bc a4 5b 2c bd 19 69 36 bd 62 f8 49 bd
       -0.014628654 -0.042079583 -0.044533823 -0.049309142
000270 31 2f 2e 3d f4 6d bf bc 4a 36 dc ba 17 e2 0e 3d
       0.042525474 -0.02336786 -0.0016800847 0.034883585
000280 8b 8a f0 bc ca 7d 07 bd bd fb b3 bc c8 54 dd 3c
       -0.029362937 -0.033078946 -0.021970624 0.027017966
000290 10 49 1d bd ab 7c 03 bd bf f1 24 bd a6 0b 6f bc
       -0.038399756 -0.032101315 -0.04026961 -0.01459018
0002a0 cf 9b 90 bc 07 57 dc bc 0a a8 82 bc 62 64 e5 bc
       -0.01765242 -0.026896967 -0.015949268 -0.028001968
0002b0 72 58 11 3d 88 8d 27 3d c6 7b 89 3c d9 7d 22 bd
       0.03548474 0.04090646 0.016782653 -0.0396708
0002c0 04 9b a1 ba 65 8b 01 3d 71 96 87 3a e5 3a b8 bc
       -0.0012329523 0.031627078 0.0010344518 -0.02248902
0002d0 9e c9 22 bd b4 0d 28 bd 30 e7 8a 3c ac 0b c2 bc
       -0.03974306 -0.041028693 0.016955942 -0.023687206
0002e0 37 55 69 3c 47 d1 eb bc 67 99 1c 3d 26 34 28 bd
       0.014241508 -0.028786315 0.038232233 -0.041065358
0002f0 99 47 31 3d 59 cc 93 3c db 3a 2d bd c2 52 53 3c
       0.04328117 0.018041776 -0.042292457 0.012898149
000300 d0 55 f5 3b 7a 67 e5 3c ee 6b 39 bd cf 0e 31 3c
       0.0074870363 0.028003443 -0.045268945 0.010806753
000310 11 b0 8e 3c d7 5a e1 bc 83 b9 3d bd 25 93 06 bd
       0.01741794 -0.027509136 -0.046319496 -0.03285517
000320 95 98 ab bb 86 be 8a 3c 31 14 38 3d 7e 04 4a b9
       -0.005236695 0.016936552 0.04494113 -0.00019265895
000330 22 71 e7 3b 84 ad 40 bd 87 4c de bc 83 9d 0d 3d
       0.007063047 -0.047040477 -0.0271361 0.034574043
000340 21 df 10 3b a0 24 0e 3d 48 82 c5 bc 24 0b db bc
       0.0022105651 0.034702897 -0.024109975 -0.02673871
000350 71 50 9f bc 7b e8 91 3c cf 9f 15 bd 39 9d 87 3c
       -0.019447537 0.01781105 -0.03652936 0.016554462
000360 fb ba 3b 3d 8a b3 55 bc 6a ee 9e bc 9c 85 25 bc
       0.045832615 -0.013043294 -0.019400794 -0.010102656
000370 cc 0a d8 3a 63 62 fe bc 4d 9f 18 bd d0 aa f5 bc
       0.001648271 -0.031052774 -0.037261296 -0.029988676
000380 d8 a2 d3 3c a9 cf d9 bc 37 90 3f 3d 35 32 3c 3c
       0.025834486 -0.026588278 0.046768393 0.01148658
000390 64 2a 36 3c 8f 1a 7d 3c 9b 4a 9d bc 97 52 61 3c
       0.011118505 0.015448227 -0.019200614 0.013752601
0003a0 2c 2b 1c 3d 93 81 42 3d d8 b4 05 bd 17 e9 9a 3c
       0.03812711 0.047486853 -0.03264317 0.018909974
0003b0 f0 34 2f bd 53 ff 95 3c 79 8b 2a 3d ea 94 67 3c
       -0.042775095 0.018310225 0.041636918 0.014134625
0003c0 1f 68 91 bb 5f ff 2d 3c 8c d7 62 3b c3 1d 70 bc
       -0.004437461 0.010619967 0.003461334 -0.014655533
0003d0 17 ae cd bc d3 16 eb bc 1e 17 f6 bc 63 34 52 3c
       -0.025107427 -0.028697407 -0.03004032 0.012829873
0003e0 ce 09 02 3d 18 10 4f 3c c9 ba e1 3b 82 c5 c8 bc
       0.03174763 0.012638114 0.0068887216 -0.024508242
0003f0 f5 34 f8 bc b4 0e c7 3b a9 3c 83 3c 23 20 21 3c
       -0.03029869 0.006074751 0.016020136 0.009834322

extractor.9.bias f4 [64]
000000 43 88 c2 bb 12 3e 85 bc b9 b8 08 bc d7 b9 14 bc
       -0.005936654 -0.016264949 -0.008344823 -0.009077511
000010 42 44 16 3d 1b 2a 4d bc 04 b6 c0 3c 24 b5 81 3c
       0.03668619 -0.012522246 0.023524292 0.015833445
000020 98 8b e3 bc 54 27 05 bd 0e e8 a7 bc 38 1a e4 bc
       -0.027776524 -0.03250821 -0.020496394 -0.027844533
000030 3a 4c c5 3c 3f 20 03 3d 9a 23 25 3d 1f 04 b3 bc
       0.0240842 0.032013174 0.040317155 -0.021852551
000040 80 7c 33 3d df a6 99 bc 7b 2c 9d 3b d0 56 3c 3d
       0.043819904 -0.018756328 0.0047965623 0.04598123
000050 19 e4 a6 3c 3e ed 4f bc 91 99 11 bd 4a 6f 16 bd
       0.020372437 -0.01269084 -0.035546843 -0.036727227
000060 c2 ae ae bb 88 40 3c 3d 0a f9 c0 3c 0b 8a 1d 3d
       -0.0053308913 0.04595998 0.023556251 0.038461726
000070 59 08 39 bc 4a e0 05 3d 9c 1c b5 3c 79 4c 88 3c
       -0.011293494 0.0326846 0.022108369 0.016638028
000080 5c 58 84 3c aa a7 d0 3b ff fd ba bc 51 94 91 3c
       0.016155414 0.0063676434 -0.022826193 0.017770918
000090 51 e4 37 bc ee 94 e0 3c cb e0 ef 3c 7d 26 13 bd
       -0.0112238685 0.027414765 0.029281994 -0.035925377
0000a0 0c 17 38 bd 08 89 f4 bc 06 7a 09 3d 70 1f d8 bc
       -0.044943854 -0.029850498 0.033563636 -0.026382178
0000b0 81 50 1e 3d 53 1c ff bc 66 2f 37 bd 22 b3 d9 3c
       0.038650993 -0.031141436 -0.044722937 0.026574675
0000c0 5d fe 1a bd 47 0b e5 3c 1a 7b 6e bc 47 8b 38 3d
       -0.037840236 0.027959479 -0.014555717 0.0450547
0000d0 9f 27 e3 3c f1 70 6b 3c 6f ad f2 3c 62 7c 39 bd
       0.027728854 0.014370189 0.029623715 -0.045284636
0000e0 a8 0f 35 3d 9b b2 1c bd 1f 85 2d bd f5 d9 be bb
       0.044204384 -0.03825627 -0.042363282 -0.0058243223
0000f0 d8 af bb 3c c6 e0 0c bd 04 12 45 bc 84 59 13 bd
       0.022910997 -0.03439405 -0.012028221 -0.03597404

extractor.10.weight f4 [64]
000000 da 25 80 3f 3d 19 7e 3f f7 ec 80 3f 61 b1 7f 3f
       1.0011551 0.9925726 1.0072316 0.99880034
000010 72 84 80 3f 04 e0 7d 3f 21 f7 7f 3f 3b 53 7f 3f
       1.0040419 0.99169946 0.99986464 0.99736375
000020 5e 59 81 3f f5 cf 7e 3f aa 0f 81 3f 8d 2c 81 3f
       1.0105398 0.9953607 1.0082905 1.0091721
000030 23 23 7f 3f 68 e3 7e 3f de a2 7d 3f ce 73 81 3f
       0.9966299 0.99565744 0.9907664 1.0113466
000040 36 fb 7e 3f e8 bf 80 3f 3f 89 7d 3f ba 9c 7e 3f
       0.9960207 1.0058565 0.99037546 0.99457896
000050 d1 6a 80 3f 10 86 7e 3f 6e 48 7e 3f f7 18 81 3f
       1.0032598 0.99423313 0.9932927 1.0085744
000060 f4 55 80 3f b5 03 80 3f f7 a5 7d 3f ae c1 7e 3f
       1.0026231 1.0001131 0.9908137 0.9951428
000070 0f 28 7e 3f 59 ea 7d 3f b4 c4 80 3f f4 02 80 3f
       0.99279875 0.9918571 1.0060029 1.0000901
000080 89 37 7d 3f 78 98 81 3f a0 62 7e 3f 56 72 80 3f
       0.98912865 1.0124655 0.9936924 1.0034893
000090 91 fb 7e 3f 9d 66 80 3f 8b 50 81 3f 0e 00 7f 3f
       0.9960261 1.0031315 1.0102705 0.9960946
0000a0 85 d3 7f 3f 38 c7 80 3f 63 e3 7e 3f d0 0e 7e 3f
       0.9993213 1.0060797 0.99565715 0.9924135
0000b0 83 51 7e 3f 87 f6 7f 3f 0c cb 7e 3f 9a 13 80 3f
       0.99343127 0.99985546 0.99528575 1.0005982
0000c0 40 6a 7f 3f c3 00 7f 3f 83 08 7f 3f 2d df 7d 3f
       0.997715 0.9961054 0.9962236 0.99168664
0000d0 4f 03 7f 3f 7b 20 80 3f cb b3 7f 3f 5d ea 7e 3f
       0.99614424 1.0009912 0.9988372 0.9957636
0000e0 eb b8 7e 3f 29 c2 80 3f 56 3c 80 3f 51 8d 83 3f
       0.9950091 1.0059253 1.0018413 1.0277501
0000f0 bd 9e 81 3f 61 64 7d 3f 8d a1 80 3f 6e 55 7f 3f
       1.0126568 0.9898129 1.0049301 0.9973973

extractor.10.bias f4 [64]
000000 d7 e8 e4 3b a2 b2 06 bc 1f 3e ba bb 39 70 23 3b
       0.0069857645 -0.0082213 -0.005683675 0.0024938716
000010 c6 7e a0 bb 34 72 42 bb 1b 5d 1f 3a 67 81 e9 bb
       -0.004897925 -0.002967012 0.00060792424 -0.0071260217
000020 e8 2b d2 bb ad 87 43 bb fd 8f 1e bc b2 fd d3 3b
       -0.0064139254 -0.0029835508 -0.009677884 0.006469452
000030 49 b0 ce b9 35 9f 09 38 da 67 d5 39 f5 5f 48 bc
       -0.00039422725 3.281162e-05 0.000407039 -0.012229909
000040 d7 73 79 bb a4 dd e0 bb ed 7e 97 bb 99 a3 34 ba
       -0.003806343 -0.006862359 -0.004623285 -0.0006890833
000050 85 2b 07 bc e0 42 5b ba 5f 47 aa bb 09 ae 21 bc
       -0.008250122 -0.0008364152 -0.0051964964 -0.009868153
000060 b7 f4 74 3a e2 1b 0c bb 27 81 b2 bb be 96 67 bb
       0.00093443267 -0.0021378924 -0.005447525 -0.0035337652
000070 a2 fc bb bb ce 5d 8d bb df 3c 6b bc 8e 1d 7a 3a
       -0.0057369033 -0.004314161 -0.0143577745 0.0009541147
000080 09 31 0f bc 0c f7 a2 bb 4e 27 0b bb 87 12 18 bc
       -0.008739718 -0.004973298 -0.0021233144 -0.009281761
000090 d3 bc 3a bc 53 7a 10 3c 14 21 bf bb 50 d0 29 bc
       -0.011397558 0.008818227 -0.0058328006 -0.010364607
0000a0 be c1 65 3a 53 3c bd bb 27 06 a7 ba 4e c9 66 bb
       0.00087645266 -0.0057750135 -0.0012742922 -0.0035215202
0000b0 07 a3 5b bb e3 0b b6 bb 8c ad cd bb 7e 39 af bb
       -0.003351392 -0.005555616 -0.006276792 -0.00534743
0000c0 df ff 02 bc ca 41 cc b8 81 cc aa ba e1 3c 80 bb
       -0.007995575 -9.739732e-05 -0.0013030918 -0.0039135073
0000d0 dc 2c 39 ba 1e b5 71 bb be 17 9f 3b 6a ba 11 3a
       -0.00070638745 -0.0036881636 0.004855125 0.0005559089
0000e0 bc dc 68 ba 59 e1 dc bb d7 82 a1 bb 9b 9d 3c ba
       -0.00088829896 -0.0067407307 -0.0049289274 -0.0007195116
0000f0 1a 8b 86 bb aa 10 64 ba aa 6a 2c 3a f4 25 77 bb
       -0.0041059377 -0.0008699993 0.00065771735 -0.003771183
