gpl/results/il/ep_100.ckpt (torch, 773626 bytes, 43 tensors)

extractor.0.weight f4 [24, 3, 5, 5]
00000000: 058f 0f3e 831a e23c 2f53 4a3d 3120 fc3d
00000010: 5c21 1dbd 7773 8e3d 2e5f cabc b803 673d
00000020: 6b26 cd3c e826 27bc 20a2 3a3d 43b5 843c
00000030: e1ab 3c3d ae9b 39bd 2817 a5bc d17d 743d
00000040: 2af5 ad3d 8af8 893d 4d71 133e 3bf2 9f3d
00000050: a173 b4bd 91fa dcbd 1a0b 8bbd 93c5 e6bd
00000060: 7278 e6bd e2d2 2e3c aa5a 993d ecb3 5f3d
00000070: f955 ffbd 3c3b 7a3d 7a90 51bd fcf7 f53c
00000080: 6b83 95bb 7f83 32be 96f9 3dbe a427 06be
00000090: a949 b83c cc2c dcbd bba3 57bd 205d 32be
000000a0: b777 e63d 59ab 71bd 809b b83d df24 14bd
000000b0: 16ba bbbd 7077 25bd 1366 24be 2576 7fbd
000000c0: 807b 22be e39d 10be a0bd a3bd 10b7 c2bc
000000d0: f0bb ad3d b83f 32bc 8646 053e ce7f 383d
000000e0: e1b1 4abd f238 fdbd ea8b fe3c 2ad1 32bc
000000f0: 16fa d4bd 57f3 343d 4528 d63c abce 473d
00000100: de8e 08be 9fed 233d 6cb4 543d 077b 923d
00000110: a09d 87bd e7b6 72bd 0f56 273d 5942 32bd
00000120: dac1 e03c d20a 3abd 1df9 e8bc 2880 6abd
00000130: e06b 25bd 7f68 2d3b 478f 1fbe 66a1 123d
00000140: ac0e 56be ff30 58be f8c1 98bd e9f3 bdbd
00000150: 4752 ee3c 8a25 30be eff0 4dbe c194 aa3c
00000160: d5b6 84bd 196d 893d 71cc b2bd 3b06 4bbe
00000170: 2e5f 87bd 0abd 40bd 10c4 d3bd 0abe 0cbe
00000180: 8310 e6bc b381 62bd e4e7 f9bd 166a 9bbd
00000190: 09e2 dc3d 942b c9bc 72fb a83d 83d3 8e3d
000001a0: 466f 1dbd 8488 cfbd 8471 d23d 1828 973c
000001b0: 4e4f da3d b41a 663d 43ae 363d ce73 bf3d
000001c0: 4cb6 063e f633 efbc 980c 933d 8006 c13d
000001d0: 7d3d ce3d 59c9 b33d c494 7dbd 878a 33bd
000001e0: 9aa1 f6bd 3b72 d7bc dbee ad3d 9597 d1bd
000001f0: 075a 6a3d 42ec 06be 9b9d 39be 348e 7fbd
00000200: c161 053d a111 ba3d 6e3c 14be a7b4 56bd
00000210: e964 853d 3c0a 6e3d bb42 8d3d c393 3a3d
00000220: b547 173d 95ec f63c 9691 62bd 2fc3 35bd
00000230: 0fb8 87bd d921 a4bc a3bd 80bd a5fe 5c3d
00000240: f108 a23d 8d57 f9bc 351b 3e3d 26d0 643d
00000250: 75c2 b13d 3013 f93d 6cc4 b2bd d191 843d
00000260: 4139 81bd c840 86bd c9c3 2cbe a5cb 0bbe
00000270: 4b55 09be 01b8 e8bd 81c4 723c 8881 bebd
00000280: fb2f 99bd ce3a 4b3d 51ce 3c3d 9d89 b13d
00000290: f92e 39bd 287d d13d d8f7 163d 85f0 613d
000002a0: 0d5f 58bb 07fc 2a3d f426 323d 17cc f33d
000002b0: 41cd d63d ce3a 043e d5af 653e 1eda eb3d
000002c0: 9ae0 a63d 487e aa3b 1c6e bebd b28a 943d
000002d0: 1dea 75bd b492 4dbd e909 13be d573 94bd
000002e0: 39d0 f9bd 317e 023e d514 b1bd cb7e acbd
000002f0: ab17 b03b 839f 6abd 3768 9f3d 51da eabb
00000300: 41a7 b1bc b44a 483d 9059 013e eade 46bd
00000310: 56c2 9a3d cff9 d43d 70b2 253e 9f9c f7bc
00000320: 85ff e93c e38d b1bd ba83 c13d 9127 75bd
00000330: d38f 603d 330c 20bd 3b01 71bd 19f0 58bd
00000340: 4892 08bd 1066 793c 4127 a43c 14f2 f83c
00000350: 0a80 d9bd 7b59 ae3d 6cf2 df3d 32fc ec3d
00000360: 6394 da3d 1491 61bd c98e babb 8054 183e
00000370: b44a b0bd 8c37 cc3d 3be2 a4bd 606a 61bd
00000380: 1f0a c53d ac71 d6bc 0eee 213d f7a0 283e
00000390: b234 443e 7b9a 5d3e 73ee 82bd 9d45 07be
000003a0: 5bdb c03d 38ed 0dbd 710c 07bd cd31 86bd
000003b0: 7095 34be 4837 313b 78ea 033c eb09 13be
000003c0: 4820 19be 70b3 87bd a88f 273c 181d 4dbd
000003d0: 8046 c5bd 129d 21bd 8422 1cbe 7bda fabd
000003e0: 0fbc 07be c0fb 393d d62c b83d 1498 1ebd
000003f0: 9836 e13b 137d a33d 3891 6e3d 713d 14be
0.14019401 0.027600532 0.049395736 0.123108275 -0.038361892 0.06955617 -0.024703588 0.05640003
0.025042733 -0.010202147 0.04556477 0.016199714 0.046062354 -0.045314483 -0.020152643 0.0596903
0.08494027 0.06736858 0.1439869 0.07809874 -0.08811117 -0.10789979 -0.06789227 -0.11268153
-0.11253442 0.010670396 0.07487996 0.054614946 -0.1246757 0.061091647 -0.051163174 0.030025475
-0.0045627854 -0.17432974 -0.1855224 -0.13101059 0.022496061 -0.10750732 -0.05264638 -0.17418337
0.112533025 -0.0590013 0.09014034 -0.036167976 -0.091663525 -0.040397108 -0.16054563 -0.06236853
-0.15867424 -0.14122729 -0.079951525 -0.023768932 0.08483112 -0.01087945 0.13015184 0.04504376
-0.049486045 -0.12364377 0.031072576 -0.010914126 -0.103992626 0.04417738 0.026142249 0.04878108
-0.1333575 0.040021535 0.051929876 0.07152372 -0.066218615 -0.05925646 0.040853556 -0.043520305
0.027436186 -0.045420475 -0.028439099 -0.057251126 -0.04038608 0.002645999 -0.15582 0.035798453
-0.20904034 -0.2111244 -0.074588716 -0.09275038 0.029091967 -0.1720182 -0.2011144 0.020822885
-0.06480185 0.06710262 -0.087304 -0.19826595 -0.06609951 -0.04705528 -0.1034013 -0.13744369
-0.028084045 -0.055299472 -0.12202433 -0.07588594 0.107853 -0.024556912 0.082510844 0.069739364
-0.038436197 -0.1013346 0.10275558 0.018451735 0.106596574 0.05617781 0.044599783 0.0934826
0.13155478 -0.029199582 0.071801364 0.09425068 0.10070322 0.087786384 -0.061909452 -0.04383328
-0.12042542 -0.026299587 0.08492824 -0.1023399 0.057214763 -0.13176063 -0.18126528 -0.062391475
0.03256393 0.09085394 -0.14476177 -0.052418377 0.06513388 0.05811523 0.068974935 0.045551073
0.03693362 0.030142108 -0.055314623 -0.044375595 -0.06626903 -0.020035671 -0.0628617 0.053953785
0.07911862 -0.030437255 0.046412665 0.05586257 0.08679668 0.12161863 -0.08728871 0.06473125
-0.063097484 -0.06555325 -0.16871561 -0.13651903 -0.13411443 -0.11363221 0.014817358 -0.0930205
-0.07479855 0.049616627 0.046095196 0.08668826 -0.045210812 0.1022895 0.036857456 0.055161018
-0.003301564 0.04174426 0.04349418 0.119041614 0.10488368 0.12913057 0.22430356 0.11516212
0.08148308 0.005203042 -0.092983454 0.072530165 -0.06003772 -0.050188735 -0.14359249 -0.07248656
-0.121979184 0.1274345 -0.086465515 -0.08422621 0.005373915 -0.05728103 0.07783549 -0.0071671386
-0.021686198 0.048899367 0.12631822 -0.04855243 0.07556598 0.1039921 0.1618135 -0.03022605
0.028564224 -0.08669641 0.09448953 -0.059852187 0.05482466 -0.039074134 -0.058839064 -0.05296335
-0.03334263 0.0152220875 0.020038249 0.03038887 -0.10620125 0.08513161 0.1093491 0.1157154
0.10672834 -0.055069998 -0.005693291 0.14875984 -0.086079985 0.09971532 -0.080509625 -0.055033088
0.09621071 -0.02617725 0.039533667 0.16467653 0.19160727 0.21640961 -0.06393137 -0.13210149
0.09416839 -0.034650058 -0.03297085 -0.065524675 -0.17635131 0.0027041007 0.008051507 -0.14359252
-0.1495372 -0.06626022 0.010227121 -0.050076574 -0.096325874 -0.039456435 -0.15247542 -0.12248703
-0.13255332 0.045406103 0.08992927 -0.03871925 0.006872963 0.079828404 0.05824396 -0.14476563

extractor.0.bias f4 [24]
00000000: a078 a73d 2829 193d be96 88bd 9ed3 9f3d
00000010: 33f8 a4bd ebb3 663d 1719 c1bc 2087 0c3d
00000020: 6d3a 4abc f492 b03c 15a9 06bd 4d4a 443d
00000030: 3733 5b3d 0460 d2bd 4a9d d13d ad2a c0bd
00000040: 37de 56bd 315f 3f3d 83d7 d43d 7037 213d
00000050: c0a0 83bd cedf 9f3c a039 89bd f7f8 573d
0.08177304 0.037392765 -0.06669377 0.07804035 -0.08055153 0.056323927 -0.023571534 0.034308553
-0.012343031 0.021554448 -0.032876093 0.04792242 0.05351564 -0.1027222 0.10235079 -0.0938314
-0.052458014 0.04672164 0.10392668 0.03935951 -0.06427145 0.019515898 -0.06700444 0.052727666

extractor.1.weight f4 [24]
00000000: c7d1 693f 276f 643f 8442 623f 21e3 593f
00000010: 466c 873f 3671 863f a6c8 603f e340 803f
00000020: a1aa 7f3f 0a82 723f 5010 7f3f 8b8d 563f
00000030: 1305 673f 928f 7e3f 05dd 6e3f 1084 753f
00000040: 9983 873f 6cc1 833f a642 553f dc62 7b3f
00000050: d74b 593f c8a7 a53f 2a11 3e3f 185f 613f
0.9133572 0.89232105 0.88382745 0.85112196 1.0579917 1.0503299 0.87806165 1.0019802
0.99869734 0.94729674 0.99634266 0.8380973 0.9024212 0.9943782 0.93306 0.95904636
1.0587035 1.0293403 0.8330482 0.9819772 0.8488135 1.2941828 0.7424494 0.88035727

extractor.1.bias f4 [24]
00000000: 9dc5 2abe 4f69 4ebe 8a27 3dbe daa6 83be
00000010: 6e1a a3bc d8f0 63bd f2d9 45be eb69 cdbd
00000020: 45bb fa3d 1d25 72bb fe9a b73c fef3 99be
00000030: 1b49 79be ea1f f8bc 8ec5 09be c288 70be
00000040: 54d9 b83d 4883 88bd 4b6f 5abe 4ab7 ccbd
00000050: 4952 efbd 37f3 233e 2a34 77be 00b6 37be
-0.16676946 -0.2015736 -0.18472114 -0.25713235 -0.019910064 -0.05564961 -0.19321421 -0.10029968
0.1224275 -0.003694839 0.022412773 -0.30068964 -0.24344294 -0.030288655 -0.13454267 -0.23489669
0.09025827 -0.06665665 -0.21331517 -0.09995897 -0.116856165 0.16010748 -0.24140993 -0.17940521

extractor.1.running_mean f4 [24]
00000000: 108c 79be c655 32be 724b a43d 51ef 223c
00000010: a45c 2cbe cffb 8abe a01f e3bd e8fc 3bbe
00000020: 05df e43d 91bf 813e ff83 3abe 70c7 f1bd
00000030: 2d0a 3cbf 9f3c 09be 0a31 adbc 5ffb aebe
00000040: b9b7 a4bd d376 e13d e175 f5be d191 283d
00000050: 618b 5b3e 9ca9 833c 0880 71be d689 53bd
-0.24369836 -0.17415532 0.080222026 0.009944753 -0.16832215 -0.2714524 -0.11090016 -0.18358195
0.1117535 0.25341466 -0.18214415 -0.11805618 -0.73453027 -0.13402031 -0.021141548 -0.34176156
-0.08042855 0.11008992 -0.47941497 0.041154686 0.21439888 0.016072087 -0.23583996 -0.051645122

extractor.1.running_var f4 [24]
00000000: 0952 9d3c fd30 493d 21f4 c23c dadd b63b
00000010: 2887 ed3c 3659 aa3c fb18 763c a39e 603d
00000020: 0ea6 233d e168 4d3c 6afa 433c ec8b 5d3c
00000030: b8ae 103e d93a 913c e281 ed3b fe2c 8b3c
00000040: 2863 873c cfeb e43b 461c f23d 94ed 0d3c
00000050: cd66 f93c a7e9 803c b78f 583c 4d4e 393c
0.019204156 0.049118984 0.02379805 0.005580646 0.028995112 0.020794492 0.015020604 0.054838788
0.039953284 0.012537212 0.011961559 0.0135221295 0.1412915 0.017728256 0.0072481493 0.016989227
0.016526774 0.0069861184 0.11821799 0.0086626 0.030444527 0.015736414 0.013217858 0.011310172

extractor.3.weight f4 [36, 24, 5, 5]
00000000: e4e8 b73a 089a 003b bd9b 0abc 24fe 1d3d
00000010: 2a43 b83d dadf 96bd a96e b4bc 438d 0dbd
00000020: 3b36 00bb e505 a03d 7adb 82bd 5cb8 38bc
00000030: 20b3 093d 438e ed3c 6515 f9bb ebe2 b03c
00000040: 8d0a 203d 952b adbb d3e0 8b3c 98d3 6f3c
00000050: 69be c53b 158d 873d 7501 67bc eb1c 83bc
00000060: a889 e0bc 71ee 273d b4dd 953d c0f5 be3b
00000070: 367b c83d d8ac 103d b259 a2bd d322 023b
00000080: 13ff 6ebc 5abb 08bd 3622 d2bb 28a2 05bd
00000090: 3270 bcbc fb9f 02ba cdfa 9cbd d7a3 ddbd
000000a0: a4f0 533c 843e b23c 4428 823c 3565 6abc
000000b0: 72ee 8d3d c8a8 a3bc 25d9 c6bc b994 c8bc
000000c0: 169d 713c e11a 833d 6bce a8bd 5a3c 043a
000000d0: ae65 0d3d 8bc3 f03c fd8d 273d dea9 9d3d
000000e0: 0b98 ee3d 2cc5 083e 71e2 3c3d ab61 bf3d
000000f0: f772 953d 30d6 c83d 616c 8b3c e74b 2c3c
00000100: f4eb 29bd 3b62 09be 8461 05be 91fb fdbd
00000110: 7b1f d4bd 929e 8fbc e028 cd3c 772d 1a3d
00000120: b815 a03a 8190 733a 8471 b3bb b849 213d
00000130: 9268 103c f5d7 973c de94 8d3d d887 853d
00000140: e72c cabd 193a 50bd 45e4 8cbd 4b46 123d
00000150: f56c 48bc 4d26 b7bb a865 7dbd 82a6 c2bc
00000160: a3e2 96bc f4ce f0bc 85be 1abd 5629 0e3c
00000170: d29b bebc f697 1fbd 7b9b 443d 39aa 69bc
00000180: 868f 3fbc 1712 bebc 0814 453d 4cb4 893c
00000190: a568 f5bc 3b20 cb3c beb7 eabc e076 903d
000001a0: c395 5e3b 2b4d fbbd d947 fabd b5f1 89bd
000001b0: 05fa 0fbd dcee 823d 323f 3dbd 9fb3 e33c
000001c0: c1a0 7b3c e9ab ae3a 1607 25bc cef9 14be
000001d0: 3ff2 b0bd fc47 06bc 4493 8e3b 85e4 573d
000001e0: 55af a03b 9ace 3c3d ccb3 e93c ff00 623c
000001f0: 8a1f 063d 5029 bbbd 1bd9 43bd a981 d4b9
00000200: f651 a1bc 885a 1f3d a961 56bc 5a62 c83d
00000210: 8b99 f63d aac3 253e 682f 323e 2150 71bd
00000220: d310 2dbd c649 123d 5a14 4dbc 4fc1 693c
00000230: 0e08 06be 5147 b8bd 5fa7 4abd 6a61 a0bc
00000240: ad5f c53b d115 f9bd aefe 08be e346 c7bd
00000250: 9df0 8abd e72f 06bd 5f9e 673b 20e1 b23b
00000260: f7e9 25bd 83a6 263d b45a c43c 9122 d4bd
00000270: ee91 92bd a93b 89bc 65e7 593c 11cf debc
00000280: 9210 c4bd 4ae1 8abd ccf8 81bb 9b50 adbb
00000290: a8f4 8e3c 8732 283d e258 3e3d db3a bb3d
000002a0: 0f32 023e f7ce 873d d481 c2bd 3a34 aaba
000002b0: e6ff bfbc 0512 573d ea77 7d3c 5707 a3bb
000002c0: fa75 c33c 5c96 803d 39ec 853d ddec e83d
000002d0: 7d3e da3d 96b6 f43d 8b39 893d 2689 2a3c
000002e0: b007 10bc 6d46 333d 80f7 153d 3f22 01be
000002f0: 090c eebd 2524 28be fb0b 3cbd f1c1 98bd
00000300: a7a8 81bd c58a 9cbd f3b8 15bd a12a 19bc
00000310: ee80 833d 2595 583d afff 143c 3352 c03d
00000320: 4f9f 0c3b 1029 0abd 881f 4dbd ac0f 83bd
00000330: e0e6 61bd 24ca 6abc f047 60bc 24fa 833a
00000340: e590 66bd 5aed ccbd 171d 6e3c ec4f 043d
00000350: d164 06bc bb90 b43c d8ed 10bb aea6 e0bd
00000360: a3fc c0bd 031b 95bd a816 c1bd 4028 9fbd
00000370: b676 b4bd 889a 34be 4dae 54be 45a4 3fbe
00000380: f748 d0bd fd51 a73d 58d9 4d3d 3740 913d
00000390: 0858 173c 9792 373d 3624 003d 0e70 04bd
000003a0: 6c7f 6a3b fbe0 f33c 74fb d53c 0f2e 92bd
000003b0: 1cc9 27be 3461 10be cba3 15be 7941 77bc
000003c0: fe60 3bbc 7a3f 6d3c 08c9 9e3d 51f2 963d
000003d0: b7af 2dbc 05e4 633d 8d56 893d d091 503d
000003e0: 099e 0abd d165 c63c 617a c1bd 8719 f73c
000003f0: 0186 4a3d c4ac 643d c94e 093d 1fbe a83c
0.0014031199 0.001962306 -0.008459982 0.038572446 0.089971855 -0.07366915 -0.022025423 -0.034558546
-0.0019563574 0.07813624 -0.06389518 -0.011274423 0.033618093 0.0289985 -0.0076014274 0.021592578
0.039072562 -0.0052847364 0.017074978 0.01463785 0.0060346616 0.06618706 -0.0140994685 -0.016005
-0.02740939 0.04099888 0.07317677 0.0058276355 0.097891256 0.035321087 -0.07927264 0.0019857183
-0.014587182 -0.033381797 -0.0064127697 -0.032625347 -0.023002718 -0.00049829454 -0.07665024 -0.108222656
0.012935791 0.021758325 0.01588834 -0.014306356 0.069302455 -0.019977942 -0.024273464 -0.024484979
0.014746925 0.06401611 -0.08242496 0.00050443935 0.034520797 0.029390117 0.040906895 0.07698415
0.11650094 0.13356465 0.04611439 0.093448006 0.072973184 0.09806478 0.017019453 0.010516143
-0.041484788 -0.13416378 -0.1302548 -0.12401498 -0.10357567 -0.017531667 0.025043905 0.037641015
0.0012213504 0.0009291247 -0.0054761786 0.039376944 0.008813994 0.018535594 0.0691316 0.06520051
-0.09871846 -0.050836656 -0.068794765 0.035711568 -0.012233009 -0.0055892826 -0.061864525 -0.023761038
-0.018418616 -0.029395558 -0.03777935 0.008676847 -0.02326766 -0.03896328 0.04799984 -0.014261776
-0.0116919335 -0.023201985 0.048114806 0.016809605 -0.029957125 0.024795642 -0.028652068 0.070539236
0.0033963777 -0.12270578 -0.12220735 -0.06735555 -0.035150547 0.06393215 -0.046202846 0.027795611
0.015358151 0.001332638 -0.01007249 -0.14548418 -0.08639955 -0.008195873 0.0043510515 0.052708168
0.0049037137 0.046095468 0.028528117 0.013794183 0.03274492 -0.09138739 -0.04781447 -0.00040532395
-0.019692402 0.038904697 -0.013084807 0.09784384 0.12041005 0.16187921 0.17400897 -0.058914308
-0.042252373 0.035714887 -0.012517059 0.01426728 -0.1308901 -0.089979775 -0.049476024 -0.0195777
0.0060233683 -0.12162364 -0.13378403 -0.097303174 -0.067841746 -0.032760527 0.00353422 0.005458966
-0.04050633 0.04068614 0.023969032 -0.103581555 -0.0715674 -0.016752081 0.013299798 -0.027198346
-0.09573473 -0.06781252 -0.0039664265 -0.00528915 0.017450646 0.04106381 0.046471484 0.09142085
0.12714408 0.06631272 -0.09497419 -0.0012985535 -0.023437452 0.05250742 0.015470484 -0.00497524
0.023859967 0.06278679 0.065391965 0.11373303 0.1065645 0.11948888 0.067004286 0.010408675
-0.008790895 0.043768335 0.036612988 -0.1261072 -0.11623389 -0.16420038 -0.045909863 -0.074588664
-0.06330996 -0.07643656 -0.036553334 -0.009348542 0.06421076 0.05287661 0.009094163 0.09390678
0.002145726 -0.033730567 -0.0500789 -0.063994735 -0.05515182 -0.014330421 -0.013689026 0.0010069055
-0.056290526 -0.10006209 0.014533303 0.032302782 -0.008202747 0.02204167 -0.0022114422 -0.109692916
-0.09423187 -0.07280543 -0.094281495 -0.07771349 -0.08811705 -0.17637074 -0.20769615 -0.18715008
-0.10170167 0.08169935 0.050256103 0.07092326 0.009237297 0.044817533 0.031284533 -0.032333426
0.0035781516 0.029770365 0.026120879 -0.07137691 -0.16385311 -0.1409958 -0.14613263 -0.0150912935
-0.011436699 0.014480466 0.077531874 0.07370437 -0.010600976 0.05563738 0.067059614 0.050920308
-0.03384212 0.024218472 -0.0944717 0.03016354 0.049444202 0.055828825 0.0335224 0.02059847

extractor.3.bias f4 [36]
00000000: 30f7 84bc 54d3 0ebd 3c27 bf3c 5d7a b5bc
00000010: 61e5 d7bc a838 edbc f9b4 a8bb dcf3 793c
00000020: 0248 0c3c 9726 a0bc 39b1 9fbc 56c2 2b3b
00000030: f9dc 9abb e4a4 d4bc ac81 05bd 3b54 65bb
00000040: 6402 47bc b238 0dbd 15f9 c93c a72f fc3c
00000050: 4cac cf3c 5feb c63c 839c 07bd 54cd 1a3c
00000060: 3063 193d 9bf0 14bd f0e7 fbbc 0ec3 a33c
00000070: b066 9c3c 4e7c c4bc f1c0 263d 1332 1e3d
00000080: bb92 e1bc a2aa b2bb 479a b5bc 8bdd 0c3c
-0.01623115 -0.034869507 0.023334138 -0.022153074 -0.026354494 -0.02895768 -0.0051485267 0.0152558945
0.00856209 -0.019549651 -0.019493686 0.0026208363 -0.004726049 -0.025957532 -0.032594368 -0.0034992832
-0.012146566 -0.034477897 0.024654904 0.030784441 0.025350712 0.024282156 -0.033108246 0.009448368
0.03744811 -0.03636227 -0.030750245 0.01999047 0.019091934 -0.023985054 0.040711347 0.038621973
-0.027535787 -0.00545247 -0.022168292 0.008597742

extractor.4.weight f4 [36]
00000000: 10a8 7d3f 478e 803f 585b 4b3f 0521 7c3f
00000010: f25f 6c3f 9083 813f 9d2f 803f 9085 563f
00000020: 8656 793f 4f1a 6c3f 4209 813f 99cc 4d3f
00000030: 0263 6f3f 5c9f 6b3f 0df0 553f 2a92 733f
00000040: b588 6f3f 34d6 833f ea66 8a3f 6ddf 7f3f
00000050: 6e26 6f3f f33a 643f d524 8e3f e2fa 683f
00000060: e28e 843f ca05 763f bba6 843f d8d8 683f
00000070: 3e53 803f 28d6 4c3f 3d73 703f e47d 763f
00000080: 8924 883f 60bc 753f e2ed 793f b2e7 753f
0.9908457 1.004342 0.79436255 0.98487884 0.923339 1.0118275 1.001453 0.8379755
0.9739765 0.92227644 1.008095 0.80390316 0.9351045 0.9204004 0.83569413 0.95144904
0.93567973 1.0299745 1.0812657 0.99950296 0.93418014 0.8915245 1.110499 0.91007817
1.0356104 0.96102583 1.0363382 0.9095588 1.0025403 0.80014277 0.9392584 0.96285844
1.063615 0.9599056 0.97628605 0.96056664

extractor.4.bias f4 [36]
00000000: d1fb 1ebe 8923 90bd 7893 79be 8011 61be
00000010: 8165 59be 5cf0 fb3c fdd9 11be 89cc 3ebe
00000020: 87ab 26be 7d37 cbbd 0e2e d3bd 6bc8 3cbe
00000030: 75ea a5be a8f0 c8bd 14ba 69be c2c7 f6bd
00000040: 477a 70be fdc0 6bbd a78d 85be 193b 6bbe
00000050: ba86 4bbe 27e5 1bbe 84eb 45be a245 18be
00000060: 9207 d7bc f056 07be 46b9 49be ec08 0cbe
00000070: 6c41 83bd d58a b2be 6cab ffbd 8b90 d2bd
00000080: c015 68be f4d2 fdbd 6d0c 8dbe 32f1 ebbd
-0.15525748 -0.07038028 -0.24372661 -0.21979332 -0.21230127 0.03075426 -0.14243312 -0.18632711
-0.1627637 -0.09922693 -0.103115186 -0.18435828 -0.3240544 -0.098115265 -0.2282489 -0.120498195
-0.23484145 -0.057557095 -0.26084635 -0.22971763 -0.19875613 -0.15224133 -0.19328123 -0.14870313
-0.026248727 -0.13216758 -0.19699582 -0.13675278 -0.064089626 -0.34871545 -0.12483868 -0.10281476
-0.22664547 -0.12393752 -0.27548543 -0.11520614

extractor.4.running_mean f4 [36]
00000000: c49e ecbf c583 96bf 9f4a 12c0 09a1 3bc0
00000010: 8d12 84bf b167 a9bf 3f2b 50bf a2d7 04c0
00000020: df76 8040 6b11 bac0 93d3 4ebf 8e93 a13f
00000030: 70b0 6e3e 8ced 37c0 45cb 08c0 1405 86bf
00000040: a449 edbf c9a8 2dc0 19cb b9be 123f 8f3f
00000050: a60f 74bd 2098 3cbf 64ce f8be e5bf c83f
00000060: fca5 e83d 3730 45be 5ed6 bf3e e0fe cfc0
00000070: ebfc 27c0 ea1d 0fc0 9279 61c0 055a 4bc0
00000080: c3a6 05c0 1d38 4dc0 be13 b3bf b378 d5bf
-1.8485951 -1.1758963 -2.2858045 -2.9317038 -1.0318161 -1.3234769 -0.8131599 -2.0756612
4.0145106 -5.814626 -0.80791587 1.2623155 0.23309493 -2.8738737 -2.1374066 -1.04703
-1.8538098 -2.7134268 -0.36287764 1.1191123 -0.059585236 -0.73669624 -0.48594964 1.5683562
0.11359784 -0.19256674 0.37468237 -6.4998627 -2.624812 -2.2362008 -3.523045 -3.1773694
-2.0883033 -3.20655 -1.39904 -1.667746

extractor.4.running_var f4 [36]
00000000: cbc1 6540 b9ed c440 fae5 8c41 8290 fb3f
00000010: 6460 9540 2864 f240 64ad 1e40 5da6 9440
00000020: 34ed c641 6497 bd41 4836 5f40 4223 c740
00000030: b2d6 d040 6817 8140 5b64 6040 66e6 ce40
00000040: 44cf 1b40 7e28 7740 1b39 aa40 2625 5440
00000050: a578 1b40 7603 0141 e336 f83f a62e c741
00000060: 4c0e 2541 daf5 2c40 8c79 3b40 7dbd 1641
00000070: f125 b040 f285 ce40 40de 0441 47e8 ae40
00000080: dd76 2140 0426 da40 47ab 8540 ea4f dc40
3.5899532 6.154019 17.612293 1.9653475 4.6680164 7.574726 2.479333 4.645308
24.865822 23.698921 3.487688 6.223054 6.526208 4.034107 3.5061252 6.465625
2.4345255 3.8618464 5.319471 3.3147674 2.4292386 8.063345 1.939175 24.897778
10.31599 2.7025056 2.9292936 9.421262 5.5046315 6.4538507 8.30426 5.465854
2.5228798 6.8171406 4.177158 6.884755

extractor.6.weight f4 [48, 36, 3, 3]
00000000: 5cf2 a2bd b06f b6bc 0aed 8abd 31ae 663b
00000010: 4eb7 71bd 8464 2cbd ee0c 803b a0bd 82bb
00000020: 9b24 333d ec09 613d adb3 5f3c 3315 bebd
00000030: 2785 d63d ff4b 993c b997 393d 4aa1 f7bc
00000040: 5918 6bbd 628e df3c 89e8 cabc 6ece 713d
00000050: b093 0cbd 3caa acbd b9bf 853d 54b6 09bd
00000060: 3c12 483d 004d fe3b cb89 df3b a0fa 623d
00000070: 38c0 cd3d ae4d 5d3d ae74 873c d1d8 423d
00000080: e578 413d 806e 40bd 3810 33bd ae9c 8d3c
00000090: 4d74 0a3c 3c02 7e3c d9d3 87bd cbe0 6eba
000000a0: b5ce 703d fd63 bc3c b538 73bd 4e51 b0bc
000000b0: d68f 1dbd fc04 dbbb aac6 373b d2e1 bcbd
000000c0: ef53 a7bc ab1d 833b eab6 9b3c 6fa3 3b3c
000000d0: 5f64 793d 0e6b 9a3d 90ac 113d 3538 663d
000000e0: c098 a5bd 8fc6 01be 2278 6ebd b587 c0bd
000000f0: 9cc0 5d3d c87c fc3c d4ab 113d f119 bbbd
00000100: 6045 7dbd ed8c d6bb e805 3e3d b6af 92bc
00000110: 6969 78bd 4e47 95bc b1a6 d0bc 6752 c5bc
00000120: 396c bf3d 6725 b63b 9bb4 9d3d 3831 4e3b
00000130: 23cd 533d 86e6 7e3d aeb6 c53c b260 2c3d
00000140: 4559 ee3c 9aa5 57ba 1f09 773d 24cf 333d
00000150: 7da1 dabc 2bfd 2bbc 7ae8 7a3d e533 523d
00000160: da5c 8a3d 7031 503d fdfb c63d 1309 e33d
00000170: c357 ce3d 1563 5d3d c21a a23a 369e 81bd
00000180: 5aaf c13c bd73 963d 9c38 cc3c 4526 cabc
00000190: d0f5 183d 7d2e c7bc 488d 3f3d 072e fd3c
000001a0: 4ecf 16bd 0dde c63c 0346 693d c9fa 0b3d
000001b0: 7411 313c d8bc 343d 248d 86bc ba99 f6bc
000001c0: b475 9cbd 696f 81bd 3770 f83d f94e ad3d
000001d0: 55ac 1b3d d36d 583d 3ab2 26bd c815 e43c
000001e0: eef3 353d cff5 d43d 7677 923d fce3 343c
000001f0: 23a5 d33b f481 383d 10cc 1e3d 75ee cc3c
00000200: 05f1 163d abe3 ce3d 4482 593c 8c35 8f3d
00000210: 2a2e c1bc 228e 2fbc e914 8b3d 4523 abbd
00000220: d4fe e8bd 7258 05be 5a05 6f3d da92 a13d
00000230: 0d67 053d 9b75 773d 65bd 75bd 736d d1bd
00000240: 55dc 69b8 f320 a2bd 8776 3dbd e0a3 b1bd
00000250: 8f57 dfbd a59b fbbd e42f 033d b119 a7bd
00000260: f45c 49bd 290d c0bd 1e9e 063d dde3 11bd
00000270: 6244 1b3d 1b83 903d f3fa 9a3d 9ad2 b53d
00000280: 51e4 5f3d a0d0 34bd e4b3 713d 44a3 26bd
00000290: 3827 eebc 02c4 05be aa60 10be 0d47 d6bd
000002a0: 63e2 633e 1028 5ebd a043 903d 6c1a 733d
000002b0: 4b7e 49bc 0ac8 aeba db6f dfbd efa3 f5bd
000002c0: e827 dcbd ee41 9a3d 0337 ed3c 9647 863d
000002d0: da7c b1bd 4d66 babd b8a3 19bd 28b9 81bb
000002e0: 086b 763d 2696 273d adf3 143d 448b 43bc
000002f0: d74c 523d edfc e0bc 24c3 1f3c 5ecd 013d
00000300: e1b6 e8bb 08f3 2d3c b6dd e23d c83c c9bd
00000310: d12b 1cbd 27ee 5dbd bece a93d ec9e 27bd
00000320: ed51 043c 7f49 b7bd 4932 babd 61a8 6dbd
00000330: 326f 453e 8e43 1e3d 48f0 cb3d ae2d 373d
00000340: 6b46 dd3c 7805 9b3d 67e8 e8bb 4cd1 863d
00000350: 4991 913d 1d34 ce3c 300d ec3b 9191 a43d
00000360: ef53 3dbd 794c 22bd a716 e9bd b008 373c
00000370: 8642 1cba 01f2 173c 6692 9c3d bc8d fc3c
00000380: 3ae3 a83d 4675 e5bc f04f 603d 4741 2dbd
00000390: 1d7f b63c 79bd 20bd ec0b 8f3d 4bb1 49bd
000003a0: 204a e2bd caf3 c9bd 7338 bcbd 2a6f 9bbd
000003b0: 947d abbd d6de 0f3e 7cb4 0d3e de52 0a3e
000003c0: 888b 7cbd c9a8 7dbd c5cc dcbd 4e5f 8b3b
000003d0: cf2b 603c cda9 0b3d 65a1 a83c d094 51bc
000003e0: 897a c23d 48e2 56bd beb6 f93c 54fc 06bd
000003f0: 1ced dabd c9d5 38bd 4447 30bd 6ca8 aa3c
-0.07956383 -0.022270054 -0.06783493 0.003519904 -0.059012704 -0.042088047 0.0039077913 -0.00398989
0.04373608 0.054941103 0.013653678 -0.09281387 0.104746155 0.018712996 0.04531071 -0.030228276
-0.057396267 0.027289573 -0.024769085 0.059034757 -0.034320533 -0.08430907 0.06530709 -0.033621147
0.048845515 0.007760644 0.006821846 0.055414796 0.100464284 0.05402916 0.01653513 0.047570053
0.047234435 -0.04698038 -0.04371664 0.017286625 0.00845058 0.015503462 -0.066322036 -0.0009112476
0.05879088 0.022996897 -0.059380252 -0.021523144 -0.03846725 -0.006683944 0.0028041997 -0.09222759
-0.020425765 0.0040013394 0.019008119 0.01145254 0.060886737 0.0753995 0.03556496 0.056205947
-0.080857754 -0.126734 -0.058220036 -0.09400884 0.054138765 0.03082122 0.03556426 -0.09135807
-0.06183374 -0.0065475614 0.04639235 -0.017906051 -0.060647402 -0.018222477 -0.02547011 -0.024087144
0.09346814 0.005558658 0.077004634 0.0031462442 0.051709305 0.062231563 0.02413496 0.042084403
0.029095301 -0.00082262757 0.060311433 0.043898717 -0.026688332 -0.010497372 0.061256863 0.05131902
0.06755991 0.050828397 0.09716032 0.11085715 0.10075333 0.05404957 0.0012367594 -0.063290045
0.023643184 0.07346294 0.024929337 -0.024676451 0.0373438 -0.02431416 0.046765596 0.030905737
-0.036818795 0.024275804 0.056951534 0.034174714 0.010807384 0.044125408 -0.016424723 -0.0301026
-0.076396376 -0.06320078 0.12130778 0.084623285 0.038006146 0.05283911 -0.040697314 0.027842417
0.044422083 0.10398447 0.071516916 0.011040684 0.006458895 0.045045808 0.038768828 0.025016049
0.036850948 0.10102018 0.013275687 0.06992635 -0.023581583 -0.010715039 0.06791098 -0.083563365
-0.113767296 -0.1302202 0.058354713 0.07889338 0.03256898 0.06041489 -0.059995074 -0.10225954
-5.575673e-05 -0.07916441 -0.046255615 -0.08673835 -0.10905372 -0.12285546 0.032028094 -0.08159197
-0.049160913 -0.0937751 0.032865636 -0.035617698 0.03790701 0.070562564 0.07567396 0.0887806
0.0546611 -0.044144273 0.059009448 -0.040683046 -0.029071435 -0.13063052 -0.14099374 -0.104627706
0.22254328 -0.054237425 0.070441484 0.05935137 -0.012298177 -0.0013334763 -0.109100066 -0.119941585
-0.10749799 0.07532106 0.028956896 0.06556623 -0.08666392 -0.091015436 -0.03750965 -0.00395884
0.060160667 0.040914677 0.0363652 -0.011935059 0.05134281 -0.027464354 0.009751115 0.031689994
-0.007101879 0.010617025 0.11077444 -0.09826046 -0.038127724 -0.054182198 0.08291386 -0.040923044
0.008076173 -0.08949565 -0.090916224 -0.058021907 0.19280699 0.038638644 0.099579394 0.044721298
0.027011117 0.075694025 -0.0071077826 0.06582889 0.07107789 0.025171334 0.0072037205 0.08035577
-0.046222623 -0.03962371 -0.11381274 0.011171505 -0.00059608405 0.009274007 0.07645111 0.030829303
0.08246465 -0.028010022 0.054763734 -0.04229858 0.02227741 -0.039243195 0.06984696 -0.049241345
-0.110492945 -0.09860952 -0.09190454 -0.07589562 -0.083735615 0.14049849 0.1383838 0.13508174
-0.061656505 -0.061928544 -0.10781244 0.0042533046 0.01368232 0.03409748 0.020584771 -0.012791827
0.09496028 -0.052461892 0.030482646 -0.032955483 -0.10689756 -0.045125756 -0.043036714 0.020832263

extractor.6.bias f4 [48]
00000000: 6c13 d53b d9a0 3fbd b524 5bbb 36dc 2ebd
00000010: faa4 323d efda 1fbc b651 84bb 8b23 633d
00000020: 17be 1f3c e59d d13c 7277 42bd dd39 35bd
00000030: aca7 f03c 5f93 e23c 7029 4fbd 8fef 2c3d
00000040: d293 60bc 4d6e 113d 23c2 5a3d f8ad 2bbd
00000050: c551 cf3b b557 54bd 4c15 d3bc 1cf8 94bc
00000060: 923f bcbc 2043 073d 5f4e 773c 8927 dc3c
00000070: 87db d13c 43f2 7d3c 2890 b73c 85f5 abbc
00000080: 3588 373d 0005 273c 3ab3 3abc 5e14 213a
00000090: 851d 8bbc 19dc 243c f68d 403d 7baf 35bd
000000a0: 9a1d 39bd d6a3 afbc 0bd6 173b 97f0 273d
000000b0: beab 083d e8c2 4a3d 651d ab3c 8ec9 25bd
0.0065025594 -0.046784256 -0.0033438627 -0.04269048 0.043614365 -0.009756788 -0.004038061 0.05545382
0.009749911 0.025587985 -0.047477193 -0.044244636 0.029376827 0.027658163 -0.050576627 0.04222065
-0.013707118 0.03550558 0.0534078 -0.041913956 0.0063268864 -0.051841456 -0.025766991 -0.018184714
-0.022979531 0.033023 0.015094369 0.02687432 0.025617374 0.015499654 0.022407606 -0.020991096
0.04480763 0.010194063 -0.01139527 0.00061446975 -0.01698185 0.010062241 0.047010385 -0.044356804
-0.045194246 -0.021440428 0.002316835 0.04100093 0.03336691 0.049502283 0.02088804 -0.04047542

extractor.7.weight f4 [48]
00000000: 949a 813f 4c59 723f 33db 7f3f c8e5 743f
00000010: 8ad2 813f f263 6f3f 5743 7c3f 351d 783f
00000020: e4ca 803f 8cb7 6b3f 4f06 6b3f 4206 7e3f
00000030: c746 613f 383c 843f 3b17 8f3f e49c 843f
00000040: 8fc1 813f a702 7e3f 9118 813f 07a6 753f
00000050: 83cc 7f3f 92a1 7d3f 8ce1 793f 9bf0 813f
00000060: 604e 813f 7ab0 853f 4d4b 7c3f af21 763f
00000070: 6737 773f 84a8 863f e85a 723f 4147 803f
00000080: f56a 8c3f 3153 753f 9010 733f 85b6 793f
00000090: 9ea3 853f 2ce1 693f 1ad3 8d3f 736d 683f
000000a0: e426 7d3f f791 703f 7c20 883f a9c8 893f
000000b0: 7127 803f 413d 713f 8b26 753f 04c1 803f
1.0125299 0.94667506 0.99943846 0.9566312 1.0142376 0.9351188 0.9854025 0.96919566
1.0061917 0.92076945 0.918065 0.992283 0.8799862 1.0330877 1.1178964 1.0360379
1.0137194 0.992228 1.0085622 0.9595646 0.99921435 0.9907466 0.9760978 1.0151552
1.0102043 1.0444481 0.985524 0.9614515 0.9656891 1.0520177 0.9466996 1.0021745
1.0970141 0.95830065 0.9494715 0.9754413 1.0440557 0.9135921 1.1080048 0.90792006
0.9888747 0.93972725 1.0634913 1.0764362 1.0012037 0.9423409 0.95761937 1.0058904

extractor.7.bias f4 [48]
00000000: a82c 80be 0377 cdbe 52e8 ecba cf51 b8bd
00000010: c4a8 e0bc 10f9 b1be ab70 c9bd 2849 eebd
00000020: c7e2 f7bd 7aa6 ddbe 79ba 9ebd b4a6 f5bd
00000030: 93dc dbbe ddbf 37be 6220 093c 7b8e 27be
00000040: 608c 1ebd df4f 78bd 431a 63bd a7d0 24be
00000050: ed18 b2bd 6450 f6bd 5251 bbbe 3c0e cbbd
00000060: 7f11 edbd e164 13bd 4110 15bc 79d5 aabe
00000070: 1d89 86be 1dc4 17be e463 c9bd 0e90 34be
00000080: 771f 2fbe 4cbe afbd 5043 ffbe c473 a3be
00000090: 8182 e7bd 1867 e7be bb3d fabc ed67 2dbe
000000a0: 4100 9cbd 7489 29be 4ebd f4bd e873 87bd
000000b0: bef6 78bd b8e8 3fbe e80e 94be e726 95be
-0.2503407 -0.4012986 -0.0018074608 -0.08999979 -0.027424224 -0.34760332 -0.09835943 -0.11635047
-0.12103801 -0.43291074 -0.077504106 -0.11994687 -0.42941722 -0.17944284 0.008369537 -0.16362946
-0.03870809 -0.060623046 -0.055444967 -0.1609522 -0.086961605 -0.12027052 -0.3658548 -0.09914824
-0.11575603 -0.035984877 -0.0090981135 -0.33365992 -0.26276484 -0.14820905 -0.09833506 -0.17633078
-0.17101847 -0.08581218 -0.49856043 -0.3192426 -0.113041885 -0.45195842 -0.030547014 -0.16934176
-0.07617236 -0.1655634 -0.119501695 -0.06613904 -0.060782187 -0.18741119 -0.28917623 -0.29131243

extractor.7.running_mean f4 [48]
00000000: 0e16 063f 9ce1 ae3d 83c7 3e3f 0d9e 593e
00000010: 4a69 b53d d037 f7bf 1dc6 cd3e b9c5 3e3c
00000020: 986a 09bf 9e0c c33d 6f36 18c0 c181 62bf
00000030: 61f3 33be 13b3 60bf 7907 d3be b096 c8be
00000040: 17d6 1fc0 2164 10c0 6ef6 14bf e449 04bf
00000050: 65cd 5cbf 445d 9bbf a855 46bd f55d 0d40
00000060: 4c29 3040 4271 62be 5212 b6bf 131b d8be
00000070: f45a fabf 66da 3c3f 272e 93bf 2253 4f3f
00000080: 11aa ab3d 1451 16be 6cc0 48be 3ba6 d2be
00000090: 2e7b ac3f 70da b4bd fe08 0fbf f32d d7bf
000000a0: f120 aebf 4ecc 113f 4248 323f dc89 473f
000000b0: f849 6c3d a525 d6bf 2812 c8bf 256d 8dbe
0.523774 0.08539125 0.7452318 0.21251698 0.08857973 -1.9313908 0.4019021 0.01164382
-0.53678274 0.09523891 -2.3783224 -0.8847924 -0.1757331 -0.87773246 -0.4121664 -0.39177465
-2.497442 -2.2561114 -0.5818852 -0.5167525 -0.8625091 -1.2137837 -0.048421532 2.2088597
2.7525206 -0.22113517 -1.4224341 -0.42208156 -1.9559007 0.7377075 -1.149846 0.80986226
0.08382047 -0.14679366 -0.19604653 -0.4114245 1.3475091 -0.08830726 -0.55873096 -1.6810898
-1.3603803 0.5695237 0.69641507 0.7794473 0.05768773 -1.6730238 -1.5630541 -0.27622333

extractor.7.running_var f4 [48]
00000000: 65ea 573f 654a 833f 5c74 5a3f ce3f 0540
00000010: aab8 6f3f e854 b33f 390b 5540 f8b8 8e3f
00000020: 2353 6b3f 2359 423f 92e7 2940 10f8 023f
00000030: 9fa4 823f 29ef af3e ae6b a83f 9ef7 b03e
00000040: 86a6 e53f 47ae d33f 44bf 4d3f 89fc a03e
00000050: c084 a73f 4eaf 353f c786 5b3f 9ccd 2540
00000060: 1026 1140 1b48 2040 168d 9840 e9d4 7b3f
00000070: 249f a23f 2af8 a13f 12b1 d23f 55c8 793f
00000080: 7286 143f 6d7d 1640 e2af fd3e aa68 a33f
00000090: 361c a03f d765 953f 0eec 8c3f 6ca1 5f40
000000a0: 2319 1640 eaa4 923f 4194 bf3f 8f73 2d3f
000000b0: b8db 7240 8304 e33f 7251 5f3f 20c1 e83e
0.8434203 1.0257078 0.853338 2.0820193 0.9364115 1.4010286 3.32881 1.1150198
0.9192373 0.7591726 2.654759 0.51159763 1.0206488 0.34362152 1.3157861 0.34563917
1.7941444 1.653756 0.80369973 0.3144267 1.3087387 0.7097062 0.8575253 2.5906744
2.2679482 2.504401 4.7672224 0.9837175 1.2704816 1.2653859 1.6460288 0.9757131
0.5801765 2.3514054 0.4954825 1.2766316 1.2508609 1.1671704 1.1009538 3.4942274
2.3452842 1.1456578 1.4967119 0.67754453 3.7946606 1.7735752 0.8723365 0.45459843

extractor.9.weight f4 [64, 48, 3, 3]
00000000: f9bb cdbc b9df 1c3d 6b58 6c3c 0150 943a
00000010: 5647 44bd 53d9 93bd eaf4 89bc 9f0e fbbd
00000020: 8bf2 2bbd a6a3 60bc c547 4ebd 42a7 2ebd
00000030: 5035 edbb b89c 373b 64cb 1abd db29 93bd
00000040: 3c28 1abe 137f 25be 806f 6cbd 8f23 c73d
00000050: e52c 3b3b ef0e 6dbd 8b8a 53bd ffb5 0ebc
00000060: 926a cabd ab35 5ebd 1b20 de3b ca6d 353d
00000070: dbcc 99bd 418f b9bd 93a4 463d 40cf f0bb
00000080: 6257 febd 4673 7fbd 48d6 73bd a86d 45bd
00000090: cdb0 643c 27b8 febc 689f 9b3d 439c 6ebd
000000a0: 8cbf 3bbd 2763 5fbd 5a8e 42bc 833e 703b
000000b0: 2339 bfbc 1cf3 1abe 8ee8 11be d4db 8ebd
000000c0: 218d 28bd b49a 10bb 8576 253b df8e c4bd
000000d0: 9211 1abd 6531 59bd 325c c6bd 5d33 d9bd
000000e0: d7d7 7ebd 2fb1 d1b9 9248 0a3d 5a23 61bd
000000f0: 7762 a7bd c03d 79bd 23a2 0abe 72de 4c3d
00000100: c3ea a23c 650c 923d a125 2fbc df94 bbbc
00000110: 5392 2b3d a452 923c 888a b03d 95ee d03d
00000120: 6348 6f3a a5b3 cd3d 6458 f03d f91f fc3c
00000130: 1cdc 78bc 0db1 633d 1a07 c23b be1d dfbc
00000140: b856 52bd aeae 95bd 407b 3cbb b396 32bc
00000150: b773 233b dcc7 9a3c 54fa cdbd 7aa9 0cbc
00000160: 6df1 6ebb f7b3 2cbd a2f5 893b d25e 52bd
00000170: 1e31 90bc e38a 17bd 29cb c0bc 746a 7e3d
00000180: d3bb acbc 7482 c23c 0011 d9bc bd2e 59bd
00000190: 8660 dcbd ca71 293c 2cc0 a0bc 37a4 afbd
000001a0: d4a1 e8bc 45ad a33c d06e 62bd 6929 963d
000001b0: 6600 a2bd 7906 3cbd f45c 3abd d73a 8dbd
000001c0: e6d9 26bd 05bd a2bd 1c0d 9c3c 4b81 4cbd
000001d0: d676 b7bd 48f8 3fbd 129e b0bd 7ee1 c2bd
000001e0: 1065 033e c1db 2f3d e2f7 9e3c 3e8c a13d
000001f0: 5cff 5f3d 4a16 e53c 177d f0bd 1759 d3bd
00000200: fffa a63c 9da9 4abd 2665 303b b07d b83d
00000210: 5c1a fabd 324c d3bd 3e5e 113d 91e8 613c
00000220: 59bf 80bd 493f 0e3d 53be a23d ce24 4e3d
00000230: f740 1b3d 89f3 303d 2d0a da3d 74ed ce3d
00000240: 874b 273d 123b ef3a 3d23 d73d 918b 823d
00000250: 2902 c13d 235c 893d 373a 35bc bb76 a23d
00000260: cda1 e6bc 7640 9fbd 5262 d3bd 9620 f9bd
00000270: fdfd 523d 9d71 0cbd c235 2ebd f82c 6f3d
00000280: 1869 7bbc 942e 883b b43b e2bc d25d 203d
00000290: 5ac5 cf3b 3e36 98bd d8f8 7bbd 9d84 5dbc
000002a0: cf44 92bd 6c5e 8e3c cd44 403d 4682 76bc
000002b0: cb34 51bd 0bf3 49bc e5cc f73c 082f d0bd
000002c0: 2232 1b3c 9c62 3f3d 05ba 99bb 28e9 2fbc
000002d0: df5d 393d c6c8 b43a d1f6 53bb aa62 fabc
000002e0: 837b 93bc c823 21bd eb02 25bd c0a7 d8bd
000002f0: 7145 223d aec7 1e3d eb4d 943c d950 303d
00000300: 907b a83d 3449 cd3d a625 2cbc 9808 1d3d
00000310: 2486 a63c b56a d7bc 4950 06be b11a b5bd
00000320: 4c76 50bc 217b 363c 5074 df3c 6d55 33bd
00000330: bba9 78bd 431b f6bd 92dc cdbd a64f 85bd
00000340: 04a6 0bbe 255e c8bd 9386 e0bc 8a14 64bd
00000350: 79db d5bd 3922 0b3e 615d 273d e065 7a3d
00000360: a88f b93c c3bc bebd 6cc9 89bd 6f55 89bd
00000370: 1c14 64bd cba9 9ebd d36e 5dbd fbb5 d8bd
00000380: 469a c23c e385 e93c 14bd ba3d f807 c23c
00000390: bb02 9fbb 04a8 22bc f68c 71bd 8bd3 fbbc
000003a0: ae05 f7bc 1b3a b6bc 73f8 64bc 71ba 053d
000003b0: 8431 6abd 7861 823d ee99 8a3d a9e8 66bc
000003c0: 9725 283c 8ce4 063c 7547 94bc 0778 debd
000003d0: 8f12 98bd 1eb7 21bd 8c9a 38bd e5a8 bb3b
000003e0: cac9 80bc a12d c9ba b1d0 b6bc 83b4 a4bd
000003f0: c9f9 10be beb2 8ebd ad32 103d 9f55 c03b
-0.025114046 0.038299296 0.014425377 0.0011315347 -0.047919594 -0.07219186 -0.016840417 -0.12258648
-0.041979354 -0.013710892 -0.050361414 -0.04263998 -0.0072390214 0.0028016996 -0.037791625 -0.07185718
-0.1505441 -0.16161756 -0.057723522 0.09723579 0.0028560695 -0.05787557 -0.051645797 -0.008710383
-0.09883608 -0.0542504 0.0067787296 0.044294156 -0.07509776 -0.09060527 0.048496794 -0.007348925
-0.12419011 -0.062365793 -0.059530526 -0.04820028 0.013958168 -0.03109367 0.07598764 -0.05825449
-0.04583697 -0.05453792 -0.01187476 0.0036658354 -0.023342675 -0.15131801 -0.14248869 -0.06975523
-0.041150216 -0.0022064866 0.0025247645 -0.09597563 -0.037614413 -0.053025622 -0.096855536 -0.106055
-0.06221756 -0.00039995598 0.033760615 -0.054965355 -0.081730776 -0.060849905 -0.13538413 0.050016828
0.019887334 0.0713127 -0.010690124 -0.022898136 0.041887593 0.017861672 0.08620173 0.10201756
0.0009127913 0.1004403 0.11735609 0.030776965 -0.015189197 0.05558877 0.0059212567 -0.027235862
-0.051352233 -0.07308708 -0.0028759986 -0.010900187 0.0024940798 0.018894129 -0.10057512 -0.008585328
-0.003645982 -0.042163815 0.00421019 -0.05135996 -0.017601546 -0.036997687 -0.023534374 0.06211324
-0.021085655 0.023743846 -0.026497364 -0.05302309 -0.10760598 0.010342071 -0.019622885 -0.08576243
-0.028397478 0.019980082 -0.05528146 0.07332117 -0.07910232 -0.04590461 -0.045498803 -0.068959884
-0.040735148 -0.07946209 0.01904922 -0.04992799 -0.08958213 -0.04686764 -0.086238995 -0.095156655
0.12831521 0.042934183 0.01940531 0.07888077 0.05468689 0.02796473 -0.11742609 -0.10319727
0.020383356 -0.049478162 0.0026915758 0.09008348 -0.12212059 -0.103172675 0.035490267 0.013788358
-0.06286497 0.034728322 0.07946458 0.05032807 0.037903752 0.043201003 0.10646472 0.10103884
0.040843513 0.0018251857 0.10504768 0.063742764 0.0942424 0.06707027 -0.011061243 0.07932802
-0.028153324 -0.07775967 -0.103214875 -0.121644184 0.051511753 -0.034288038 -0.042531736 0.058392495
-0.0153448805 0.004155943 -0.02761636 0.039151974 0.006340665 -0.07432221 -0.061516613 -0.013520387
-0.071420304 0.017379008 0.046940614 -0.015045708 -0.051075738 -0.012326012 0.030249069 -0.101652205
0.009472402 0.0467249 -0.0046913647 -0.010736741 0.045255538 0.0013792745 -0.003234316 -0.030564625
-0.01800323 -0.039340764 -0.040285986 -0.10578871 0.039617006 0.03876465 0.01810356 0.043045852
0.08226693 0.10023728 -0.010507023 0.038338274 0.020327635 -0.026295999 -0.13116564 -0.088429816
-0.012723517 0.011137755 0.027277142 -0.04378264 -0.060708743 -0.120169185 -0.10051836 -0.06509332
-0.13637549 -0.09783582 -0.02740792 -0.05568365 -0.10442252 0.13587274 0.040860537 0.06113231
0.022651508 -0.09313347 -0.06727871 -0.06705748 -0.05568324 -0.07747229 -0.05406077 -0.10581585
0.023755204 0.028506225 0.09118095 0.02368544 -0.0048526204 -0.009927753 -0.05897232 -0.03074052
-0.030154075 -0.022244504 -0.013975251 0.032648508 -0.057176128 0.06366247 0.06767641 -0.014093556
0.010262868 0.008233201 -0.01810048 -0.10862737 -0.07425415 -0.039481275 -0.045069262 0.005726921
-0.01572122 -0.0015348681 -0.022316309 -0.080422424 -0.14157785 -0.06967686 0.03520458 0.005869582

extractor.9.bias f4 [64]
00000000: 448d c2bb 0443 85bc 10f2 08bc 0db8 14bc
00000010: 6650 163d 6c24 4dbc a5be c03c abbf 813c
00000020: 428a e3bc ee2c 05bd ecb0 a7bc 213a e4bc
00000030: a946 c53c 2008 033d 6120 253d 55d0 b2bc
00000040: 147a 333d 499c 99bc 55f3 9c3b 0a54 3c3d
00000050: 8d09 a73c 6cfb 4fbc 5896 11bd 4179 16bd
00000060: 3482 aebb 1640 3c3d c301 c13c 317e 1d3d
00000070: 9825 39bc 33dd 053d 332c b53c 9851 883c
00000080: 2066 843c e3f8 d03b f5f7 babc d9b7 913c
00000090: 9f97 37bc b886 e03c 33ec ef3c be1e 13bd
000000a0: 8614 38bd 0777 f4bc da7e 093d 1a23 d8bc
000000b0: 7d4c 1e3d 88de febc 1f2e 37bd 5ab1 d93c
000000c0: 2f04 1bbd 670c e53c 8e80 6ebc 7f97 383d
000000d0: 0a37 e33c 3488 6b3c dcad f23c f973 39bd
000000e0: da0e 353d c99c 1cbd 0476 2dbd 0aef bebb
000000f0: 4eb8 bb3c 5dde 0cbd 5ef6 44bc f951 13bd
-0.0059372503 -0.016267307 -0.008358493 -0.009077084 0.036697768 -0.012520891 0.023528406 0.015838465
-0.027775887 -0.03251355 -0.020470105 -0.02785975 0.024081545 0.03199017 0.040314082 -0.021827856
0.043817595 -0.01875128 0.0047897496 0.045978583 0.020390296 -0.012694221 -0.03554377 -0.03673673
-0.00532558 0.045959555 0.02356041 0.038450424 -0.011300467 0.032681655 0.022115802 0.01664047
0.016161978 0.006377326 -0.022823313 0.01778786 -0.011205583 0.027407989 0.029287433 -0.03591799
-0.044941448 -0.029841913 0.03356824 -0.026383925 0.038647164 -0.03111197 -0.04472172 0.026573826
-0.037845787 0.027960015 -0.014557017 0.045066353 0.027736206 0.014375735 0.029623918 -0.045276616
0.044203617 -0.03823546 -0.042348877 -0.0058268355 0.022915032 -0.03439175 -0.012021629 -0.035966847

extractor.10.weight f4 [64]
00000000: d866 833f 305a 813f aa32 6d3f 240a 8c3f
00000010: 867d 733f 09db 753f a8aa 813f 2cb5 783f
00000020: e89d 623f c8f8 853f e871 6f3f 5d01 813f
00000030: b56b 913f a07a 853f 9b62 693f 6e33 643f
00000040: a6c3 823f 88cf 673f 5395 913f cab8 823f
00000050: 471d 6d3f b76e 893f c48d 6e3f 6aba 5f3f
00000060: 5211 7e3f 02e4 823f 52e6 753f 392f 893f
00000070: a62f 903f 06c2 863f 8507 853f 17f3 7b3f
00000080: 4da6 7f3f 948a 793f f480 743f 2861 713f
00000090: e02f 703f ce0b 783f 3170 633f e507 7f3f
000000a0: 4948 693f ff03 773f 35a8 7f3f db55 733f
000000b0: 8315 823f effd 663f a030 7b3f e172 7f3f
000000c0: b124 943f d56c 8c3f 5f6c 803f 110c 783f
000000d0: 2833 843f 9131 703f 02d3 883f 8e22 8d3f
000000e0: c3b8 693f 77cb 863f d8c8 623f 1816 823f
000000f0: 687d 813f df45 873f e301 803f 0810 753f
1.026576 1.0105648 0.9265543 1.0940595 0.9511341 0.96037346 1.0130205 0.97151446
0.88522196 1.0466547 0.9353318 1.0078541 1.1360995 1.0428047 0.91166085 0.89140975
1.0215957 0.9055104 1.1373695 1.0212643 0.926228 1.0736912 0.9318507 0.8739382
0.9924518 1.0225832 0.96054566 1.0717536 1.1264541 1.0527961 1.039292 0.984178
0.9986313 0.9747708 0.95509267 0.94288874 0.9382305 0.9689301 0.88843066 0.9962142
0.91125923 0.9649047 0.9986604 0.9505288 1.0162815 0.9023122 0.9812107 0.99784666
1.1573697 1.0970713 1.0033072 0.9689341 1.0328112 0.9382563 1.0689394 1.102617
0.9129755 1.0530843 0.88587713 1.0162992 1.0116396 1.0568198 1.0000576 0.95727587

extractor.10.bias f4 [64]
00000000: aaab 45bd b6a6 7cbd 05b6 cabe 8e63 fabd
00000010: 8011 d6bd 861d 70bd 5109 96bd 5517 46bd
00000020: 1faf e5be d808 2fbe 0d7c 07bf 5dc3 ddbd
00000030: 914a e3bd 13ff 38be 66b3 33be 5afb 1fbf
00000040: 5f9d 14be 67c5 a0be d02c 21be c18d a4bd
00000050: 39df 15bf 3962 7fbd e41a 73be d5e5 18bf
00000060: c3e7 99bd 09e5 91bc 4886 19be 46dd 32be
00000070: 5078 1abe af25 babd e6ec edbd 90dd 5dbe
00000080: 2698 00be 1d34 edbe 59c9 6dbd 508e f3be
00000090: 0028 14bf 36c6 1cbe f5f7 0bbf 31a8 80bd
000000a0: 5017 20be 013a 9bbd 8a0f f7bd efeb 49bd
000000b0: 105c dbbd 2cb8 c3be 430f 35be a298 5abe
000000c0: 01ef f2bc b04f 65bd 4993 58be b37a f9bd
000000d0: 653c 72bd bd45 b1be acd3 04bd 6ef6 7abe
000000e0: ebd6 00be 8309 9ebd b9e5 0ebf 40d4 ff3b
000000f0: 64be a0be c93d 25be 5f22 acbd a744 1abe
-0.048259415 -0.061682425 -0.39591995 -0.1222602 -0.104525566 -0.058621906 -0.07325996 -0.048362095
-0.4486017 -0.17093217 -0.5292366 -0.10828278 -0.11098207 -0.18066053 -0.17548904 -0.6249291
-0.14513157 -0.31400606 -0.15739751 -0.0803485 -0.58543736 -0.06234953 -0.23740727 -0.59725696
-0.07514908 -0.017809408 -0.1499263 -0.17467222 -0.15084958 -0.09089219 -0.116174504 -0.2166655
-0.1255804 -0.46328822 -0.05805335 -0.47569513 -0.57873535 -0.15309986 -0.5467523 -0.0628208
-0.15633893 -0.07579423 -0.12063511 -0.04929727 -0.10710919 -0.3822645 -0.17681603 -0.21347287
-0.029654982 -0.0559842 -0.21149935 -0.12181606 -0.059139628 -0.3462352 -0.03242843 -0.24508068
-0.12581985 -0.07716658 -0.5581928 0.0078072846 -0.31395257 -0.1613685 -0.08404993 -0.15065251

extractor.10.running_mean f4 [64]
00000000: 80a2 a3bf c0a5 2f3f b6ce d83e 73ca d93e
00000010: 7717 dfbf f7dc e5bf 4fd1 0ec0 d2b6 e0bf
00000020: bec9 7bbf 3a46 18c0 307c 053f 573a 1dc0
00000030: 1127 b43e e6e8 ffbf a69f 83c0 cd2c 02bf
00000040: 3adb 04c0 06c5 d1be 2b79 22c0 9f08 703f
00000050: 70e6 2a3e 27b3 a33e 6495 25c0 f5c4 3d3e
00000060: 326a 13c0 1202 15c0 736d 3ac0 a610 18c0
00000070: f2f3 85bf b469 13c0 71d3 3bc0 8616 45be
00000080: 131a 66bf 28b1 463e a6d0 d6bf 9fa7 22bf
00000090: 8144 ac3e ee4a 6cc0 4619 b0be 99b8 c7bf
000000a0: 8e68 c63e 1248 d6bf 0fa0 0fc0 920a a8bf
000000b0: 6e47 3dc0 ea15 58bf 0c44 d6be 2871 d3be
000000c0: f1a1 dcbe c645 f0bf 6e68 b9bf 3724 83bf
000000d0: 7492 4ec0 54fa a3bf 922f e4bf de2e b7bf
000000e0: ff55 33c0 dabc 6dbf 55df 5abf dcff 3ec0
000000f0: 385d e1be b30c 8bbf fd8b de3f 8804 86c0
-1.2783966 0.6861229 0.42345208 0.4253727 -1.7429036 -1.7958058 -2.2315252 -1.7555792
-0.9835471 -2.3792863 0.5214262 -2.4566858 0.35186055 -1.999295 -4.1132383 -0.5084961
-2.0758805 -0.4097063 -2.5386455 0.93763155 0.16689467 0.3197262 -2.587243 0.18532164
-2.3033566 -2.3282514 -2.9129303 -2.3760161 -1.0465071 -2.3033266 -2.9347804 -0.19246873
-0.89883536 0.19403517 -1.6782424 -0.6353702 0.33646014 -3.6920733 -0.34394282 -1.560321
0.38751644 -1.6740744 -2.2441442 -1.3128226 -2.9574847 -0.8440844 -0.4184879 -0.4129727
-0.430923 -1.8771293 -1.4484994 -1.0245427 -3.2276888 -1.2810769 -1.7827017 -1.4311178
-2.8021238 -0.9286629 -0.8549703 -2.9843664 -0.44016433 -1.086325 1.7386471 -4.188053

extractor.10.running_var f4 [64]
00000000: f00e 6d40 f56a 6d40 5c03 ca3f 8f92 1040
00000010: cc47 9940 76f7 5440 0a57 5540 53f2 9f40
00000020: ba52 0140 8fef 2040 cb1b f33f 3d62 ad40
00000030: b8ae 5840 c405 6a40 7d29 9e40 b5b1 f53f
00000040: f95f 9840 35c1 3b40 0bc2 3c40 8cbf 6240
00000050: f5f0 0440 3b10 8540 54b5 b640 f4da 0240
00000060: 3c11 7c40 a341 6340 ce10 a340 a364 8140
00000070: 2ff6 1f40 95ff 1e40 c443 5040 6140 e33f
00000080: 9e30 1340 0a41 0840 b8b2 1a40 4f54 6c40
00000090: b982 0240 e72f b140 3b49 0440 63d2 2540
000000a0: 0482 1f40 4477 8540 3c24 5940 7b58 ec40
000000b0: bd58 5840 4ba2 4340 c6c4 2240 6cbd 9f3f
000000c0: d96f 4840 6b21 5540 ede1 5540 9989 2c40
000000d0: 3926 7b40 d009 4040 b621 4e40 86d0 5040
000000e0: b920 e240 ffae 0640 41af f53f 04b7 2340
000000f0: ebe1 2440 062e 8f40 5a54 6740 56fd ce40
3.7040367 3.7096531 1.5782275 2.2589452 4.7900143 3.3276038 3.3334374 4.9983306
2.0206742 2.5146215 1.8992857 5.418242 3.385664 3.656602 4.9425645 1.9194857
4.7617154 2.9336674 2.9493434 3.542941 2.0772069 4.1582313 5.709635 2.0446138
3.938552 3.5508811 5.0958014 4.0435348 2.4994009 2.4843495 3.254136 1.7754022
2.2998424 2.1289697 2.4171581 3.6926458 2.0392287 5.5370975 2.0669696 2.590966
2.4923105 4.170809 3.3928366 7.385801 3.3804162 3.0567806 2.54326 1.2479682
3.1318266 3.3301647 3.3419144 2.6958983 3.924208 3.000599 3.2208076 3.2627273
7.0664945 2.104431 1.9194108 2.5580454 2.576289 4.474368 3.6145234 6.468425
